ligand_model/DNN_FC0001_ModelH2-PubChemFP-top256_batchsize-16_optim-sgd_lr-0.0025/train4.model (torch, 413839 bytes, 8 tensors)

fc1.weight f4 [256, 256]
00000000: d5c6 01bd 1ac0 4e3d 06c2 043d 92da 6cbd
00000010: 2c92 1c3d e0f7 ab3b 0b36 58bd 2733 03bd
00000020: da74 f6bc d3a1 24bc 2f7e 793d 9255 c93b
00000030: db62 0cbd a40d ba3c a166 50b9 4ca2 d5bc
00000040: 0510 7abb f37c 613d f6a1 78bd 6c39 e8bc
00000050: ec1e 74bd c485 083d dd55 0abc d66a 6c3d
00000060: 7cd9 e03c 1e0e 46ba 8e76 bf3c ab8d 14bc
00000070: d3d9 3d3d 0285 43bd de1c 0a3c 3a81 0f3d
00000080: 2f2b 7b3b 6a62 273d e0b3 75bd ecb9 00bd
00000090: 6a8d 6c3d 087b b43c f158 c5bb e013 fabc
000000a0: 4863 88bc ce95 3fbd 2459 cdbc 561f 49bd
000000b0: 9f8e 633d ee60 25bd 3d7c 80bd f61e 0a3d
000000c0: e4e0 c2bc 4fe3 c33c 11d6 f6bc 86a5 583d
000000d0: 66cb 643d b274 783d 3348 6c3c 2083 6d3c
000000e0: 6c77 35bd 54ed 4b3d e675 223d 8faa ccbc
000000f0: 34ec afbc 5e1c 443d c0db eabb cdcf 92bb
00000100: dcfc 6cbd 3cc9 e43c 888a 183d 6e5e 703d
00000110: f0d4 dbbc 18ed 06bd 408f 13bd 0893 453d
00000120: cc08 f9bc e328 2ebc 00d7 dd3c 2494 6fbd
00000130: d163 6bbd 3468 de3c 604b d4bc 7cb1 99bc
00000140: c5a1 523d 5730 62bd 3850 c6bc 003b ae3c
00000150: a4b6 4ebd e424 973c d86e 1f3d e81e 3e3d
00000160: 8b91 cbbc 522d 4cbd 62bc 52bd a657 0d3d
00000170: 71d4 5fbd debd 2fbd d387 25bc cd0f 693d
00000180: b79a 4f3d f988 5e3d a213 513d 80a0 243a
00000190: 9c0d d53c 75b3 3f3d 2eef fdbb 54f7 3d3c
000001a0: 6a9b 0bbd 8241 08bd 40e0 473b c03a 78bb
000001b0: cb1a 043b 4a39 76bd 7063 d5bc baf0 2c3c
000001c0: 80f8 e23a 61ac e43c a2fa 693d 271f 853b
000001d0: a987 e63c c850 4f3c beed f03c d9bb 60bd
000001e0: 5cf5 59bd e506 c1bc cb29 36bc cdc2 003c
000001f0: 307e edbb 2e45 34bd 84bb 36bd a8cc 46bd
00000200: 122f 53bd 0ac6 273d ac63 98bc b299 08bd
00000210: b775 30bc 6ebd 153d ee89 733d f03b 7bbd
00000220: a803 503c b4d0 dfbc c428 7abd 7419 d83c
00000230: b022 c83c 30aa 26bd 8c5b 483d 260d 4e3c
00000240: f8e1 2c3c 19e9 27bd 8054 3f3c 005d 553c
00000250: c80c 4abd 3cf7 2b3d 5847 9c3c 6008 7c3b
00000260: 90ea 583c 0258 003d 361b 453d b08c 98bc
00000270: 1144 25bd 901c 703c df29 4abd 757f 303c
00000280: 3e46 13bd b8d7 453d 9021 1ebc b28a 24bd
00000290: 5440 773d 7053 803b 7b84 233c 7c3e 013d
000002a0: d694 383d 2829 023d ca1b 733d c8f6 8fbc
000002b0: 6454 943c 7e2f 7ebd 9422 41bd 309d c1bb
000002c0: c13c e2bc a26e 43bd 1868 8b3c 4006 48bd
000002d0: 3dea 8fbc ea5b 60bd fa8b 66bd 14bc 563b
000002e0: 96d9 3c3d aa62 383d 1a4e 3c3d 29a2 6cbd
000002f0: 287b 4e3d e856 073c f841 07bc 00da ae3c
00000300: a0ba 67bd a75b 1cbd 8958 653d b473 62bb
00000310: dc5f d3bc 529f b4bc c8be 53bd f8d6 60bd
00000320: ca3d 16bd c7d5 b1bc 00cf ed3c 5800 f33c
00000330: 00c4 1c3b 242c 503d 102b bb3b 00ab a03a
00000340: 80d9 f43c e619 e93a 2da8 a8bc ee16 5bbd
00000350: 1ef5 1fbd a693 42bd 0809 103c f464 c4ba
00000360: 16a0 13bd f4b4 fdbc c02a dbbc cb0e 3f3d
00000370: a004 b8bb 64a4 2e3d c41e ff3c 43c3 9b3c
00000380: b299 dfbc 3174 3a3b 9e0c 183c 6a41 38bd
00000390: eba1 c13c 9808 44bd 4c50 f0bc 76e3 1ebd
000003a0: 88f3 7c3c 127e 343d 68f3 2c3d c2ec 2cbd
000003b0: de1a 6abd 01ae adbc 5bdf 50bd 6b60 713d
000003c0: 5119 07bd f99e e4bc 9034 81bb e0b6 70bc
000003d0: dc5f b83c 767d 713c 1571 6e3d aa41 31bc
000003e0: bc4a 703d 3858 a43c dc73 ebbc f025 f83b
000003f0: 2391 783d ec5c a8bc c2df f43c 9db2 343d
-0.03168376 0.05047617 0.032411598 -0.057825632 0.038225338 0.005248055 -0.052785914 -0.032031205
-0.030085016 -0.0100483475 0.060911354 0.006144234 -0.034273963 0.022711582 -0.00019874658 -0.026078366
-0.003815652 0.0550508 -0.060701333 -0.028347693 -0.059599802 0.033330694 -0.008443323 0.057719074
0.027447455 -0.0007555204 0.023371961 -0.009066979 0.04635031 -0.047734268 0.008429734 0.03503535
0.00383253 0.04086534 -0.059985995 -0.03142731 0.05775205 0.022031322 -0.0060225655 -0.030527055
-0.016648903 -0.046773724 -0.02506692 -0.04910215 0.055555936 -0.040375642 -0.062736966 0.033720933
-0.023788877 0.0239121 -0.030131372 0.05289223 0.05585804 0.060658164 0.0144215105 0.014496595
-0.044303343 0.04978688 0.039663218 -0.024983672 -0.021474935 0.047878616 -0.0071673095 -0.004480338
-0.057858333 0.027927987 0.03724149 0.058683805 -0.026834935 -0.032940954 -0.036025286 0.048235923
-0.030399702 -0.010629865 0.027080059 -0.058490887 -0.05746824 0.027149297 -0.025914848 -0.018761389
0.051423807 -0.05522188 -0.024208173 0.021268368 -0.05046715 0.018450208 0.03892407 0.046416193
-0.024849674 -0.04984791 -0.051449187 0.034507416 -0.05464596 -0.04290568 -0.010103184 0.056899834
0.050684657 0.054329846 0.051044114 0.000628002 0.026007466 0.046802003 -0.0077494597 0.011594612
-0.03408376 -0.033265598 0.0030498654 -0.0037876815 0.0020157571 -0.06011323 -0.026048392 0.010555441
0.001731649 0.027914228 0.057123788 0.0040625515 0.02814086 0.012653537 0.02941024 -0.054866645
-0.05321251 -0.023562858 -0.011118363 0.007858944 -0.0072477087 -0.044011287 -0.044612423 -0.04853502
-0.05155856 0.04096035 -0.018602215 -0.0333497 -0.010770253 0.036557607 0.059457712 -0.061336458
0.012696184 -0.027321197 -0.061074033 0.026379324 0.024430603 -0.040689647 0.04891543 0.012576377
0.010551922 -0.040993784 0.011677861 0.013022661 -0.049328595 0.041983828 0.019076988 0.003845714
0.013239518 0.03133393 0.048121653 -0.018621773 -0.040348116 0.014655247 -0.049356338 0.010772576
-0.03595566 0.04830143 -0.009651557 -0.040171333 0.060364082 0.0039161965 0.009980316 0.03155373
0.045063816 0.03177753 0.059352674 -0.01757373 0.018106647 -0.06205701 -0.047152117 -0.005908631
-0.02761686 -0.04771293 0.01701741 -0.048834085 -0.017567748 -0.054775156 -0.056285836 0.0032765912
0.046105944 0.04501597 0.04597292 -0.057771835 0.05041042 0.008260466 -0.008255474 0.021344185
-0.056574464 -0.038173344 0.055992637 -0.0034553828 -0.025802545 -0.022048626 -0.051695615 -0.05489251
-0.03668002 -0.021708382 0.02902937 0.02966325 0.0023920536 0.050823346 0.0057119206 0.0012257993
0.029888868 0.0017784208 -0.020588005 -0.053488664 -0.03905212 -0.04750409 0.008791216 -0.00149837
-0.03604134 -0.030970074 -0.026753783 0.046644967 -0.0056157857 0.042637244 0.0311426 0.019014006
-0.027294967 0.0028450603 0.009280352 -0.04498426 0.023636779 -0.04785976 -0.029335164 -0.038791142
0.015438922 0.044065543 0.042224318 -0.042217977 -0.05715453 -0.021201136 -0.05099426 0.058929842
-0.032983128 -0.027907835 -0.0039430335 -0.014692038 0.022506647 0.014739385 0.058213312 -0.010818878
0.058665022 0.020061597 -0.02874177 0.007572882 0.06068529 -0.020552121 0.029891852 0.04411565

fc1.bias f4 [256]
00000000: bde7 93bc 97db 3abd d6a4 613d af37 60bd
00000010: f024 cf3c c72f 083d fa0e 9dbc 4f40 613d
00000020: 39a8 a3bc 7c51 2f3d 993b c93b 2862 6bbd
00000030: 1fef 18bd 3ec3 673d f79e 49bd 8a50 aabc
00000040: de6d 4f3d a7eb 1cbd 089f a5bb 76cf 083d
00000050: ceff 2abc 342e 18bd a87f 4f3d a6fb e9bc
00000060: ebb7 633d c295 5abd debe 4e3d d901 f33c
00000070: 8f5b 6c3c da09 5a3a e6d1 c4bc 5ed4 3d3d
00000080: 5461 763d d62a 273d 37d2 5fbd aea9 05bc
00000090: b03b fabb 174b 483d 37ac a6bb ebbe 8a3b
000000a0: 646f 9dbc 1bb7 a23c 1684 533d 6813 02bd
000000b0: 1071 ee3c 71bb 8ebc 0160 933c 0d2c 24bc
000000c0: 8955 7bbd 1062 36bd 2888 a03c 06c7 2e3d
000000d0: 96be 6e3d a5ae 5a3d 4671 54bc ac5b 433d
000000e0: 8293 083a 5001 523d 66e1 77bd 94a1 213c
000000f0: 00a3 3bbd 1d53 ec3c 6268 f03a 24b3 ccb9
00000100: 3ed0 5e3d 2d8a 233d f14d 4b3d 7837 f7bc
00000110: ccb1 dabc 3bf9 82bd 87c6 8dbd 1e36 a6bc
00000120: 01f0 b9bc a451 f8bc 9d80 85bc 469c 0d3d
00000130: d2d1 983c ba96 a8bb 5c16 ccbc 1a97 16bc
00000140: 7416 873a 8f18 c43c 1b47 33bd ccde f9bc
00000150: 03af a53c 6338 583d ac54 29bd a4e6 f93c
00000160: 0b5e 7f3c ff88 78bd 089d 8fbd 7ff5 96bc
00000170: 6cdb 18bd 78df fabb 378e 3a3d 0737 83bd
00000180: 5bcf 223c da29 cbbc 9658 1f3d bfd6 c8bc
00000190: 3a7e bbbb 0f31 d43b 9ce2 563d ea2c 06bd
000001a0: a39a 103d d9dd d0bb 6a34 3cbd a12d 5ebd
000001b0: 1a92 243d 1c97 28bc 4035 f0bc 8ac4 413d
000001c0: fa82 5cbd 7d48 99bb 7ad5 213d ecab 81bd
000001d0: d282 ffbc f4e0 dc3c 2b26 4cbd 644f a0bc
000001e0: 9d37 f43b 4f2e a339 effe 33bd 1397 75bc
000001f0: 7bd2 853b 8b62 dbbc b59f f1bb 191f 6e3d
00000200: 2df1 44bd 1e5a 5dbc 7547 443d 5507 47bb
00000210: 750f 5bbd 8edb 593d f59b 2abd a522 1bbd
00000220: d173 863c fa73 de3c b1e4 abbc eb8d 70bd
00000230: 15b8 4bbd a13e d73c e373 6ebb 48d8 81bd
00000240: 1e2c 323d 908d 363d 82c4 28bd 3b9c bcbc
00000250: f91c df3b def1 0fbd f013 44bd 3f29 a738
00000260: 436c 1abd 4538 78bc c904 763c d60c d63c
00000270: fac3 3d3d 1ec9 39bd 4051 7c3b 48f9 223d
00000280: 93bd ce3c 37e1 0d3c 7f98 3d3d 0a3c c339
00000290: 4964 883c 34e6 dbbc bef8 85bd 4c82 de3b
000002a0: a0a6 493d 6484 4bbc 20db 0abd be41 173d
000002b0: ad56 76bc 1fe2 69bd 5043 283d 2ab1 303d
000002c0: de26 6fbd 0981 633d 5b9e 48bd dbb3 74bd
000002d0: 2e8e 06bd 3cf5 cc3c eb94 d5bb 9735 32bd
000002e0: d873 213d fae1 06bd f81b 5a3d 668f b53a
000002f0: 8375 673d bae1 63bd 9799 923b 18d0 493d
00000300: bf12 69bd 527f 6ebc 25c3 9ebc 59f4 053d
00000310: b962 1c3d 0996 57bd 7791 3ebd 5f19 6dbc
00000320: 8b8f 2fbc e9d5 79bc 784e 9ebc db6f babc
00000330: 0362 1abd ed34 30bd a0aa 3abd 0d91 8d3a
00000340: 4fe1 523d d7ac 5c3d d7a0 6fbc 27cb 19bd
00000350: 1f4c 84bd 505a 33bd ab4d e03c f32f 86bd
00000360: f8a7 66bd 0bfc 2ebc 5927 19bd 5e86 a4bc
00000370: d6b1 b6bb c730 26bd ea57 373b 655f f9bc
00000380: 32b8 533c 84d5 a73c b898 063d 616e b23c
00000390: 9385 673d d89d 2fbd 24c7 76bd 9ccc 013d
000003a0: 1682 643d 8c45 9dbc 2e2c 86bd 2c67 80bd
000003b0: cc55 4ebd 7907 193d c8ec 583b 6207 313d
000003c0: 8b58 6cbd 3d6c 70bd eb27 69bd f470 a13b
000003d0: 8900 2dbd 683d 0a3d e9a7 da3a c832 153d
000003e0: c70a 33bd 945c 103d cab5 393d d99b f3bc
000003f0: cd6e bb3c c166 ecbc 6f25 81bd b35d 24bc
-0.018054837 -0.045619573 0.05508884 -0.054740604 0.025286168 0.03324869 -0.01917218 0.05499297
-0.019977676 0.04280232 0.006141138 -0.057466656 -0.03733742 0.05658268 -0.049223866 -0.020790357
0.050641887 -0.038310673 -0.0050543584 0.033400975 -0.010436965 -0.037153438 0.05065885 -0.028562378
0.05559532 -0.053365476 0.050474994 0.029663967 0.014426126 0.0008317508 -0.024025869 0.046345107
0.060151413 0.040812336 -0.054643836 -0.008158131 -0.00763651 0.048899736 -0.0050864476 0.004234185
-0.019218154 0.019862702 0.05163964 -0.03175679 0.029106647 -0.017423363 0.017990114 -0.010020268
-0.06136087 -0.044527113 0.019596174 0.042670272 0.058287226 0.05338921 -0.01296646 0.047694847
0.00052099687 0.051270783 -0.06051769 0.009865183 -0.045809746 0.028848225 0.0018341655 -0.00039043382
0.054397814 0.039926697 0.049634878 -0.030177817 -0.026696108 -0.06395193 -0.06922632 -0.020289477
-0.02269745 -0.030312367 -0.01629668 0.034572862 0.018654738 -0.005144921 -0.024913006 -0.009191299
0.0010306374 0.023937492 -0.043768983 -0.030501746 0.020225054 0.05278815 -0.041340515 0.030505486
0.015586386 -0.060677525 -0.07012373 -0.018427609 -0.037318632 -0.007656034 0.045545783 -0.0640698
0.009937133 -0.02480023 0.03890284 -0.024516461 -0.0057218345 0.006475575 0.052462205 -0.032757677
0.035303723 -0.0063741026 -0.045948423 -0.054242734 0.040178396 -0.0102899335 -0.029322267 0.047306575
-0.053835846 -0.0046778307 0.039510228 -0.063316196 -0.03119031 0.026962735 -0.049841087 -0.019569106
0.0074529187 0.00031124285 -0.043944295 -0.014989632 0.004083929 -0.026780387 -0.007373775 0.058135126
-0.048081566 -0.013510255 0.04791971 -0.003036936 -0.053481538 0.0531879 -0.04165264 -0.037874836
0.016412647 0.027154911 -0.020983072 -0.058729094 -0.0497361 0.026274981 -0.0036384992 -0.063400805
0.043499105 0.0445686 -0.04120303 -0.023023715 0.0068088737 -0.035142772 -0.047870576 7.970863e-05
-0.037700903 -0.015150134 0.015015789 0.026129168 0.046329476 -0.045357816 0.0038500577 0.039788514
0.02523688 0.008659652 0.04628801 0.0003723803 0.016649382 -0.026843168 -0.065415844 0.006790435
0.04923117 -0.012421701 -0.03390038 0.03692793 -0.015035314 -0.05710041 0.04107982 0.043137707
-0.058386676 0.05554298 -0.048979145 -0.059741836 -0.032850437 0.02501928 -0.0065179965 -0.04350814
0.039417118 -0.03293035 0.05324933 0.001385194 0.056508552 -0.05563519 0.0044738757 0.04927072
-0.056902643 -0.014556723 -0.019380162 0.03270373 0.038180087 -0.05263332 -0.046525445 -0.014471381
-0.010715376 -0.015248754 -0.019324526 -0.022758415 -0.037691128 -0.043019224 -0.045572877 0.0010800675
0.051484402 0.05387577 -0.01462575 -0.037547257 -0.064598314 -0.0437873 0.027380785 -0.06552114
-0.05631253 -0.010680209 -0.03739104 -0.020083603 -0.005575399 -0.04057386 0.0027975985 -0.030440995
0.012922334 0.020487554 0.032860488 0.021781148 0.05652387 -0.04287514 -0.06024851 0.03168927
0.055788122 -0.019198202 -0.06551395 -0.062696785 -0.05037479 0.037360642 0.0033100117 0.04321993
-0.05770163 -0.058696974 -0.056922834 0.004926795 -0.04223684 0.033749968 0.0016682121 0.036425382
-0.04371145 0.03524454 0.045339383 -0.0297374 0.022879982 -0.02885759 -0.06305968 -0.010032105

fc2.weight f4 [128, 256]
00000000: f46e 073d 6576 48bd 76a2 5e3c 9bff 5d3d
00000010: 7a1e 783c a639 3abd 5f8a a5bc 7794 213d
00000020: 0ea2 ddbc 30ad 2e3d 11da 3e3a 2bce 53bd
00000030: 485d 07bd 6453 b339 190d 223d e777 0e3d
00000040: 311c 493d 48b7 5d3c 980c e63c cd31 bc3c
00000050: 2920 6c3c acb7 213d ea29 013d a5d1 263d
00000060: 8e6d b5bc 9884 d6bc 8218 4bbd e2e4 343d
00000070: df11 873d 6e15 05bb a692 cebc 0fa4 c43c
00000080: ec06 67bd 6c05 50bc ece6 dbbc 5557 7c3c
00000090: d1a5 48bd 7d22 283d 74f8 6a3d 8b12 eb3c
000000a0: 053e 233d 418c 02bc 7e18 6b3d 411a cabb
000000b0: 9db8 29bd 6822 09bd e22e 4f3d 3587 083d
000000c0: a92a 5cbd 5785 eabc 6a8f acbc e8c6 5e3d
000000d0: b660 48bc e92f 4f3b 292d 0e3d a62b 09bd
000000e0: f415 813c cda9 6f3d a0b3 c1bc 148e 703c
000000f0: eae1 123d 04b1 29bc 6182 803d 87f2 e5bc
00000100: c1ea 463d 89fb 743d b9ea b5bc 58de 863c
00000110: c6ea adbc bd22 0ebd b3a6 643c 2cf1 413d
00000120: 3a20 47bd 4532 27bb 613f 7c3d f9e7 4abd
00000130: 3193 2f3d 5292 1f3d efc4 b1bc ff03 fc3c
00000140: 2d59 11bd 170d d3bc a5bd 21bd 9543 aebb
00000150: 2ee7 b73c 9844 383d 8499 ac3c 30e7 a13c
00000160: 7276 fabc 564e 2d3d 60a4 1f3c 3324 5bbd
00000170: fd61 813d 71a6 783d 37f8 e2bc 5e17 79bd
00000180: f648 4b3c 40ea bc3c 15b8 563d a184 1a3d
00000190: 1705 a6bc 78ee 4dbd bcd3 d93c 13e6 10bd
000001a0: 1dc0 baba e9bc bbbc 3062 b33a e20b 3e3d
000001b0: 75f6 533d 7913 0f3d c640 3e3d 0086 df3b
000001c0: 6b36 d4bc 5570 bfbc eaea 68bd cf3e 063d
000001d0: 4809 503c 7376 b63b 617b 20bd 3305 7b3a
000001e0: 5185 353d 8af8 b6bb a765 603d 8ff3 17bd
000001f0: 4553 8ebc 6498 4abd 44f9 dbbc 8a03 91bb
00000200: 0d01 043d 8461 a33c c81f 6bbd af3e 693c
00000210: e0ad 91bc e201 303d 7f6f 623d 3c35 4d3d
00000220: 2eec 4b3d 8c53 6ebd 2e99 e93b 65e9 88bc
00000230: ec1b 6c3d fe13 083c ad53 393d 626d 11bd
00000240: 66a8 10bd 4399 0d3d b83f d4bc 0977 eb3c
00000250: 811a 663b 607a 303d 0ce5 15bc 176a 2d3d
00000260: e95b 243d 3dc7 0fbc c59d 2ebd 5715 a1bc
00000270: c3da 5cbd 4ff9 14bc 87b8 5c3d aff2 9dbb
00000280: 289a 12bc b784 20bd 1f71 af3b 481f 0cbc
00000290: 55c3 ffb9 329d 283d 4e12 a5bc 912f 753d
000002a0: 771e d6bc 7a12 273d 153d d8bb 0df2 453c
000002b0: f67c 6dbd 18c1 f13c d67f ac3c 2e45 913c
000002c0: 2441 45bd f0ed 7abd fe23 0fbd d3de 9ebc
000002d0: 2c49 eb3c a12a 45bd 0087 57bd aad9 cebb
000002e0: 0c80 5bbd 54c9 18bd 61f2 7c3d ba96 ad3c
000002f0: ca1b 0f3d a463 1e3d 79cd 633d 0447 9abc
00000300: 1b9e ab3c f285 273d d0f7 17bc 1e7e 99bc
00000310: 6bc1 f83a eb92 3d3d 982e 88bc 9926 06bd
00000320: bdea 053d 405f 15bc bfa3 913c 760c 87bc
00000330: 0509 20bd ca21 8cbb ffa0 4e3d 0d71 b9bc
00000340: fc17 38bd 1f31 12bd 36a5 1fbc dc6b 60bd
00000350: f47b ff3c 9400 153c c58b a83b 435a adba
00000360: f93d 35bd f3ef 2d3d c276 2e3b 0c7c de3c
00000370: 87bd 9b3a 98f2 1cbd 8956 ec3c 739c eabc
00000380: 5611 aabc 8075 dd3c a557 7c3c 8e74 533d
00000390: 7dfc 4abd b2f0 d0bc 391d 523b dd33 363d
000003a0: e8e5 cf3c a665 7ebc 4edd 083c 69cc 0e3d
000003b0: 7996 263b 2418 8a3d 8be1 72bd db13 5b3d
000003c0: 318f 6bbd 9384 9f3c d66c a7bb bc77 65bd
000003d0: 753b f7bc 3da3 0c3d af47 0ebd 7fd2 41bd
000003e0: 560c 093c 5a31 0ebd 8bde 05bd b6ac ea3c
000003f0: e195 ccbc bdbc 7bbc a586 1ebd 6193 c43c
0.033064798 -0.048941035 0.013588538 0.054198842 0.015143985 -0.045465134 -0.020207582 0.039448228
-0.027054813 0.042645633 0.0007280419 -0.05171029 -0.033047944 0.0003420367 0.039563272 0.034782317
0.04909915 0.013532467 0.028082177 0.022972966 0.014411964 0.039481804 0.031534113 0.040727276
-0.022146966 -0.026186273 -0.04958392 0.044163592 0.065952055 -0.0020306963 -0.025216412 0.02400401
-0.056403086 -0.012696605 -0.02684351 0.015401681 -0.04898626 0.041048516 0.05736585 0.028695365
0.03985407 -0.007968009 0.057396404 -0.0061676805 -0.041435827 -0.033480078 0.05058182 0.03333207
-0.05375162 -0.028628035 -0.021064479 0.05438891 -0.012230089 0.003161425 0.034711037 -0.033488892
0.015757538 0.058511544 -0.023645222 0.014682312 0.03585998 -0.010357145 0.06274868 -0.028069748
0.048563723 0.059810195 -0.022206651 0.016463444 -0.021230113 -0.034701098 0.01395576 0.04734914
-0.048614718 -0.002551214 0.06158388 -0.049537633 0.042864982 0.0389579 -0.02170035 0.030763624
-0.035485435 -0.025763078 -0.0394875 -0.005318115 0.022449102 0.04498729 0.021069296 0.01976356
-0.030574057 0.042311035 0.00974378 -0.05350132 0.06317518 0.060705606 -0.027706249 -0.0608133
0.012407532 0.023060918 0.052421648 0.03772414 -0.020266099 -0.05027625 0.02659022 -0.035375666
-0.0014247928 -0.022917228 0.0013685878 0.04639805 0.05174871 0.03493068 0.04644849 0.006821394
-0.025904855 -0.023368994 -0.056864657 0.032774743 0.012697525 0.0055683195 -0.039180163 0.0009575665
0.044316594 -0.0055838274 0.054784443 -0.03709751 -0.01737369 -0.049461737 -0.026852258 -0.0044254707
0.032227565 0.01994396 -0.057403356 0.014236136 -0.017783105 0.042970546 0.055282112 0.050099596
0.049785785 -0.058185145 0.007128856 -0.016712854 0.057643816 0.008305548 0.045245815 -0.035504706
-0.035316847 0.03456999 -0.02590929 0.028743284 0.0035111012 0.043085456 -0.009148847 0.042337503
0.040126715 -0.008775529 -0.04263093 -0.019663496 -0.053919565 -0.009092643 0.053886916 -0.00482019
-0.0089478865 -0.039189067 0.0053540613 -0.00855238 -0.00048782924 0.041165538 -0.02015033 0.059859816
-0.026137574 0.040789105 -0.0065990784 0.012081635 -0.0579805 0.02951102 0.02105705 0.017733183
-0.048157826 -0.06126207 -0.034946434 -0.01939336 0.028721415 -0.048136357 -0.05261898 -0.0063125687
-0.053588912 -0.037301376 0.061754588 0.021190036 0.03493861 0.038669243 0.055615876 -0.018832691
0.020949414 0.040899225 -0.009275392 -0.018736895 0.0018978541 0.04628269 -0.01662378 -0.032751653
0.032694567 -0.009116948 0.017778276 -0.016485434 -0.0390711 -0.004276489 0.050446507 -0.022636915
-0.04494475 -0.035691377 -0.009743979 -0.054790363 0.031187035 0.009094376 0.005143615 -0.0013225753
-0.044248555 0.04246516 0.0026621078 0.02715876 0.0011882045 -0.038317293 0.028849857 -0.028639054
-0.02076022 0.027033567 0.015401755 0.051624827 -0.049557198 -0.025505397 0.0032060875 0.044483054
0.025378183 -0.015527165 0.008353544 0.03486291 0.0025419279 0.06742886 -0.059297126 0.053485733
-0.057509605 0.019472396 -0.00510941 -0.05602239 -0.030179719 0.034335364 -0.03473633 -0.047319885
0.0083647575 -0.034715034 -0.032682937 0.028646808 -0.024973812 -0.015364823 -0.038702626 0.023996057

fc2.bias f4 [128]
00000000: 1493 df3c 8fdd 8c3d 1588 7f3d bd82 49bd
00000010: 0901 3a3d 01c1 163c b7ce 65bd 273c cabc
00000020: 6fa4 683d 9b83 873d 7f5c 4f3d 0951 41bd
00000030: 8dbd 513d 95b8 27bd 3d5d 30bd 74c1 8fbc
00000040: 472d 013d b4b3 9e3d 3e07 d83c 86ea 13bd
00000050: e337 e03c 75de 69b9 1f16 3c3d 288c e1bb
00000060: 296a 23bc 4c40 12bb f2ca 15bd 2c87 cbbc
00000070: fa80 993c 9649 b2bc 71ed 293c 2c5d cd3c
00000080: 3614 023c 7509 963d f669 1ebd a9f9 0b3c
00000090: 17de 5ebb 5dcb 413b 568b f13a 7bba 423d
000000a0: 71a2 683c d1e5 ec3a eb94 80bd 049a 72bd
000000b0: 2d6d 31bd 74f9 07bc ffc7 003d dc3f 433d
000000c0: 4d27 f33c 1238 ddbc 5efd ba3c b963 3d3d
000000d0: d10a 75bd b1eb 333d 1ef0 f43a 8c38 ce3c
000000e0: 2ab9 ecbb 84a4 d5bc 3386 87bb 933a f33c
000000f0: 5296 583b e5af 62bd 1e9d d6bb 8c83 283d
00000100: 3713 993c 8a0c e33c b0af 1e3d a43c 4d3b
00000110: 332e 8f3d eef7 45bd 4628 203d e41e 57bd
00000120: b510 34bd 7160 893d cb3f 713d e136 7ebd
00000130: 92bd bb3b 68bc babc 3c19 c5bb ab67 38bd
00000140: 5775 13bd 3681 b3bc 9bca 0f3d 1d4a 3a3c
00000150: b3db bcbc 9d4b 37bd 5db7 8e3c d516 23bd
00000160: 67d7 edbc 6bd0 c8bb 73b9 653d b4c9 263d
00000170: 1710 6e3c 61b5 7fbd bd14 763c 9681 15bd
00000180: bf80 093d b816 1bbc 4fd7 b63c 0c1f 35bc
00000190: 6cf7 763d 4b17 d7bc 7440 9cbc 2dfd 07bc
000001a0: 13ab 7e3d 3534 10bd 5cc0 bb3c a597 ac3c
000001b0: 2ec2 6e3d 02da 443d 5102 22bd 9b0f 043c
000001c0: 9395 1fbd bcf9 8a3d 2839 2bbd cd60 2abd
000001d0: 2176 843d 8168 2c3c a88b 7a3d 80d9 013d
000001e0: 23dd 0cbd 9735 463d d6d3 be3b cbee a5bc
000001f0: 253c ae3c b060 423d 0767 143d 59c9 b9bc
0.027291812 0.068781964 0.062385637 -0.049196947 0.045411143 0.009201289 -0.05610534 -0.024686886
0.05679744 0.066168986 0.05062532 -0.04719642 0.05120616 -0.040947516 -0.04305767 -0.0175483
0.03153732 0.077491194 0.02637064 -0.03611233 0.027370399 -0.00022303483 0.045919534 -0.006883163
-0.009974041 -0.0022316156 -0.036570497 -0.024844728 0.018738259 -0.021763604 0.010371552 0.025068842
0.007939389 0.073260225 -0.03867527 0.00854341 -0.0034006888 0.0029570677 0.0018428366 0.047541123
0.014198885 0.0018073862 -0.06278404 -0.059228912 -0.04331701 -0.00829922 0.03144073 0.047668323
0.029681826 -0.027004275 0.022825893 0.04623768 -0.05982477 0.043925945 0.0018687283 0.025173448
-0.0072242217 -0.026079424 -0.004135871 0.029691016 0.0033048582 -0.055343527 -0.0065494915 0.041141078
0.01868592 0.02771594 0.038741767 0.0031316662 0.06991234 -0.048332147 0.039100908 -0.052519694
-0.043961246 0.06707848 0.05889873 -0.062064055 0.0057293857 -0.022794917 -0.006014971 -0.04502074
-0.036000576 -0.021912199 0.03510533 0.011370209 -0.02305398 -0.044749845 0.017421419 -0.039816696
-0.029033376 -0.006128361 0.05608506 0.040719703 0.014530203 -0.062428836 0.015019593 -0.036500536
0.033570047 -0.009465866 0.022319464 -0.011054765 0.060294554 -0.026256224 -0.019073702 -0.008300108
0.062174868 -0.03520604 0.022918873 0.021068403 0.058290653 0.04805947 -0.03955299 0.008060361
-0.038961004 0.06785914 -0.041802555 -0.041596223 0.06467844 0.010522963 0.061168343 0.031701565
-0.03439058 0.04839095 0.0058235927 -0.020255467 0.021268914 0.04745549 0.036231067 -0.022679018

fc3.weight f4 [32, 128]
00000000: 0934 3c3d 8ba6 8ebc 4c54 863b a410 0a3d
00000010: cabd b4bc 5640 2cbd ee3f 27bd e741 86bd
00000020: e591 203d cc1f 7c3d 68ab 9abc 82b9 91b8
00000030: 881b 993d 1eae f63c cee7 29bd 0917 f8bc
00000040: b595 563d de31 84bd a8a1 b13c b04d 5bbd
00000050: 1389 613d 2dd4 b8bc 5085 e2ba bfb3 79bd
00000060: 11ce 34bd 8a29 303a fe7b 97bd 1f85 b63c
00000070: 743a 64bd a9a6 b23c 8486 dc3c c65f 94bd
00000080: 1e4c f1bc cfc7 923c be8e 883d b98a d4bc
00000090: 0036 953d 8cf4 0dbd db10 57bd a6aa 293d
000000a0: 125a 673d e3c8 0f3a e019 94bb 1a42 583c
000000b0: ced0 ab3c aa41 2c3d e8ab 80bd 959f d93c
000000c0: ab47 ab3d 77d3 ad3c 70fa de3c 48b8 72bd
000000d0: 4b71 78bd 4cb1 38bc c894 1ebd 2d14 9d3d
000000e0: 1d61 37bd cd1a 79bc c703 d3bc af27 b8bc
000000f0: 4583 473c 1203 4a3c 4519 e23b 3946 7dbd
00000100: 5f7f a93d 0d9b e83c 8b3c 4fbd 1fc2 19bd
00000110: e054 f33c 4ac0 8b3c 91e9 acbb 082e 8e3c
00000120: c5d8 173d 8a46 b93c 090d 14bc c989 043d
00000130: 0a9e c93c ffe0 a9bc 5aa3 4cbd 1531 a3bd
00000140: 0b61 373b b525 be3c 6e2b 643d ac8a 353d
00000150: c8c8 82bd 9061 7bba f11f 3d3d 426f 39bd
00000160: d44a 3fbd e80c 83bd 9cec e6bc cf99 5ebd
00000170: 64c8 f6bc 518e 88bd 25e7 afbd f2ce 0cbc
00000180: d5c4 b23d 26c3 843c c927 acbb 35ee 44bd
00000190: e9a8 b23d f3ba 9e3c 964a 513d 549e 10bd
000001a0: 8f8d a43c 9d12 77bd f871 11bd e244 a23c
000001b0: 0e37 833d 6fcd 9c3d b1e5 b8bc fb0d 3abc
000001c0: 5476 ee3c c972 6fbd 2fbb 25bd 8d91 b63d
000001d0: 6772 4b3d ce4b a7bd 687a b3bd 63df 5dbd
000001e0: d04f ba3d e884 a6bd 34f4 9c3d 14a3 75bd
000001f0: dd26 4ebc 1fe5 9e3c 9531 393d b611 4dbc
00000200: 455e 8c3c 14b0 723c 2ee8 a13d c2c4 37bd
00000210: 7511 36bd 7e87 393d 388d a23d 4983 8b3d
00000220: 4527 ad3d e890 293c c508 a33d 82a2 11bd
00000230: 01bd 393c 7d70 a0bd 6ec2 b3bc 7014 5fbd
00000240: 7dc4 00bd 7601 9e3d 226e 95bd 07ab 1ebc
00000250: 40ef a8bd 7423 8cbd 53a3 50bd b57a 28bc
00000260: 0c6c 15bd 292e ad3d aca7 e93c 4dc0 2fbd
00000270: 70d1 bb3b 3e85 65bd 6a93 25bd 22a5 923d
00000280: 712a 4cbd 53dc 4bbd 9617 543d 5587 0ebd
00000290: a781 5dbd c3fc 103d 9991 353d 2b30 8ebd
000002a0: 6128 f0bc 5e27 8abd bf6b a0bd 9538 27bd
000002b0: 7d2f a13d 7f74 79bd 51e3 8e3d 0959 7a3d
000002c0: 69c2 033d a460 61bc 3df9 9f3d b4d8 4a3d
000002d0: ef07 07bd 0b73 a2bd 6e02 703d 28a0 9fbd
000002e0: 9c84 f53c 40d7 ee3c 5755 dc3b 10af 4d3d
000002f0: b13d 14bc 56a1 efbc 3e60 c8ba 1a7c e43c
00000300: 305d 78bd 33d1 723c cb22 a33d 825e 273c
00000310: e3d2 a53d 1746 a43d 3199 d63c 9547 0bbd
00000320: 79c6 853d fb31 3e3d b692 9fbd d9d6 8c3d
00000330: 1931 973b f165 fa3c e33c a9bd 7641 fe3c
00000340: f9fb 9a3a c7bc 8bbd 8a9d 113d 36d8 9e3d
00000350: 420f 523d 03bf 493d b5ca b03b 9113 77bd
00000360: 0ad3 153c b655 6bbd 90ae 30bd a8cc 273d
00000370: c81d 81bd 47d0 293d 0592 a83d 86b5 71bd
00000380: f06b e53c 0f2a 70bd 7c38 8ebd a29a 4d3c
00000390: a50c 833d b51b 9ebd 26ce d0bc 83f7 a73c
000003a0: fee5 9cbc dcf9 903c fdc1 2abd 87dc 8dbd
000003b0: f77e ae3c d0dd b7bc d32c d2bc e94e 083d
000003c0: e63e 2f3c b5fd db3b 4813 893d ae3d 7b3c
000003d0: 5453 06bd b58c b3bd dbe0 70bc 6951 1f3d
000003e0: e815 243d 9d39 6e3d bd5b 493d 7d13 c23b
000003f0: 766d 533d 1852 afbc dce6 75bd 990b 823d
0.045948062 -0.017413398 0.0040994044 0.033707276 -0.022063155 -0.042053543 -0.040832452 -0.065555386
0.039201636 0.06155376 -0.018880561 -6.948692e-05 0.07475954 0.030112322 -0.04148083 -0.030284422
0.052388866 -0.06454824 0.021683529 -0.053540885 0.055062365 -0.02256211 -0.0017282162 -0.060962435
-0.044141833 0.0006720057 -0.073966965 0.022280274 -0.055719808 0.021807985 0.02691961 -0.0724483
-0.02945524 0.017917542 0.06667851 -0.025945054 0.0728569 -0.034657046 -0.05250631 0.04142251
0.056482382 0.00054849515 -0.004519686 0.013199354 0.02097359 0.04205481 -0.062827885 0.026565352
0.08363279 0.021218998 0.027219027 -0.059257776 -0.06065492 -0.01127274 -0.038716108 0.07669864
-0.04477035 -0.015204144 -0.025758637 -0.02247986 0.012177293 0.012329834 0.006899985 -0.061834548
0.08276247 0.028394246 -0.050594848 -0.037538644 0.029703557 0.017059464 -0.0052768667 0.017355934
0.037071962 0.022616643 -0.009036311 0.032357965 0.024611492 -0.02073717 -0.04996047 -0.07968346
0.0027981426 0.02321134 0.05570548 0.0443217 -0.06385952 -0.0009589428 0.04617304 -0.04527212
-0.04670222 -0.06398946 -0.028188996 -0.054345902 -0.03012485 -0.0666777 -0.08589009 -0.0085942615
0.08728949 0.016206335 -0.005253766 -0.048078734 0.08723623 0.019376254 0.05109652 -0.035307243
0.020087032 -0.060320485 -0.03550908 0.019808237 0.06406985 0.07656371 -0.022570463 -0.011355872
0.029109158 -0.058459077 -0.040461715 0.0891448 0.04966965 -0.081687555 -0.087635815 -0.054168116
0.09097254 -0.081308186 0.076637655 -0.059969977 -0.012582508 0.019396363 0.0452133 -0.01251643
0.017134795 0.014812488 0.07905613 -0.044865377 -0.044450242 0.04529523 0.079370916 0.0681215
0.08454756 0.01034949 0.07960657 -0.03555537 0.011336566 -0.078339554 -0.021943297 -0.05446285
-0.031437386 0.077151224 -0.07296397 -0.009684331 -0.08248758 -0.068427 -0.050937008 -0.010283162
-0.036479995 0.0845607 0.028522335 -0.042908 0.005731754 -0.056035273 -0.040423788 0.07160403
-0.049845163 -0.049770664 0.051780306 -0.03479703 -0.054078724 0.035397302 0.044328306 -0.06942781
-0.02931613 -0.0674579 -0.07833051 -0.040825445 0.07870386 -0.060902115 0.06976951 0.061120067
0.032167826 -0.013755951 0.0781121 0.04952307 -0.03296655 -0.07932099 0.058596067 -0.07794219
0.02997046 0.029155374 0.0067240405 0.05021578 -0.0090479115 -0.029251736 -0.0015287471 0.027891207
-0.060635746 0.014820385 0.079656206 0.0102154035 0.08096864 0.08021181 0.026196094 -0.034003813
0.06531996 0.046434384 -0.07791655 0.068769164 0.004614007 0.030566188 -0.08263566 0.031037074
0.0011824361 -0.06823116 0.03555063 0.07756083 0.051284082 0.04925443 0.0053952583 -0.060321394
0.009144554 -0.057454787 -0.043135226 0.04096666 -0.063045084 0.041458394 0.08230976 -0.059011005
0.02800557 -0.05863386 -0.06944367 0.012549074 0.06398896 -0.077201284 -0.025488924 0.020503765
-0.019152638 0.017697267 -0.041688908 -0.06926828 0.021300776 -0.022444636 -0.02565614 0.03327838
0.0106961485 0.006713594 0.06693131 0.01533453 -0.03279431 -0.08767072 -0.014702047 0.038896
0.040059954 0.058160413 0.049159754 0.0059227333 0.051618062 -0.02140145 -0.060034618 0.06349868

fc3.bias f4 [32]
00000000: 8676 a03d de18 573d c8c8 11bd 4fb4 3b3d
00000010: c2ff 8cbc 16fa 9ebd 50ba cf3c 1d12 853d
00000020: e27f 13bc bcde 25bb d64d a13d 1a6e 323b
00000030: 2458 eb3c fca4 80bd 99cd 07bc 96d2 093a
00000040: 02b5 41bd 358f 003e 3c0b 1f3e e982 50bc
00000050: b9c1 403d 25dd f53d 4bab 9dbc 749f 493c
00000060: d9fa a3bc 92a9 473d 5d29 a5bd 52f3 61bd
00000070: 4ba2 25bd 919a 0d3e 74ba 373e 335a 96bd
0.078351066 0.05251395 -0.03559187 0.045826253 -0.017211799 -0.07762544 0.025357395 0.064975955
-0.009002658 -0.0025309762 0.07876174 0.002722627 0.028728552 -0.06281468 -0.008288764 0.0005257515
-0.047291763 0.12554629 0.1553163 -0.012726524 0.04705975 0.120050706 -0.019246718 0.012306083
-0.020017074 0.0487457 -0.0806453 -0.05516369 -0.040437978 0.13828494 0.1794222 -0.07341423

fc4.weight f4 [2, 32]
00000000: fc32 2ebe 053b e63d 1d26 8f3d 7487 39bc
00000010: 7ead 6bbe bc89 dbbe f646 0bbe e70a fa3d
00000020: 0de2 c1bd a197 afbe 247e e63d 5d09 f73d
00000030: ddcd a4be 23d8 24be f7d4 afbe b254 8dbd
00000040: 40c0 503d 1fca fd3d 68c9 ca3e 7577 d0bd
00000050: caa1 1abd 37a3 5a3e 18fe 2cbe 42c1 0d3d
00000060: 2ce5 69bd 9e48 fdbd 7486 9cbe 7590 0bbe
00000070: 10f7 f23d c2e2 383e 2e2f 033e 3065 80be
00000080: aa80 f2bd df1e cb3c 871c df3c fd22 883c
00000090: 59da 4e3e 6ffe ee3e 2019 5c3d 6579 1e3e
000000a0: 958d a83d 96b5 aa3e b3ed 56bd f91d d9bd
000000b0: 53ec ae3e c5da 21bd 622b 833e bf75 b73b
000000c0: 3e4a ff3d af31 3fbe de80 74be a6f1 b63e
000000d0: 659d 86bd 9d19 61bd 8f9a abbd 47c9 c93d
000000e0: 93d0 6f3d 6907 623e 6449 903d c6dd 073e
000000f0: 2717 e53d 379d 21bd b395 50be 31a4 7d3d
-0.17011636 0.11241726 0.069896914 -0.011323798 -0.23015401 -0.4287852 -0.13601288 0.12209111
-0.09466944 -0.3429537 0.11254528 0.12062333 -0.3218831 -0.16098075 -0.34342167 -0.0690092
0.050964594 0.12392067 0.39606786 -0.101790346 -0.03775195 0.21351324 -0.16893804 0.034608133
-0.05710332 -0.12367366 -0.3057133 -0.13629325 0.1186353 0.18055251 0.12810966 -0.250772
-0.11840947 0.024794994 0.027235283 0.016618246 0.2020048 0.46678492 0.0537349 0.15475996
0.0823013 0.33341664 -0.05247278 -0.1060142 0.34164676 -0.039515276 0.25619036 0.005598753
0.124653324 -0.18671297 -0.23877284 0.35731238 -0.065729894 -0.054956067 -0.08379089 0.09852844
0.05854852 0.22073139 0.07045248 0.13268194 0.111860566 -0.039456572 -0.20369606 0.061924163

fc4.bias f4 [2]
00000000: cb98 ef3e 8252 9abe
0.4679626 -0.30141073
