ligand_model/DNN_FC0001_ModelH2-PubChemFP-top256_batchsize-16_optim-sgd_lr-0.0025/train3.model (torch, 413839 bytes, 8 tensors)

fc1.weight f4 [256, 256]
0.07955069 0.062022693 -0.05474242 -0.014763716 0.034632683 0.0034749121 0.063431144 0.06054351
0.06898586 0.09641514 0.043224283 -0.034919184 0.014581824 -0.030141288 -0.053012535 0.020424102
-0.012640235 -0.019295407 0.03311754 0.007115198 0.025329104 0.027258046 0.066060856 -0.042824723
0.017630232 0.042681657 -0.03075814 -0.027716978 -0.039331827 -0.043950196 -0.05155516 0.05813963
0.059268393 0.04856829 0.047651894 0.053168457 0.025701063 0.0010513141 -0.0038892205 -0.04842587
0.014610237 0.029527158 -0.039109156 -0.042182103 0.0790878 -0.004881921 0.008117187 -0.065255895
0.019075498 -0.065193586 -0.021433366 0.012681835 -0.0036242474 -0.0010463245 0.04010766 0.026302058
-0.04709147 0.039234426 -0.056750882 -0.033736464 0.026787018 -0.00932501 0.043104466 0.04752155
-0.029989993 0.029562239 -0.0012705132 -0.06247851 -0.045476813 0.037777517 -0.044588696 -0.03371727
-0.03733146 0.043564122 0.051273618 0.049092516 0.04052063 0.03783557 0.034914717 0.0061728153
0.04548844 0.027132038 -0.0007367162 0.05185938 0.025307443 0.04377046 0.03552639 -0.03289167
-0.007271192 -0.037410628 -0.035428826 0.05950237 0.016921842 -0.023552544 -0.021600809 -0.059634462
0.009846045 0.026626624 -0.04711793 0.06210822 -0.027064353 0.056161173 -0.056079257 -0.039638095
0.033604026 0.012777055 0.064301856 0.036192317 -0.043279327 0.00025765187 -0.0140849715 -0.04436952
-0.044210225 0.006830438 -0.023767574 0.053284273 -0.046030965 -0.08232402 -0.025686603 -0.031509034
-0.03835614 0.031456545 0.02916772 0.0546741 0.03720334 0.04526206 -0.04374276 0.033803612
0.045027763 -0.038909182 0.05650987 0.027658114 0.057966776 -0.06127222 -0.014153928 0.027452754
0.058300395 0.027639693 0.045799896 -0.019401869 0.02033906 0.055300757 0.051504575 -0.025439579
-0.023714755 -0.00017398525 0.02272422 0.024388999 0.0027930518 0.04645261 0.024320904 0.012405103
-0.050336644 -0.012990245 -0.022048624 0.0030736057 0.039721012 0.0012360892 -0.026158424 0.048490986
0.0027904157 -0.019247362 0.011770051 -0.0025988168 0.011855635 -0.0073360438 -0.019095115 -0.037475325
-0.058558803 -0.049902633 -0.0016905434 0.018651146 0.013032612 -0.05857038 0.028454158 0.016074454
-0.028808715 0.029480234 -0.004194285 -0.050609373 0.051657487 0.02965599 0.027507797 0.052729644
0.020998156 0.02418469 0.07341573 -0.029204167 -0.057732057 0.015224714 0.036070544 -0.04172652
-0.017359879 -0.04231306 0.021486823 0.010885672 -0.05644032 -0.08331888 0.021675205 -0.054775093
-0.041815016 -0.06866392 0.015549188 0.025889391 -0.008090329 0.047162324 -0.066203885 -0.01735795
0.024245696 0.013023511 -0.0047323685 0.020360194 -0.025384773 -0.04410157 0.032413855 -0.045756966
0.014862495 -0.002434657 -0.061600585 -0.033684146 -0.05216213 -0.013792034 -0.05389324 -0.04286171
-0.0023902834 -0.06254844 -0.024507182 0.009691444 -0.030137083 0.01813247 0.01572277 -0.038767625
-0.071636595 -0.036048334 -0.06780772 -0.029524306 0.033984955 0.007056285 0.07879586 -0.01942799
0.052905913 -0.043761004 0.030199852 0.0075972555 0.03480356 -0.032060213 -0.035934962 0.046549294
-0.03250308 -0.03700069 -0.022495026 -0.00015390254 -0.07499324 0.048907932 -0.033344578 0.045315035
00000000: 79eb a23d 820b 7e3d 9639 60bd 83e3 71bc
00000010: 00db 0d3d 5abb 633b 30e8 813d 79fc 773d
00000020: 7548 8d3d 4d75 c53d f20b 313d 6b07 0fbd
00000030: 9ae8 6e3c ddea f6bc ac23 59bd 7250 a73c
00000040: fd18 4fbc 6711 9ebc 42a6 073d 9b26 e93b
00000050: fb7e cf3c 444c df3c ea4a 873d fa68 2fbd
00000060: 476d 903c f6d2 2e3d 7ff8 fbbc b70e e3bc
00000070: 691a 21bd 1f05 34bd 812b 53bd d223 6e3d
00000080: 6ac3 723d 8bef 463d a22e 433d 2bc7 593d
00000090: 098b d23c 3fcc 893a 4be2 7ebb 345a 46bd
000000a0: c75f 6f3c f0e2 f13c ec30 20bd 24c7 2cbd
000000b0: c9f8 a13d 86f8 9fbb f3fd 043c e2a4 85bd
000000c0: 3844 9c3c 3784 85bd 0795 afbc 79c7 4f3c
000000d0: c884 6dbb d324 89ba ee47 243d 6a77 d73c
000000e0: fce2 40bd 47b4 203d 9d73 68bd 3f2f 0abd
000000f0: 7370 db3c edc7 18bc 4f8e 303d f5a5 423d
00000100: 93ad f5bc 822c f23c 5987 a6ba 77e9 7fbd
00000110: e545 3abd 99bc 1a3d a3a2 36bd 1f1b 0abd
00000120: dfe8 18bd 4b70 323d 4904 523d 3c15 493d
00000130: f6f8 253d 78f9 1a3d bc02 0f3d 5445 ca3b
00000140: 1652 3a3d 0244 de3c 3020 41ba 806a 543d
00000150: 8e51 cf3c a748 333d 1f84 113d 6ab9 06bd
00000160: 2e43 eebb e33b 19bd d11d 11bd c2b8 733d
00000170: ad9f 8a3c 44f1 c0bc 2ef4 b0bc 4443 74bd
00000180: 4e51 213c 1420 da3c bbfe 40bd 3065 7e3d
00000190: 10b6 ddbc 4209 663d 5db3 65bd 8e5b 22bd
000001a0: 60a4 093d da56 513c b1b0 833d 653e 143d
000001b0: aa45 31bd 7315 8739 a7c4 66bc d0bc 35bd
000001c0: c815 35bd ded1 df3b 37b4 c2bc 9c40 5a3d
000001d0: f78a 3cbd 7f99 a8bd b66c d2bc 9e0f 01bd
000001e0: 541b 1dbd 94d8 003d 24f1 ee3c f3f1 5f3d
000001f0: 8862 183d b664 393d 9c2b 33bd a875 0a3d
00000200: 086f 383d 3c5f 1fbd e576 673d 4593 e23c
00000210: 926e 6d3d 94f8 7abd e0e5 67bc 99e4 e03c
00000220: 65cc 6e3d a36c e23c ac98 3b3d abf0 9ebc
00000230: 1a9e a63c 0c83 623d 76f6 523d aa66 d0bc
00000240: 7245 c2bc cf6f 36b9 2528 ba3c 70cb c73c
00000250: a20b 373b 1845 3e3d a23c c73c c63e 4b3c
00000260: cc2d 4ebd 09d5 54bc 519f b4bc 8c6e 493b
00000270: 80b2 223d 4504 a23a 314a d6bc 7c9e 463d
00000280: 68df 363b a5ac 9dbc 2cd7 403c e950 2abb
00000290: 233e 423c 3263 f0bb 5c6d 9cbc ba7f 19bd
000002a0: 5bdb 6fbd b466 4cbd 3995 ddba 4aca 983c
000002b0: bd86 553c 7fe7 6fbd b218 e93c 93ae 833c
000002c0: 4100 ecbc 8880 f13c 3670 89bb c64b 4fbd
000002d0: cd96 533d 1ef1 f23c 0858 e13c 0afb 573d
000002e0: 5304 ac3c f91e c63c fc5a 963d 943d efbc
000002f0: 7378 6cbd 1471 793c b5be 133d 6de9 2abd
00000300: 4e36 8ebc 7650 2dbd 2205 b03c d159 323c
00000310: f72d 67bd 17a3 aabd 3390 b13c d95b 60bd
00000320: 3946 2bbd ab9f 8cbd 05c2 7e3c fd15 d43c
00000330: 4d8d 04bc 482d 413d e795 87bd 4232 8ebc
00000340: e99e c63c 9060 553c fc11 9bbb 6cca a63c
00000350: baf3 cfbc d9a3 34bd 64c4 043d a86b 3bbd
00000360: d281 733c c48e 1fbb e550 7cbd 63f8 09bd
00000370: f5a7 55bd fcf7 61bc 28bf 5cbd c38f 2fbd
00000380: 4da6 1cbb 6619 80bd 49c3 c8bc ddc8 1e3c
00000390: 0be2 f6bc 8c8a 943c 0acd 803c cdca 1ebd
000003a0: 35b6 92bd 6ba7 13bd c6de 8abd f5dc f1bc
000003b0: cf33 0b3d 6938 e73b b95f a13d 7327 9fbc
000003c0: dfb3 583d bd3e 33bd ae65 f73c 66f2 f83b
000003d0: 2d8e 0e3d 9251 03bd 8a30 13bd 79aa 3e3d
000003e0: f321 05bd 098e 17bd 7d47 b8bc e660 21b9
000003f0: 0e96 99bd af53 483d 5394 08bd 429c 393d

fc1.bias f4 [256]
-0.06973858 0.014220646 0.05355997 -0.02929002 -0.06281984 -0.012518627 -0.049806613 -0.022446634
-0.020031253 -0.06707452 0.05040345 -0.01215425 0.049304597 0.038906425 -0.060591403 0.042537544
-0.04086958 0.049621496 0.043495703 -0.08622926 -0.039612643 0.025816174 -0.017722284 0.0172211
0.049779058 -0.016538793 -0.009896946 0.04194279 -0.017281562 0.009766779 -0.04970233 0.0219346
0.027013445 0.033697058 -0.0013489057 -0.0075183646 -0.046882525 -0.013858777 0.04820417 -0.018106205
0.04183669 -0.053678595 -0.04338324 -0.053132806 -0.03605378 -0.0050631473 0.034564283 -0.03004579
0.04543599 -0.056054868 -0.04015284 0.0076827914 -0.036088556 0.034414515 -0.018289074 -0.042111725
-0.004360504 0.018096477 0.03571365 -0.025716372 0.021490041 -0.0076163737 -0.050364994 0.04632483
-0.043195307 -0.0055178762 0.0020230457 0.016566321 -0.047843967 -0.03819098 -0.04903198 0.053159915
-0.04985949 0.041011803 0.034210104 -0.0012360661 0.06306488 -0.052564643 -0.054704756 0.0064407075
0.025897363 -0.043716982 -0.0040640635 -0.008545721 -0.05692734 0.032622647 0.048591875 -0.020744376
-0.04219398 -0.018094925 -0.024060896 0.043124184 0.02067056 -0.017610746 0.04419881 -0.0022064014
-0.044482473 0.01182938 -0.029787282 -0.022862839 0.025115348 -0.022920357 -0.037591815 -0.039990164
0.02304378 -0.026270023 0.013945566 -0.0694733 0.054825567 -0.015191488 0.003370269 0.003208018
-0.06870604 0.033725202 0.024607416 -0.052202187 -0.048677504 0.0065378724 0.008890842 0.009566668
-0.02534666 0.009023435 -0.04800169 0.0021008372 -8.203529e-06 -0.045468166 -0.03670569 0.0131233325
-0.0015909924 0.011265583 0.052067976 -0.0033294228 0.05414318 -0.056447107 0.0036783624 0.039208718
0.0007083289 0.047587268 -0.04007804 -0.017929645 -0.04270304 -0.01350484 -0.014853457 -0.053839315
0.040078677 -0.054715034 -0.017961029 -0.0020705468 -0.024372347 -0.0104219485 0.004409336 0.020026825
0.068596974 0.009792071 0.010928885 -0.012178254 -0.05442183 -0.016851688 -0.004833825 0.037887275
-0.039638795 0.040675074 -0.02533751 0.022373686 -0.045185897 -0.04180756 -0.027933227 0.02025551
-0.01558974 0.05306695 -0.026568418 -0.008250283 -0.056101106 -0.03301608 -0.0065929894 0.00833569
-0.017181514 -0.036850896 -0.028770901 0.02875169 -0.021813706 -0.050194338 0.021991752 -0.046922065
-0.05527227 -0.02329285 0.017900575 0.027613794 -0.03841717 0.05042558 0.025886713 -0.054458704
-0.0586313 -0.010596872 -0.043026198 -0.038085245 -0.0024528475 0.01795032 1.8950548e-05 0.013420196
0.06847177 -0.015304196 -0.051725004 -0.057709094 0.02328351 -0.039487626 -0.01585184 0.005656733
0.05898127 0.03227796 -0.022661781 -0.032922454 0.047594056 0.03403588 -0.052796952 0.037451755
-0.084258646 -0.03521432 0.039654143 -0.016424887 -0.020908674 0.039311517 0.07339863 0.04705348
0.06046201 -0.0061654877 0.04798743 -0.03862888 0.063103154 0.012969672 -0.046020877 -0.010950274
-0.012971468 0.037277453 0.030112443 0.053065535 -0.052447535 -0.0053389356 0.006641938 -0.0074680233
0.036275305 -0.053518113 -0.06454116 0.024078172 0.031488843 0.056609847 0.038016032 0.023867868
-0.062642105 0.023585694 -0.05783511 0.003146237 -0.07010726 -0.01859417 0.043865286 -0.0013510011
00000000: 1ad3 8ebd b6fd 683c b361 5b3d a0f1 efbc
00000010: b0a7 80bd ed1a 4dbc 0502 4cbd 01e2 b7bc
00000020: 9518 a4bc 5e5e 89bd d973 4e3d 9f22 47bc
00000030: 9ef3 493d 585c 1f3d b12e 78bd d93b 2e3d
00000040: dc66 27bd e93f 4b3d 8d28 323d f798 b0bd
00000050: de40 22bd 717c d33c 532e 91bc 4413 8d3c
00000060: 20e5 4b3d 5d7c 87bc cd26 22bc 34cc 2b3d
00000070: 1092 8dbc d704 203c ac94 4bbd 31b0 b33c
00000080: 4d4b dd3c ed05 0a3d c4cd b0ba 9d5c f6bb
00000090: e407 40bd ec0f 63bc bc71 453d 7753 94bc
000000a0: f35c 2b3d 16de 5bbd a0b2 31bd c9a1 59bd
000000b0: 21ad 13bd c2e8 a5bb 4793 0d3d 9722 f6bc
000000c0: 171b 3a3d ca99 65bd 4e77 24bd edbf fb3b
000000d0: 98d1 13bd 3cf6 0c3d f8d2 95bc 587d 2cbd
000000e0: 8fe2 8ebb 103f 943c 7a48 123d 24ab d2bc
000000f0: e20b b03c c692 f9bb 864b 4ebd 1bbf 3d3d
00000100: 90ed 30bd 4dcf b4bb 1395 043b 18b6 873c
00000110: 09f8 43bd 256e 1cbd c2d5 48bd 36be 593d
00000120: 7739 4cbd fefb 273d e51f 0c3d 7f03 a2ba
00000130: 2928 813d 064e 57bd 1812 60bd 920c d33b
00000140: b526 d43c 9410 33bd d62b 85bb 5a03 0cbc
00000150: a42c 69bd 539f 053d 4608 473d 1cf0 a9bc
00000160: 98d3 2cbd cf3b 94bc 5b1b c5bc fca2 303d
00000170: 4e55 a93c 6944 90bc d009 353d 4699 10bb
00000180: 4133 36bd 04d0 413c 7504 f4bc d94a bbbc
00000190: b4be cd3c 79c3 bbbc e0f9 19bd bacc 23bd
000001a0: 4fc6 bc3c 3b34 d7bc f17b 643c 0448 8ebd
000001b0: c690 603d b8e5 78bc bbdf 5c3b 9c3d 523b
000001c0: c1b5 8cbd 7023 0a3d 7e95 c93c f6d1 55bd
000001d0: 1062 47bd a63b d63b e5aa 113c 84bd 1c3c
000001e0: cca3 cfbc 08d7 133c 6c9d 44bd 33ae 093b
000001f0: e4a1 09b7 d43c 3abd b558 16bd 3f03 573c
00000200: d988 d0ba 4893 383c 3b45 553d 7232 5abb
00000210: 3dc5 5d3d 1535 67bd ae10 713b 5299 203d
00000220: 26af 393a deea 423d df28 24bd 31e1 92bc
00000230: 62e9 2ebd 6843 5dbc ea5b 73bc 9d86 5cbd
00000240: 8a29 243d df1c 60bd 0223 93bc 03b2 07bb
00000250: 84a8 c7bc d2c0 2abc 317c 903b 4c0f a43c
00000260: 927c 8c3d ec6e 203c 110f 333c 4d87 47bc
00000270: 6de9 5ebd 8d0c 8abc 1065 9ebb b02f 1b3d
00000280: 4a5c 22bd e89a 263d 9c90 cfbc 0549 b73c
00000290: d914 39bd 673e 2bbd 39d4 e4bc e2ee a53c
000002a0: 1c6c 7fbc bb5c 593d 03a6 d9bc 322c 07bc
000002b0: 46ca 65bd de3b 07bd 010a d8bb 6b92 083c
000002c0: 3fc0 8cbc f7f0 16bd f4b0 ebbc aa88 eb3c
000002d0: a8b2 b2bc 9498 4dbd 0c28 b43c 5a31 40bd
000002e0: 2d65 62bd a6d0 bebc 3aa4 923c 5336 e23c
000002f0: 535b 1dbd 0e8b 4e3d 5f10 d43c 1710 5fbd
00000300: 6027 70bd 819e 2dbc 3d3c 30bd 46ff 1bbd
00000310: f4bf 20bb 8d0c 933c fef7 9e37 62e0 5b3c
00000320: ed3a 8c3d 73be 7abc 99dd 53bd 5f60 6cbd
00000330: 0fbd be3c c7bd 21bd b8db 81bc 1e5c b93b
00000340: 5896 713d e535 043d 33a5 b9bc b2d9 06bd
00000350: fcf1 423d 3569 0b3d 9e41 58bd 0367 193d
00000360: cc8f acbd e43c 10bd 626c 223d 7c8d 86bc
00000370: ab48 abbc 1d05 213d 0552 963d 26bb 403d
00000380: 03a7 773d dc07 cabb 788e 443d 5139 1ebd
00000390: 3a3c 813d bf7e 543c 6380 3cbd c768 33bc
000003a0: 4886 54bc 3eb0 183d 5fae f63c 3f5b 593d
000003b0: 3ad3 56bd 3df2 aebb 9da4 d93b 52b6 f4bb
000003c0: 6a95 143d cf35 5bbd 282e 84bd 963f c53c
000003d0: 72fa 003d badf 673d b3b6 1b3d 8c86 c33c
000003e0: 814a 80bd c936 c13c 82e4 6cbd 1931 4e3b
000003f0: 6594 8fbd cd52 98bc 16ac 333d 1314 b1ba

fc2.weight f4 [128, 256]
0.008370412 -0.019932361 0.013343206 -0.04705922 -0.001984962 -0.017874664 -0.033976562 0.041868173
0.024402434 -0.009570976 0.017541142 0.0063382625 -0.035089843 -0.04448228 0.046542715 -0.05811847
0.012758216 -0.03739218 0.024634449 0.028440045 0.009599403 0.02210597 0.053116724 0.016547922
0.023800014 0.054774117 -0.05377832 -0.043410968 -0.016972775 -0.033747897 -0.020392079 0.055686675
0.039629146 0.056023322 -0.017083375 -0.043227382 -0.044511534 0.05489328 0.03525417 0.04792604
0.05108776 0.048477367 0.007168413 -0.05723484 0.05667537 0.039063666 0.046339724 -0.04863611
0.03824478 0.020323943 -0.0599698 0.05855839 -0.047414593 -0.028525827 -0.020678004 -0.028240727
-0.05805386 -0.053886242 0.03636153 -0.010626674 -0.015526603 -0.013036071 0.0234167 -0.051202033
0.02731382 -0.031098073 0.017404389 -0.050028484 0.046469074 -0.033469208 -0.017173564 -0.025376365
0.05208266 0.017917002 -0.040792406 -0.042763162 -0.050363082 0.003648887 -0.038394824 -0.013592915
-0.056537654 0.049016703 -0.054303702 -0.027658027 0.022987388 -0.0134551255 -0.044986017 -0.055403043
-0.023945397 0.04966493 0.018828278 0.0014167092 -0.038584556 -0.04764781 0.05269301 0.05319151
-0.020103926 0.02154773 0.04610602 0.015520246 -0.046061352 0.06229095 0.036355607 0.036082007
-0.03882054 0.053857543 0.048509568 -0.043315567 0.0076440745 -0.0048224838 -0.04892768 -0.039583847
0.0007988228 -0.006652195 0.030583227 0.0010559253 0.02209747 0.03917053 -0.04325627 0.004534404
-0.055535242 0.03333492 0.008326874 -0.010467441 -0.05035581 -0.04487689 0.038468175 0.013844643
0.052561168 -0.035248995 -0.03578201 -0.038596917 -0.058594722 0.013927038 0.010975758 -0.027830245
-0.06177526 0.03408751 0.014703047 -0.056856908 0.0042320383 0.024881855 0.03704551 0.049418908
0.0051805153 -0.021926783 -0.0005759144 0.04929845 0.04610134 -0.029512282 -0.050921205 0.0048301294
0.055147547 -0.039969243 -0.05733121 0.010065826 0.03772192 0.02863427 -0.03456979 0.03030622
0.045573864 -0.055529576 -0.040880173 0.04526281 0.030891232 -0.013237686 0.05686989 0.03149627
-0.022557478 -0.008421183 0.030906055 -0.047940213 -0.022048831 0.0062725437 0.04839284 -0.032375183
-0.062006995 0.06031506 -0.029421223 0.056729417 -0.012190805 -0.053318437 -0.012402005 0.016352521
-0.040854868 -0.031090474 0.035636704 -0.052278016 -0.05537805 0.041240662 0.026119763 -0.021225795
-0.0100726755 -0.057670884 -0.017193088 0.03657213 -0.05731755 0.059572693 0.040264238 -0.0028758806
-0.037919737 -0.051877357 0.016849881 0.027515948 -0.0043113916 -0.010935286 -0.05306777 -0.05681764
-0.017538393 0.053948604 0.034884606 -0.021143 -0.059532836 -0.060124498 -0.024603574 0.03609938
-0.01458732 0.012298256 0.05886274 0.032953717 -0.013787191 -0.045564 0.002638798 -0.011464123
0.022212258 -0.021739697 -0.01803024 -0.023229508 -0.044537872 0.015152859 -0.033477943 0.050502263
0.031493723 -0.040883463 -0.005300709 0.06356859 0.0018823929 -0.007151721 -0.02606751 0.0029659185
0.029179271 -0.036698636 -0.023026627 0.025496572 0.061110843 0.05193142 -0.0038688732 -0.033572804
-0.038009513 -0.004649247 0.046178482 -0.021776933 -0.062064573 -0.032185115 0.055519637 0.048757788
00000000: 0d24 093c 3149 a3bc 769d 5a3c 2bc1 40bd
00000010: 2316 02bb e36d 92bc 022b 0bbd f67d 2b3d
00000020: 9de7 c73c 95cf 1cbc 71b2 8f3c 33b1 cf3b
00000030: 5eba 0fbd 0d33 36bd 93a3 3e3d a20d 6ebd
00000040: d607 513c 8b28 19bd 2fce c93c 19fb e83c
00000050: d046 1d3c 9417 b53c ec90 593d 828f 873c
00000060: 3ff8 c23c d35a 603d a846 5cbd b3cf 31bd
00000070: 7d0a 8bbc 3c3b 0abd 4a0d a7bc b617 643d
00000080: 2c52 223d b678 653d 6ff2 8bbc 320f 31bd
00000090: ba51 36bd c7d7 603d ad66 103d 184e 443d
000000a0: 6641 513d 3490 463d 02e5 ea3b 146f 6abd
000000b0: 6f24 683d 3901 203d b9ce 3d3d a836 47bd
000000c0: 8fa6 1c3d 667e a63c e5a2 75bd ecda 6f3d
000000d0: ce35 42bd ffae e9bc eb64 a9bc 1959 e7bc
000000e0: e2c9 6dbd d2b7 5cbd d4ef 143d 801b 2ebc
000000f0: 4b63 7ebc 3f95 55bc 61d4 bf3c 39b9 51bd
00000100: 3bc1 df3c 63c1 febc a693 8e3c abea 4cbd
00000110: 5b56 3e3d 0217 09bd 93af 8cbc 18e2 cfbc
00000120: a154 553d adc6 923c f015 27bd 6d28 2fbd
00000130: 8549 4ebd 2a22 6f3b e443 1dbd d1b4 5ebc
00000140: 0794 67bd bdc5 483d 8f6d 5ebd 1693 e2bc
00000150: 0c50 bc3c e372 5cbc 4243 38bd 4dee 62bd
00000160: 2329 c4bc 746d 4b3d c33d 9a3c dfb0 b93a
00000170: d70a 1ebd 5a2a 43bd a0d4 573d 57df 593d
00000180: fdb0 a4bc dd84 b03c abd9 3c3d a148 7e3c
00000190: d4aa 3cbd cc24 7f3d 9ee9 143d baca 133d
000001a0: 4902 1fbd ba99 5c3d f8b1 463d aa6b 31bd
000001b0: 257b fa3b ed05 9ebb 6468 48bd ac22 22bd
000001c0: 1768 513a a8fa d9bb ad89 fa3c f966 8a3a
000001d0: c105 b53c 4771 203d 7d2d 31bd 5695 943b
000001e0: ec78 63bd 328a 083d 716d 083c a17f 2bbc
000001f0: e541 4ebd d4d0 37bd ce90 1d3d a4d4 623c
00000200: 614a 573d 4061 10bd 2890 12bd cd17 1ebd
00000210: 0501 70bd 3b2e 643c aad3 333c 41fc e3bc
00000220: 0e08 7dbd 589f 0b3d 0de5 703c cae2 68bd
00000230: e9ac 8a3b 08d5 cb3c 08bd 173d 7b6b 4a3d
00000240: 50c1 a93b cc9f b3bc f6f8 16ba 2ced 493d
00000250: c2d4 3c3d bec3 f1bc c192 50bd 1046 9e3b
00000260: 65e2 613d cab6 23bd 21d4 6abd 22eb 243c
00000270: 4d82 1a3d 6b92 ea3c 0d99 0dbd c044 f83c
00000280: a9ab 3a3d fb72 63bd f871 27bd 7f65 393d
00000290: 9c0f fd3c e1e2 58bc 67f0 683d 3c02 013d
000002a0: 76ca b8bc 00f9 09bc b22e fd3c f55c 44bd
000002b0: c09f b4bc e989 cd3b 9237 463d d79b 04bd
000002c0: 0cfb 7dbd ed0c 773d c704 f1bc 1b5d 683d
000002d0: f1bb 47bc 6f64 5abd c731 4bbc b9f5 853c
000002e0: 6f57 27bd 73b1 febc cbf7 113d 7921 56bd
000002f0: 18d4 62bd f8eb 283d 1df9 d53c b8e1 adbc
00000300: dd07 25bc 4e38 6cbd 85d8 8cbc a8cc 153d
00000310: cfc5 6abd 7f02 743d 1dec 243d 4579 3cbb
00000320: ba51 1bbd 5a7d 54bd c308 8a3c 2069 e13c
00000330: 9346 8dbb ea29 33bc 975d 59bd 9db9 68bd
00000340: adac 8fbc 36f9 5c3d 29e3 0e3d 1634 adbc
00000350: b4d8 73bd 1b45 76bd 6f8d c9bc f2dc 133d
00000360: a8ff 6ebc a07e 493c 0e1a 713d 7afa 063d
00000370: ace3 61bc 51a1 3abd afef 2c3b 04d4 3bbc
00000380: 7bf6 b53c 7317 b2bc 27b4 93bc cf4b bebc
00000390: 586d 36bd b243 783c 2b20 09bd 76db 4e3d
000003a0: 90ff 003d 6b75 27bd 92b1 adbb 4030 823d
000003b0: a0ba f63a fc58 eabb 888b d5bc db5f 423b
000003c0: 5e09 ef3c 4f51 16bd 56a2 bcbc 30de d03c
000003d0: 5d4f 7a3d 0ab6 543d ec8c 7dbb a383 09bd
000003e0: ddaf 1bbd b658 98bb a625 3d3d 8a65 b2bc
000003f0: 6c37 7ebd 8ad4 03bd 8f68 633d 3fb6 473d

fc2.bias f4 [128]
0.02055985 -0.022738844 0.01075718 0.048880965 -0.05944682 0.032462094 -0.023166578 -0.024805041
0.04585421 0.052265715 0.02481354 0.031595055 0.04345409 0.005746107 0.046221916 0.06823822
0.04380971 0.034825593 0.016599184 0.0217009 -0.013194487 0.022176243 0.008555812 -0.00087147125
-0.028173113 -0.028797979 0.041529555 -0.01884734 0.038403913 -0.011063629 -0.001079934 0.010681104
-0.015467695 0.04130809 -0.015920177 0.05011439 -0.011953625 0.04022103 0.06380577 0.017356826
0.032852195 0.052421357 0.05510736 0.0117479265 0.029301502 0.006909061 -0.058163024 -0.029229704
-0.007049884 -0.00084099337 -0.06459441 0.053127658 0.049963858 0.023081355 0.011449303 0.029279673
0.015943944 -0.0049966844 -0.023791935 0.02503157 -0.019776383 0.02212187 -0.025402492 -0.047776658
-0.022235634 -0.0030517636 0.00982136 -0.04854566 -0.015329667 0.052056123 -0.04892286 -0.06190812
0.023482732 0.059398632 -0.043181412 -0.04811363 0.05473778 -0.008217153 -0.0049894354 -0.012051149
-0.018998615 -0.025836581 0.06771006 -0.03167076 -0.012785726 -0.0031203658 0.059848264 -0.063773744
0.052732732 0.042024605 -0.038262427 0.048206765 0.06759482 0.056221504 0.05063738 -0.037155326
0.023445992 -0.042752378 -0.0025574446 -0.059231013 -7.4562726e-05 0.09196518 0.071553744 -0.018276071
-0.020991081 0.07414416 -0.05557616 -0.03724659 -0.033132672 -0.00021653867 0.019072926 -0.025938265
0.063644655 -0.008350559 -0.018121505 -0.01562543 -0.01922006 0.06387906 -0.040411532 0.010590323
0.02700937 0.06939485 -0.02085866 0.017749446 0.0028890627 -0.008522018 -0.038761806 0.00482028
00000000: 216d a83c d046 babc e23e 303c 6837 483d
00000010: 827e 73bd f9f6 043d d6c7 bdbc f133 cbbc
00000020: a0d1 3b3d 9314 563d c445 cb3c d169 013d
00000030: eafc 313d d749 bc3b 3153 3d3d 7bc0 8b3d
00000040: cf71 333d 48a5 0e3d 03fb 873c 16c6 b13c
00000050: b12d 58bc f4aa b53c ad2d 0c3c 7273 64ba
00000060: 4dcb e6bc bde9 ebbc e51a 2a3d bd65 9abc
00000070: 6c4d 1d3d 3944 35bc 928c 8dba ccff 2e3c
00000080: 376c 7dbc ac32 293d 086b 82bc bf44 4d3d
00000090: 23d9 43bc cfbe 243d 99ac 823d e72f 8e3c
000000a0: 0690 063d c7b7 563d 41b8 613d 607a 403c
000000b0: b409 f03c 6865 e23b 5a3c 6ebd 2273 efbc
000000c0: b702 e7bb 1c76 5cba 134a 84bd 639c 593d
000000d0: e7a6 4c3d 1c15 bd3c db95 3b3c eddb ef3c
000000e0: e09c 823c 3abb a3bb 4ee7 c2bc 020f cd3c
000000f0: 1502 a2bc ed38 b53c e318 d0bc 75b1 43bd
00000100: 8127 b6bc 1900 48bb c5e9 203c d0d7 46bd
00000110: 4929 7bbc cd38 553d 5663 48bd 5e93 7dbd
00000120: dc5e c03c fb4b 733d fede 30bd cc12 45bd
00000130: b934 603d 3da1 06bc 6b7e a3bb 2f72 45bc
00000140: fca2 9bbc 3da7 d3bc 92ab 8a3d 33b9 01bd
00000150: 397b 51bc 0d7f 4cbb 7423 753d cf9b 82bd
00000160: 47fe 573d fe21 2c3d 10b9 1cbd 7574 453d
00000170: 276f 8a3d 8548 663d 2469 4f3d 2f30 18bd
00000180: cf11 c03c 1e1d 2fbd cd9a 27bb 389c 72bd
00000190: 8f5e 9cb8 3e58 bc3d c58a 923d b3b7 95bc
000001a0: 7df5 abbc e5d8 973d d4a3 63bd e18f 18bd
000001b0: 20b6 07bd a80e 63b9 d33e 9c3c 7c7c d4bc
000001c0: 2158 823d c8d0 08bc 8d73 94bc e700 80bc
000001d0: 6373 9dbc 06d3 823d 9086 25bd 0983 2d3c
000001e0: c142 dd3c e31e 8e3d c8df aabc 4967 913c
000001f0: 6e56 3d3b ef9f 0bbc b3c4 1ebd 70f3 9d3b

fc3.weight f4 [32, 128]
-0.0104892915 0.08264718 0.051732004 -0.030912515 -0.009574375 0.093324445 -0.029846732 -0.013181167
0.06944478 -0.022067621 0.020762019 -0.0036590656 -0.047217324 -0.07500309 -0.056050286 -0.06166058
0.009537229 0.05807636 0.08458566 0.014187627 0.049742274 0.054213583 -0.013356108 0.039213978
0.043875802 0.05511862 0.0689804 -0.06767047 -0.08045647 -0.08309261 0.051956575 -0.047657948
0.0264144 -0.008786776 -0.024780624 -0.060484987 -0.029282846 0.066731885 0.06616601 0.059529915
0.04566009 0.07363046 0.07656752 0.04925543 0.020885475 -0.06408348 -0.0027691538 0.046497937
-0.08455316 -0.08037118 0.03826978 -0.013775156 0.07332767 0.024636105 0.04813273 0.005067848
0.019327786 -0.06392633 0.06772295 -0.061535172 0.05964493 -0.01480513 -0.060790095 -0.01925052
0.011859583 0.051700067 -0.056261905 0.06115964 0.074724905 -0.07923549 -0.07814966 0.037617438
-0.030925324 0.01479667 0.028430892 0.0016774571 0.056907315 0.01773108 -0.075448304 -0.07744327
-0.042219914 0.084021516 0.029107865 0.026177615 0.08338967 0.048043434 0.024189044 0.0020517956
-0.08250276 -0.0541161 0.039479636 0.05353491 -0.045613058 0.08453528 0.03445097 -0.044954717
0.047322992 0.0668122 0.06805585 0.025758756 0.019879093 0.025415448 -0.08453378 0.0424895
0.06867831 -0.08019532 0.0121660335 -0.055028763 0.03588984 -0.05873775 -0.0036815011 -0.025458725
-0.057961795 0.04869087 -0.018104706 -0.04309199 0.032041177 -0.032931365 -0.07541168 -0.056733023
-0.040252406 0.09408539 0.06764983 -0.06479864 0.04630518 0.00061619165 0.077347524 0.021455694
0.08825049 -0.061822876 0.07063818 0.0055586793 -0.062342253 0.009737046 0.0624886 -0.086048104
0.021106062 0.032483336 0.014296967 -0.07866072 0.007364325 -0.07627701 0.076949485 -0.011394933
-0.03793747 -0.051886056 0.049020134 0.006225179 0.04836318 -0.049804 -0.049125563 -0.081856534
-0.08336039 0.0024346865 -0.004478958 0.037612893 -0.079845525 0.06715596 -0.053370055 -0.039253563
-0.07380548 -0.06925417 0.039490357 -0.0026896442 0.0136708105 -0.03919895 -0.020649452 -0.004779979
0.08450042 -0.08206024 0.07448652 -0.068884455 0.004945753 -0.0151626 -0.023364635 -0.07441445
0.035934508 0.08221635 -0.061287656 -0.0064556054 0.023527838 -0.03925472 -0.08451444 -0.045586597
-0.012186192 0.026972195 -0.065199584 -0.062217694 -0.008101746 -0.06712734 -0.072004825 0.07932851
0.022755133 0.013031042 0.0038731836 0.029341998 -0.041783195 -0.07691989 0.06271662 -0.0015028314
-0.04646652 0.08652543 -0.022895824 -0.019564461 0.07175433 -0.012090737 0.019349797 -0.06495976
-0.015843753 -0.058486428 0.0023146675 0.0059957155 -0.046199147 0.009329211 -0.0629929 -0.074618526
0.02117171 -0.02495202 -0.062787846 0.014398721 -0.07240165 0.017733388 -0.016857924 0.018098122
-0.04401821 0.06202166 -0.07464393 -0.08396346 -0.015819935 -0.06629998 -0.05209865 0.032684203
0.07183462 0.03500427 0.0062482785 -0.008805102 -0.0055057122 -0.05680228 0.08752538 -0.01906365
0.072131254 -0.026922831 0.08470221 -0.024733445 -0.08186858 0.013272975 0.052222967 -0.05487395
0.028579213 -0.018865746 0.06283707 -0.03518274 -0.0676083 -0.00870465 -0.04095445 -0.07979532
00000000: 47db 2bbc ed42 a93d f0e4 533d 3e3c fdbc
00000010: d7dd 1cbc e320 bf3d 2281 f4bc d2f5 57bc
00000020: 1139 8e3d 28c7 b4bc 1c15 aa3c efcc 6fbb
00000030: f466 41bd 389b 99bd fc94 65bd ce8f 7cbd
00000040: 0a42 1c3c 7ae1 6d3d 3f3b ad3d 3873 683c
00000050: 8ebe 4b3d 100f 5e3d 94d3 5abc d69e 203d
00000060: 1db7 333d 10c4 613d 9945 8d3d d196 8abd
00000070: 5dc6 a4bd 752c aabd 6bd0 543d fb34 43bd
00000080: 0363 d83c 69f6 0fbc bc00 cbbc 1bbf 77bd
00000090: 94e2 efbc baaa 883d 0c82 873d a4d5 733d
000000a0: 1306 3b3d 91cb 963d 6fcf 9c3d 10c0 493d
000000b0: 0418 ab3c 333e 83bd b17a 35bb 9f74 3e3d
000000c0: 352a adbd a599 a4bd c6c0 1c3d 31b1 61bc
000000d0: d12c 963d a8d1 c93c d326 453d 3110 a63b
000000e0: 4e55 9e3c cfeb 82bd 54b2 8a3d 4e0c 7cbd
000000f0: 3e4e 743d 3791 72bc 09ff 78bd 44b3 9dbc
00000100: b24e 423c 73c3 533d e272 66bd 8882 7a3d
00000110: 5f09 993d 3746 a2bd ee0c a0bd be14 1a3d
00000120: 1b57 fdbc bb6d 723c e7e7 e83c 1fde db3a
00000130: a517 693d c540 913c a484 9abd 949a 9ebd
00000140: caee 2cbd 7913 ac3d 9e73 ee3c 7072 d63c
00000150: 34c8 aa3d 31c9 443d 1a28 c63c 6b77 063b
00000160: 35f7 a8bd d8a8 5dbd 66b5 213d 6c47 5b3d
00000170: c2d4 3abd d520 ad3d 761c 0d3d 7022 38bd
00000180: c1d5 413d d6d4 883d de60 8b3d 0704 d33c
00000190: 7bd9 a23c 0f34 d03c 0c20 adbd 7809 2e3d
000001a0: 37a7 8c3d 723d a4bd 0b54 473c d765 61bd
000001b0: 3a01 133d ff96 70bd 5745 71bb d18e d0bc
000001c0: 5969 6dbd 1470 473d 5250 94bc 3a81 30bd
000001d0: 9c3d 033d 0ae3 06bd 7071 9abd e360 68bd
000001e0: b5df 24bd d7af c03d fe8b 8a3d 26b5 84bd
000001f0: 80aa 3d3d ec87 213a 6168 9e3d dac3 af3c
00000200: acbc b43d fc39 7dbd c0aa 903d 9525 b63b
00000210: 975a 7fbd 2288 1f3c 0cf4 7f3d fd39 b0bd
00000220: 9fe6 ac3c 3f0d 053d d33d 6a3c df18 a1bd
00000230: 7050 f13b 1f37 9cbd b197 9d3d d0b1 3abc
00000240: 5264 1bbd 7986 54bd 56c9 483d 96fc cb3b
00000250: 7818 463d 47ff 4bbd e337 49bd 66a4 a7bd
00000260: dab8 aabd 438f 1f3b 39c4 92bb fa0f 1a3d
00000270: 0d86 a3bd 1089 893d 8f9a 5abd 58c8 20bd
00000280: 5427 97bd 21d5 8dbd a4c0 213d be44 30bb
00000290: 89fb 5f3c 148f 20bd 0a29 a9bc 5fa1 9cbb
000002a0: 8e0e ad3d 330f a8bd 638c 983d 4b13 8dbd
000002b0: fc0f a23b 8e6c 78bc 3167 bfbc 9a66 98bd
000002c0: 1030 133d 0c61 a83d c408 7bbd 8b89 d3bb
000002d0: 74bd c03c 8fc9 20bd e815 adbd 03b9 3abd
000002e0: 98a8 47bc cbf4 dc3c 5c87 85bd fbd7 7ebd
000002f0: 30bd 04bc 0f7a 89bd 4477 93bd fc76 a23d
00000300: f968 ba3c 2780 553c 3dd5 7d3b a15e f03c
00000310: db24 2bbd 2d88 9dbd 9271 803d a7fa c4ba
00000320: ad53 3ebd 3f34 b13d 0690 bbbc a645 a0bc
00000330: eff3 923d 3a18 46bc 7783 9e3c 9f09 85bd
00000340: c2ca 81bc 778f 6fbd adb1 173b b577 c43b
00000350: 513b 3dbd 8cd9 183c 6c02 81bd 99d1 98bd
00000360: 4b70 ad3c 2e68 ccbc ea96 80bd 9de8 6b3c
00000370: 5147 94bd 9c45 913c a119 8abc 8342 943c
00000380: 704c 34bd 6d0a 7e3d ebde 98bd 09f5 abbd
00000390: cf98 81bc 49c8 87bd 6565 55bd dfdf 053d
000003a0: 071e 933d a360 0f3d 5cbe cc3b 4643 10bc
000003b0: 4369 b4bb 82a9 68bd 8240 b33d 5f2b 9cbc
000003c0: 8db9 933d 458d dcbc 5a78 ad3d cb9d cabc
000003d0: b7aa a7bd e476 593c c0e7 553d 82c3 60bd
000003e0: f41e ea3c 568c 9abc b9b0 803d c71b 10bd
000003f0: 3876 8abd f39d 0ebc dabf 27bd bb6b a3bd

fc3.bias f4 [32]
-0.04398314 0.027224695 0.0417974 0.1256727 0.022172963 0.027976383 -0.060323715 -0.019112017
0.13035998 0.004447822 0.062719874 0.15369143 0.023018325 0.005680566 0.1644053 0.068479635
0.076557755 0.04252242 0.055188704 0.10227353 -0.022354648 -0.054402523 0.100294545 -0.08248523
0.12281791 0.017579695 -0.025073297 0.18028672 0.05677924 0.02052958 0.06917708 0.10294437
00000000: aa27 34bd 5306 df3c c033 2b3d 58b0 003e
00000010: 13a4 b53c ba2e e53c 0016 77bd ce90 9cbc
00000020: 167d 053e 09bf 913b 4773 803d 4961 1d3e
00000030: ed90 bc3c 0b24 ba3b dd59 283e 0d3f 8c3d
00000040: 50ca 9c3d fd2b 2e3d 8d0d 623d c974 d13d
00000050: 1821 b7bc 2ed5 5ebd 3a67 cd3d 04ee a8bd
00000060: f587 fb3d 4b03 903c 8466 cdbc 159d 383e
00000070: 5991 683d a62d a83c b7ac 8d3d 7fd4 d23d

fc4.weight f4 [2, 32]
-0.20259733 0.105413824 -0.00025170046 -0.5009725 -0.14252928 0.10240312 -0.09062998 0.17397097
0.33285305 -0.12570053 0.0967533 -0.5606944 -0.051154476 -0.17135055 0.27392578 0.011027721
0.12478211 0.10750275 -0.31674346 0.21364376 0.0098365545 0.096851364 0.1384442 -0.034984227
0.2588169 -0.07111044 0.17423543 0.3822564 0.05341881 -0.04325938 0.20293622 0.35964918
-0.063311614 0.114915825 -0.03971773 0.624207 0.37789887 0.06773621 -0.0675248 0.07551102
-0.17578411 0.09362586 -0.15967654 0.37675777 0.21425305 0.37043616 -0.34509897 -0.11159037
0.04539057 0.0014533221 0.10881562 -0.26245713 0.06548918 -0.0379929 -0.183222 -0.10582525
-0.0680168 -0.024012044 -0.100428745 -0.2943218 -0.07898036 -0.035706848 -0.24835828 -0.21355495
00000000: ad75 4fbe 34e3 d73d aaf6 83b9 bc3f 00bf
00000010: 32f3 11be bab8 d13d 369c b9bd 7225 323e
00000020: b76b aa3e a4b7 00be 9826 c63d ab89 0fbf
00000030: 5b87 51bd 8576 2fbe 0040 8c3e 9dad 343c
00000040: c38d ff3d 672a dc3d 332c a2be 6ec5 5a3e
00000050: 8029 213c 025a c63d 51c4 0d3e 9f4b 0fbd
00000060: a683 843e 5aa2 91bd c66a 323e 1cb7 c33e
00000070: afcd 5a3d bf30 31bd 83ce 4f3e f023 b83e
00000080: 85a9 81bd fd58 eb3d 0faf 22bd 08cc 1f3f
00000090: f67b c13e 48b9 8a3d 714a 8abd 86a5 9a3d
000000a0: c000 34be eabe bf3d 3f82 23be 65e6 c03e
000000b0: 2765 5b3e cfa9 bd3e d0b0 b0be 7e89 e4bd
000000c0: 76eb 393d 667d be3a b9da de3d c860 86be
000000d0: 311f 863d 719e 1bbd 8c9e 3bbe e9ba d8bd
000000e0: 644c 8bbd e8b4 c4bc 96ad cdbd 59b1 96be
000000f0: 74c0 a1bd 5841 12bd a251 7ebe 26ae 5abe

fc4.bias f4 [2]
0.07917337 0.0026037726
00000000: a625 a23d 0ea4 2a3b
