ligand_model/DNN_FC0001_ModelH2-PubChemFP-top256_batchsize-16_optim-sgd_lr-0.0025/train5.model (torch, 413839 bytes, 8 tensors)

fc1.weight f4 [256, 256]
00000000: 3405 22bd df73 fe3c df5d 903a f67e c93c
00000010: e51d 2abc d3ac 3fbd 2e44 fcbb 0b1f 3dbc
00000020: 756c 4c3d 32db 74bd c36a 8ebd 9c53 af3c
00000030: 74ab 62bc 5eda 863c 826d ae3c 3b1f ccbc
00000040: b3dd 00bd 24b8 f93c ffa1 6bbd 8dcd 523b
00000050: 3cae c6ba 4497 19bc bc4a 13bd bb6f f33c
00000060: 07f7 08bd 9da3 3e3d c06e 3a3d 47f2 43bc
00000070: e1e9 abbb e80a 85bd 3bca 68bc 9824 3f3d
00000080: deab 323d cdb6 e0bb f906 cc3c c973 723d
00000090: 746a 1a3d 5eb6 42bd 7ef1 0ebd c029 673d
000000a0: ace8 8dbc 9072 083d bebd 26bd ecbb 423d
000000b0: b4ac f1bc 5ce6 61bd e06b 89bc eeea 1abd
000000c0: e61e 47bd bd91 9fbc cdd0 053c fd35 f43b
000000d0: 7d13 303d 06df 253d 36d1 243d 3f2c 2dbd
000000e0: d743 a73a 8a61 00bd 3711 f7bb 42ed 27bd
000000f0: 4e61 02bc 106a 443d 8b86 2bbd 1168 2b3d
00000100: 0828 393d 7e49 37bd 4864 dbbb 8605 7a3b
00000110: dba1 26bd 4dd5 103d f732 853b b156 1a3c
00000120: 5bf4 02bc abce 5ebc 3e69 9f3b f5e1 b3bb
00000130: 12e5 abbb f898 113d 2ccc 163d 48f4 2e3d
00000140: f512 9cbc 0650 0c3d 39b8 fb3c eb8f b3bc
00000150: 00e2 e53b 290e 88bc d0c4 243d 27a9 2a3d
00000160: 60e3 d3bb d302 32bc 7ba3 b13c bf3d 7fbd
00000170: 41fe 86bd 107a 733d dc2c 803c 1f5e 4d3d
00000180: 631a 3c3d 0407 d0bc 0edf a83c 8dd2 6c3d
00000190: 97d4 58bd c233 ebbc 5431 78bd 0234 493c
000001a0: 2ab8 0c3d 693b 46bc b0d3 24bc 4f39 133d
000001b0: 8c15 a63c 17d3 a9bc 7c6f 483d 9b75 45bd
000001c0: 9ec0 1dbd 4d2e 333d 6433 abbc 6735 3b3a
000001d0: 9f48 bd3c e3d5 7abd 8780 77bc 1993 3b3d
000001e0: 867f 6bbc 52ad 3fbd f954 503d ec73 5e3c
000001f0: 5220 31bd 0d7b 193c 6d7f d4bc 7bb2 82bd
00000200: a323 523d 5325 133d 0615 c03c 93f0 683d
00000210: e728 cdbc fe56 7bbc 2a5f 82bb d7b4 1bbd
00000220: 6fa4 303c eb9e 0c3d 7ca8 4bbd 17b4 1b3d
00000230: 9e81 f9bc d411 82bd 253b 69bd 2cae 333d
00000240: f94f ddbc 83e9 efbc f5e8 3a3d 389b 6abd
00000250: 4036 133c 51db 74bd d4ad 6dbd f8d7 b03b
00000260: b380 053d b27e 6b3d 0368 73bd 4f8c c43b
00000270: f66a 9e3c 88d8 43bd cb52 5abd a356 3ebd
00000280: cb6f 493d 07bd 113d 0815 f8bc c288 43bd
00000290: 480a 2abd 22bb 073c c223 843c 6fc6 c1bc
000002a0: 2dab 40bd 5bc9 eabc f5e4 4abd 429f b63c
000002b0: 1040 35bd 36c2 853d 2af6 45bd aa28 18bd
000002c0: a3be 9abb e535 743d 93c7 3e3d 9c02 03bb
000002d0: 3fae 0dbc 9114 bcbc 120e 163d 4cf9 623c
000002e0: 15ea 393d 38a7 6a3c f1c0 b1bb 1ac3 653d
000002f0: 754f 9b3c ad83 3cbd 3130 42bd 5bab c9bb
00000300: 8c9f 153c 5196 243d af92 25bd 0b82 46bd
00000310: aba8 2aba ea51 fbbc 98cd 80bd 38c0 81bd
00000320: 078b abbc 1f6c fdbb 63f3 4c3c d1c1 3d3d
00000330: 7f46 753d 1286 153b 02df db3c a530 02bd
00000340: 65c3 33bd a693 50bd 9911 883c 8bd1 1cbd
00000350: d413 3f3c 9aa4 3bbd 8ffe 0e3d 9cd5 4e3d
00000360: ba03 53bd 86ab 2d3b 1822 0e3d d4c6 d83c
00000370: 7b81 6abb 4c56 143d 8fa4 953c 8443 13bd
00000380: e1a6 5ebd 8b58 bdba 6e0e 263d d1ab 75bc
00000390: a485 80bc 9a81 6d3d 0ad7 813d 4954 4cbd
000003a0: 9ac6 9f3a d2c4 87bb 2beb 033d 789e 103d
000003b0: d88f a23c 5a11 483d 10fe dd3b ffe7 e4bb
000003c0: b815 863d 1c22 47b9 dae9 0bbd 228a 57bd
000003d0: 9285 783b 92cb 62bc 0c9e 743c c15a 74bd
000003e0: 4d2c 25bc f17f 29bc 292e 923c bc9b 873d
000003f0: 3ee5 3a3d 7ba7 25bc 3709 66bd c7a4 6c3d
-0.039555743 0.031061111 0.0011014304 0.024596673 -0.010383104 -0.046795677 -0.0076985573 -0.011543046
0.04990812 -0.059779353 -0.06953957 0.021402173 -0.013834823 0.016461547 0.021292452 -0.024917236
-0.03146143 0.030483313 -0.05752754 0.0032165975 -0.0015158127 -0.009374443 -0.035959944 0.029716363
-0.03343871 0.046542753 0.045515776 -0.011959619 -0.0052463864 -0.06496221 -0.014208372 0.046665758
0.043620937 -0.006857729 0.024905669 0.059192453 0.037699178 -0.0475372 -0.034898274 0.0564363
-0.01732286 0.03331238 -0.040708296 0.047542498 -0.029501297 -0.05515133 -0.016775072 -0.037821703
-0.04861345 -0.019478673 0.008167458 0.007452725 0.042987335 0.040495895 0.04023858 -0.042278524
0.0012761307 -0.03134302 -0.007539894 -0.04099775 -0.00795777 0.04795271 -0.041876357 0.041847292
0.045204192 -0.044747822 -0.006695304 0.0038150265 -0.0406817 0.03535967 0.0040649134 0.009420083
-0.007992829 -0.013599078 0.004864841 -0.0054895827 -0.005245813 0.035546273 0.036815807 0.042713434
-0.019052008 0.034256004 0.030727493 -0.021919211 0.0070154667 -0.016608315 0.040226758 0.041665222
-0.006466314 -0.010864931 0.021684399 -0.062314745 -0.06591464 0.05944258 0.01564639 0.05013859
0.0459236 -0.02539397 0.020614173 0.057817984 -0.052937116 -0.028711203 -0.060593918 0.012280466
0.03435532 -0.012099125 -0.010060236 0.035943326 0.020273946 -0.020730538 0.048934445 -0.04820786
-0.038513772 0.043745328 -0.020898528 0.00071414415 0.023105917 -0.061239135 -0.015106327 0.04579458
-0.014373666 -0.04679615 0.050862286 0.013577443 -0.043243714 0.0093677165 -0.025939668 -0.06381699
0.051303517 0.035924267 0.023447525 0.056870054 -0.025043918 -0.015340565 -0.0039786296 -0.03801426
0.0107813915 0.034331243 -0.049721226 0.038013544 -0.030457314 -0.06351057 -0.05694117 0.043867275
-0.027015673 -0.029286152 0.04563232 -0.057276934 0.008985102 -0.05977947 -0.058027104 0.005396839
0.03259344 0.057493873 -0.059425365 0.0059981714 0.019338112 -0.047813922 -0.053301614 -0.046469342
0.04917888 0.03558066 -0.030283466 -0.047737844 -0.04151371 0.008284362 0.016130332 -0.02365419
-0.047038246 -0.028660467 -0.049534757 0.022292737 -0.044250548 0.065311834 -0.048330463 -0.037148155
-0.0047224327 0.05962171 0.046577048 -0.001999057 -0.008647501 -0.022959026 0.036634512 0.013853382
0.045389254 0.014322095 -0.0054246117 0.056094266 0.018958787 -0.046024013 -0.04740924 -0.0061544604
0.009132277 0.040182415 -0.04042309 -0.048463862 -0.0006510119 -0.030678708 -0.06289214 -0.06335491
-0.020940317 -0.0077338363 0.0125092 0.046327416 0.059881683 0.0022815508 0.026839737 -0.031784672
-0.043887515 -0.05092206 0.016609954 -0.038285773 0.011662442 -0.045811273 0.034910735 0.050496683
-0.051517226 0.002649994 0.034700483 0.026461996 -0.0035782743 0.03621511 0.018266944 -0.03595306
-0.054358367 -0.0014445944 0.040541105 -0.0149945775 -0.015688725 0.057984926 0.063398436 -0.049885068
0.0012189925 -0.004143336 0.032206696 0.035307378 0.01984398 0.048844673 0.0067746714 -0.006985664
0.06547111 -0.00018990826 -0.034158565 -0.052621968 0.003792141 -0.01384248 0.014930259 -0.059656862
-0.010081363 -0.010345445 0.017844277 0.06621501 0.04562878 -0.010110731 -0.05616113 0.05777433

fc1.bias f4 [256]
00000000: 9364 0b3d 1a42 083c da75 c2bc 8fad a1bc
00000010: 1584 1bbd 6eec 293c b5a8 5d3b b460 333d
00000020: 5db8 b3bc 6ffe 133d 93dd 213b bad4 f0ba
00000030: 388a 543d d8c6 2ebc 9e2b 7cbc 48ea 4a3d
00000040: eaab 563c 944f bebb 9acc a33c fe3a 5b3d
00000050: 1665 3cbd a147 27bd 5b40 23bb 70d5 333b
00000060: 974e 2d3d 6e7d 3d3d d754 20bd cdb7 633d
00000070: 86a9 35bd adf7 7dbd a6de 8cbd ab01 f3ba
00000080: 33b1 193d 76b2 083b c95e 71bc 75b5 553d
00000090: 3f2c 66bb 66af 9dbc efc9 0e3d b8b7 dbbc
000000a0: 441e 7cbd dba4 8a3c b464 a5bc a24e 57bd
000000b0: ae57 72bd 99a5 4abd e0a1 13bd 8608 9b3c
000000c0: 74de 73bc 42ea 1f3d 8ccb 633c 3e25 513d
000000d0: 65b4 dcbc 8e7b 013d 76e8 743c 7558 89bd
000000e0: 7483 adbc c854 623b 050c 18bc 3a9a 15bc
000000f0: f0a9 6cbd 422f 7abd 5b3b 823d 3365 8ebd
00000100: ab24 f33c 795b dcbc 2809 ffbc 69dd 45bc
00000110: 5989 893d 1b98 4abd 15a8 ab3c 1582 79bd
00000120: ae30 4bbd 9377 0ebd a490 7bbd ffe9 7e3d
00000130: 76ba 443d ffa9 36bd 90ba 873c 598a 24bd
00000140: 9ae1 9cbb 80b9 163d 28b0 6b3d bf7a 44bd
00000150: 3b1b 2cbd 9e3c 823d a462 f23c 1163 b13c
00000160: a546 373d 71e8 39bc 4378 323d b0df dd3b
00000170: f0ef 21bd ffcf a2bc 40cb aabc 5332 9d3c
00000180: 4076 10bd 374a 05bc 2294 513d f831 413d
00000190: eff0 18bd 299e 383b e380 76bd dc3c 4ebd
000001a0: fee7 3abd 009a 513c 7394 50bd 473c 01bd
000001b0: 0074 c83c 603b b33c eebf 59bb 337c 4a3d
000001c0: d0ce bf3b ebfe 733d 87a5 4cbd bc04 693c
000001d0: 92d3 b93b 12c1 fcbc beb0 9c3c b6ad 56bd
000001e0: 7405 f8bc 6873 4b3d 3fd6 2c3d 133f 2fbd
000001f0: 4935 ccbc 1045 74bc 74d1 57bd a5d6 913c
00000200: 7c66 473d fd1a aabc ad38 ab3c 8fe6 933c
00000210: 7da0 30bd f4c8 d83b 1045 8abd 8bc9 b03c
00000220: 8a79 0b3d 8f1d ca3c 6124 c6bc c265 533d
00000230: e607 193d 7ef7 6c3c 8e31 953c 0c04 12bd
00000240: da71 793d b14f 29ba ef2e 0abd e1e3 453c
00000250: 331f 6fbd b3e7 173c 9481 05bd 6698 21bd
00000260: 5dd0 ae3b ff13 e5ba f69c ffbc ac3f 773d
00000270: 2ac4 3cbd 9031 b63c c8d7 f33c d383 c2bc
00000280: 1e9b 82bb b629 d1bc 599c 863d 1cb3 4d3d
00000290: 4948 643d ea6b 4b3d 9679 4e3d 6a28 453d
000002a0: 0f97 143d 8f74 8a3d 92fa 103d 488b 3fbd
000002b0: 3dba c93c 6d65 f83c 3138 a3bd 6a40 66bc
000002c0: 23f7 93bd 5062 62bd 5cc9 3dbd de3f f4bc
000002d0: e296 6a3c 575f 3fbc e17a 4bbd dc67 e5bc
000002e0: 281c 6f3d ae30 033d ee02 083b d919 53bb
000002f0: 52f8 453d e1c0 583d b8d2 873c 5ec5 2c3c
00000300: 2543 46bd 4129 a33b 04a6 36bd b083 2a3c
00000310: 3b1b 68bd 0da3 a43b 853a 08bd fa70 5c3d
00000320: f8f7 46bd b098 613c b4d7 bd3c 585f edbb
00000330: a9a8 0f3d 1c41 59bd 47d4 273b 0daa 10bd
00000340: de5f 5f3d 7871 fc3c bf33 e2bc d8cc 09bd
00000350: 42a9 603c 6738 063d e90a f03c 27be ca3c
00000360: 0460 b7bc b830 ebbc d3c6 333d 2e91 79bd
00000370: b1d7 1dbd a44e 343c 2029 d8bc b768 7cbd
00000380: a241 a13b 58bf 05bd 4ef0 483d cfa0 51bd
00000390: 0f75 50bd 41c0 5c3d 628a 37bd cf04 c5bc
000003a0: 0414 a93c c607 35bc cce7 c9bc 3b56 353d
000003b0: 9a0b e7bc 3028 693b 0543 1bbc a570 6c3d
000003c0: 4411 42bc fd4d 36bd 20f8 333d 84e5 43bd
000003d0: faed 2dbd 24fc e8bc 0187 f03c 0a32 0abd
000003e0: c07f 3d3c 9a42 89ba 77db c4bc 056c e23b
000003f0: a38e 793c 2695 1ebd 8ce3 eebc c92a 2e3d
0.034031462 0.008316541 -0.023737837 -0.01973608 -0.03796776 0.010371311 0.003382248 0.043793395
-0.021938497 0.03613132 0.002469872 -0.0018373944 0.05188963 -0.010667525 -0.0153912585 0.049539834
0.013102511 -0.0058078263 0.019995023 0.053523056 -0.04599484 -0.040839795 -0.0024910185 0.002744045
0.042311277 0.046262197 -0.03914341 0.055595208 -0.044351123 -0.06200378 -0.06878404 -0.0018539926
0.037522506 0.0020858324 -0.014732071 0.052175004 -0.0035121588 -0.019248676 0.034860548 -0.026821002
-0.0615523 0.016924312 -0.02018962 -0.052565224 -0.05916565 -0.049474332 -0.036043048 0.018924963
-0.01488458 0.039041765 0.01390351 0.051060908 -0.026941488 0.03161197 0.014948001 -0.06706325
-0.021180846 0.0034535397 -0.009280209 -0.009131009 -0.057779253 -0.061080225 0.063589774 -0.06952896
0.02968057 -0.026899086 -0.031132296 -0.012076714 0.0671565 -0.049461465 0.020954171 -0.06091507
-0.04960697 -0.034782004 -0.061417237 0.062234875 0.048029386 -0.044595715 0.016568452 -0.040171
-0.004787636 0.036798 0.057541043 -0.047968622 -0.042018156 0.06359218 0.029588051 0.021653684
0.044745106 -0.011346922 0.04357172 0.0067710504 -0.039535463 -0.01987457 -0.02084887 0.019189036
-0.035269022 -0.00813537 0.05116666 0.047166795 -0.037339147 0.0028170443 -0.06018151 -0.05035101
-0.0456314 0.012793064 -0.050922822 -0.031551626 0.024469376 0.021878898 -0.0033225971 0.04943485
0.0058535114 0.05956928 -0.049962547 0.01422232 0.005670973 -0.030853782 0.019127246 -0.052411757
-0.030276038 0.049670607 0.04219651 -0.04278476 -0.024927752 -0.014909044 -0.052689984 0.017802546
0.04868172 -0.020764822 0.020901049 0.018054275 -0.043121804 0.0066157524 -0.06751454 0.021580478
0.034051456 0.024672298 -0.024187269 0.051610716 0.03736105 0.014463304 0.018212106 -0.03564839
0.060899593 -0.00064587133 -0.033736166 0.012078256 -0.058379363 0.00927155 -0.03259428 -0.03945198
0.0053348974 -0.0017477273 -0.031202774 0.060363457 -0.046085514 0.02224043 0.029765978 -0.0237445
-0.0039857766 -0.025532585 0.0657279 0.05021964 0.055733 0.04966346 0.050408922 0.048134245
0.036276873 0.06760513 0.035395212 -0.04676369 0.024624938 0.030321801 -0.07969702 -0.014053443
-0.07224872 -0.05526954 -0.04633461 -0.02981561 0.0143182 -0.011680446 -0.049677733 -0.028003626
0.05837646 0.032028846 0.00207537 -0.0032211451 0.04833252 0.05291832 0.01657997 0.010545103
-0.048403878 0.004979283 -0.04459192 0.010407373 -0.056666594 0.00502432 -0.033258934 0.05381868
-0.048576325 0.013769314 0.023174144 -0.007244032 0.035072956 -0.05304061 0.0025608705 -0.035318423
0.054534785 0.030815825 -0.027612565 -0.03364262 0.013712229 0.032768633 0.029302077 0.024748875
-0.022384651 -0.028709754 0.043890785 -0.06092947 -0.038535777 0.0110050775 -0.026386797 -0.0616233
0.004921154 -0.032653183 0.049057297 -0.05117875 -0.050892886 0.053894285 -0.044809707 -0.024050144
0.020639427 -0.011049217 -0.024646662 0.04427169 -0.028203774 0.0035576932 -0.009476428 0.057724614
-0.011844937 -0.04450797 0.043937802 -0.047826305 -0.04246328 -0.028440543 0.02936125 -0.033739127
0.0115661025 -0.0010472119 -0.02403043 0.0069098496 0.015231761 -0.038716458 -0.029161237 0.04252127

fc2.weight f4 [128, 256]
00000000: b9da 02bd fcd1 12bc ed5d 26bb a8fd 603d
00000010: ab25 99bd 4d17 023d 747e aabc 2455 473c
00000020: d629 573d 7b39 7b3c f303 2fbd 18ab e9bb
00000030: ffad 81bc a771 c83c bd4c 613d 6700 143d
00000040: 2112 cd3c 9715 743d e2bb 3cbd 5ba2 723d
00000050: 9905 9e3c eae1 8b3c 4a86 893d 604a febc
00000060: cb8a 3cbd a15d 223c d5ee 64bd 1ef8 b0bc
00000070: 5c56 99bc 305b cf3c 8510 8b3c 41ec b0bc
00000080: 59ea 0bbc 2d10 943c 66ad e83c a1f7 37bd
00000090: e8ed 1a3d 1f83 e1bb 1b18 d6bc ba87 523d
000000a0: 007a 9e39 7ff4 d63c 06dd 7fbd aac2 44bd
000000b0: 2b99 363b cf06 5ebd 6b13 87bc 5702 683d
000000c0: f825 683c 577a 6bbd 2d45 59bd 6ad4 673d
000000d0: 3272 29bd b526 393c ba5b 2e3d 78ad 5ebd
000000e0: e7aa 64bc c561 25bd b11d 283d 8fdc bcbc
000000f0: e2a8 5d3d b124 873c 8e29 8a3d e7fb 42bd
00000100: bd31 87bc 98ee 333d 01c2 4ebd 9573 f73c
00000110: 061a 06bd 239b 1dbd c3c5 483d 547b d13c
00000120: 177a 463b 0dba 94bc a8af 033d 94ad 623d
00000130: 1039 9dbb 451a 49bb 9dc4 2cbd e72a ab3c
00000140: bc9c d3bc 4ed1 32bd ba9b 9cbc c25f 7bbd
00000150: 6519 fdbc 1e4d 77bd 603b 6a3d 528a fabc
00000160: 78ec 6cbd c49a d7bc 4358 03bb fc54 9838
00000170: 1076 96bb 9827 303d c66d 513d 78e9 443d
00000180: 3c05 08bd d20e de3c 8042 233d e93f 603d
00000190: 86b0 583c d09e 503d 831b 5fbd 97a7 913d
000001a0: 1755 343d f264 03bd 7cc7 333d 286b 52bd
000001b0: fc96 523d 112f 803c a189 ef3b a796 8b3d
000001c0: 399a 61bc c54b 393d d1f4 343b 06ac 753d
000001d0: bb05 4abc 8e32 76bd 5ebe 91bd e4b9 823c
000001e0: f43a 823d 888f 3dbd 0b4f 4b3d f26b 323d
000001f0: 19c1 a03c c842 1abc 5a74 fa3b fa6a 533c
00000200: 7c5e 2dbd caeb 1e3d 851f 8d3d 33bc 5b3d
00000210: eabb 063d ee72 783c fd3a f63b 9722 7b3c
00000220: 6a82 2e3d 39f9 873c 0f2a 7e3d bde1 24bd
00000230: c63f 303d 0456 bebc 85eb 813b a121 46bd
00000240: c2da 5ebd be9f 3a3d 85ac 123d 7a99 363d
00000250: 8d8c 8c3d 97a1 893d eca2 39bd b751 5abb
00000260: fe15 b33c 15bc 973c 053d 27bd ded8 a4bc
00000270: 8f20 3bbd 57d2 98bc c98c ab3c 7d8b c6bb
00000280: b628 d33c ea2a 063d e52e 8c3d ea73 7dbd
00000290: c9a1 2abd 69f5 a9ba f7f5 633d e951 7fbc
000002a0: c4b3 f2bb 5d1f 983d a9d9 433c 282f 11bd
000002b0: b903 a03d a40c 70bd ea43 ddbc 1744 c43c
000002c0: 1eb9 76bd 9ed2 9a3c 557d 8f3c 1006 49bd
000002d0: 277b 20bd 4cd9 383d e503 583d a42b 3e3d
000002e0: 368f ba3d 5906 7fbc 688e 503d 7099 2abd
000002f0: 5251 473b 7955 f5bc 5f1a 503d 3bb2 f9bc
00000300: f189 ebbc 1813 82bc ca15 0fbd ed2b 863d
00000310: 060e 7f3d d51b 693d 77b3 f33c 001c 0e3b
00000320: 645b 73bd 296a 9e3c b05b 56bd 32d0 a63c
00000330: c4a4 2dbd d097 d8bb 5180 3e3d 0dee 663d
00000340: f80d 313d 1e0b fbbc 1b33 0bbc 35d4 29bc
00000350: 1922 7d3d d75d 3fbd c2fb 07bd 427a ba3c
00000360: a5f0 243d ae52 ee3c 3f78 cb3c f166 3d3d
00000370: 4998 003d 8980 773c 5c30 d73b 5a86 993c
00000380: 99d9 173d 772c 84bc cdc4 203d f70a 20bd
00000390: 65f5 143b bbb6 1ebd 1bfc 3ebc 2d01 1cbc
000003a0: 36d4 8dbc 83c3 13ba ab22 70bd 2256 40bc
000003b0: c47b 1b3d e81c 653d 0442 7dbd ed11 693d
000003c0: 32d4 543d 6415 323d 5b8d 47bd 8ab9 edbc
000003d0: 58db 5dbd 1e69 34bd aa6a 87bc 938d 833d
000003e0: 66de 793c 424c 493d 6943 7c3d 498f b8bc
000003f0: 2a37 b63c 0f77 4fbd 1009 263c 78aa 2fbd
-0.03194687 -0.008961197 -0.0025385574 0.054929405 -0.07477888 0.031760503 -0.02081225 0.012166295
0.052530132 0.015333529 -0.042728376 -0.0071309917 -0.015830038 0.024468256 0.055004824 0.036133196
0.025033059 0.059590902 -0.046077617 0.059236865 0.019289779 0.017075498 0.06715067 -0.031041324
-0.0460308 0.009910018 -0.05589183 -0.021602686 -0.018717937 0.025312036 0.01697565 -0.02159703
-0.00853976 0.01807412 0.028402995 -0.04491389 0.03782454 -0.006882086 -0.026134541 0.05139897
0.00030227005 0.026239632 -0.062466644 -0.04803721 0.0027862291 -0.054205712 -0.016488751 0.056642856
0.014169209 -0.05748972 -0.053044487 0.05659906 -0.04136867 0.011300732 0.042567946 -0.05436465
-0.013956762 -0.040376443 0.04104394 -0.02305439 0.054116137 0.016496988 0.06746207 -0.047603514
-0.01650321 0.043928713 -0.050477985 0.030206481 -0.03273966 -0.038478028 0.049016725 0.025571503
0.0030285174 -0.018155122 0.03214994 0.05534132 -0.004798062 -0.0030685824 -0.042179693 0.02089448
-0.025831573 -0.04365664 -0.019117225 -0.06137062 -0.030895898 -0.06037628 0.05718553 -0.030583534
-0.0578427 -0.026318915 -0.0020041622 7.2637544e-05 -0.004591711 0.04300651 0.05113008 0.048074216
-0.033208117 0.027106676 0.03985834 0.05474845 0.01322568 0.050932705 -0.054469597 0.07112043
0.04402646 -0.03207869 0.043891415 -0.051371723 0.05141352 0.015647443 0.007310108 0.06815844
-0.01376968 0.045238275 0.0027611742 0.059978507 -0.012330468 -0.060106806 -0.07116388 0.01595778
0.06358901 -0.04627946 0.049635928 0.043559976 0.019623326 -0.009415336 0.0076432647 0.012903923
-0.042326435 0.038799085 0.068907775 0.053646278 0.032894053 0.01516412 0.007514356 0.015328071
0.04260484 0.01659833 0.06205183 -0.040254343 0.04302957 -0.023234375 0.0039648437 -0.048371915
-0.054407842 0.0455625 0.03580906 0.04457996 0.068627454 0.06720274 -0.04532139 -0.0033312866
0.021861073 0.018522302 -0.040829677 -0.020122942 -0.045685347 -0.018654985 0.020941155 -0.006059109
0.025776248 0.03275577 0.06844882 -0.061878122 -0.041658197 -0.0012966815 0.055654492 -0.015583494
-0.0074066836 0.07427857 0.01195375 -0.035445362 0.0781321 -0.058605805 -0.027009923 0.023958249
-0.060235135 0.018899258 0.017515818 -0.049078047 -0.039179947 0.045129105 0.05273809 0.046428338
0.091093466 -0.015565478 0.05091706 -0.041650236 0.003041346 -0.029947983 0.0508064 -0.030480495
-0.028752299 -0.015878245 -0.03493289 0.06551347 0.062269233 0.05691131 0.029748661 0.002168417
-0.05941333 0.01933773 -0.052333534 0.020362947 -0.04239346 -0.0066098943 0.04650909 0.056379367
0.043226212 -0.03064495 -0.008496071 -0.0103655355 0.061800096 -0.046720352 -0.03319908 0.022763375
0.04026856 0.02909216 0.024837611 0.04624075 0.03139523 0.015106329 0.006567044 0.018740822
0.03707275 -0.016134484 0.039250184 -0.039072957 0.0022729274 -0.038748484 -0.011656786 -0.009521765
-0.017313104 -0.00056367385 -0.058626812 -0.011739286 0.03795983 0.05593577 -0.061830536 0.05690186
0.051960178 0.04347743 -0.04871879 -0.029019136 -0.05416426 -0.04404556 -0.016530354 0.064234875
0.015250778 0.04914499 0.061587725 -0.022529261 0.022243101 -0.050650652 0.010133997 -0.04288718

fc2.bias f4 [128]
00000000: 29b0 43bc 6eb2 8b3d ead4 213d c476 033b
00000010: 712a 86bc 2cfc 843d 2be0 383d b662 77bb
00000020: 3527 4abd 6f15 febc c100 a43d d169 9b3c
00000030: 9820 0cbd 6e43 91bc 7df4 83bd de12 61bd
00000040: e8b7 203d 649c 2b3d fb6e 00bc 600e 78bc
00000050: c689 b33c 7c68 423c 410a d8ba 905e f9bc
00000060: 919d 13bd 83ac 433d 1839 12bd 08bb fbbc
00000070: c051 debc 7084 653d 644b ad3d d25a 863c
00000080: 0bca 0e3d 9cce 043d 3754 973d 8aca 143d
00000090: 8387 1d3d 2b71 c03c 9548 863c 4983 d5bc
000000a0: 9829 36bd 0e1e 18bc 8b69 243d c66d 4a3d
000000b0: f86b 80bb b4b7 f1bc 31d5 cdbc 65a8 33bd
000000c0: 30af 21bc 919e a63c deee 753d cf5b 1ebd
000000d0: 802a 28bd 1e65 493d c6cc bd3c ee29 c4b9
000000e0: d646 813c ef94 273d 8da0 0dbd 6a9e 083d
000000f0: 2139 8e3c 268a 143d 8ff9 813b 4d83 55bd
00000100: 01b9 953d 42d8 9cbc 226f 20bd 25ba f2bc
00000110: ba44 253c f9eb 34bd bb28 a2bc e1c6 0b3a
00000120: 9046 973c af8c fabc 77c5 b23b 913d d83b
00000130: 0dec 7d3d d1e2 7dbd 6a11 463d 7c33 3bbd
00000140: 5d9a 3b3d dfe5 b93c b9ce d53c 2e0e a7bc
00000150: 84b4 ee3c 5f12 efba fac0 68bc 7e3e a2bb
00000160: 7bc5 d03c eb28 08bd 5113 0e3c 9856 c13c
00000170: df02 24bd c7ad 69bc 396d 2e3c d248 07bd
00000180: 96e2 d73c 9a57 8bbc e50e 82bc 57bf 33bd
00000190: 2ac5 663d 70f1 7a3d 25ac 733b d64a 6c3d
000001a0: 3a0d bebb 96f8 8cbb 3cce 383b b8d5 3bbd
000001b0: 0fc3 4d3d 43d7 10bc db9f 943c 4ea3 283d
000001c0: 2d6b 4dbd 6d12 08bc 0bfa f6bc 6b41 5fba
000001d0: 44ef 583c 608c 47bc 2951 203d b7a0 583d
000001e0: 3ee5 263d eccf 373d 7f83 f8bc c2ff a13c
000001f0: e86b 34bd f61b 9fbc 6647 51bc cbd2 37bc
-0.011943855 0.06821142 0.03950969 0.0020059804 -0.01637766 0.064934105 0.04513566 -0.0037748045
-0.049353797 -0.03101608 0.08007956 0.018971356 -0.03421077 -0.017732348 -0.06443117 -0.054949634
0.039237887 0.041897193 -0.00783896 -0.015140146 0.021916281 0.011865731 -0.0016482548 -0.030440599
-0.03603894 0.047771942 -0.03569898 -0.030728832 -0.02713859 0.056034505 0.08461645 0.016400728
0.034860652 0.0324236 0.073891096 0.03632597 0.038459312 0.023491463 0.016392032 -0.026063578
-0.04447326 -0.009284509 0.040139716 0.049421094 -0.003919121 -0.029506542 -0.025126072 -0.043861765
-0.009868428 0.020339282 0.060042255 -0.038661774 -0.041056156 0.0491687 0.023168933 -0.00037415273
0.015780848 0.04091352 -0.03457694 0.0333542 0.017361226 0.03626456 0.0039665173 -0.05212717
0.07310677 -0.019146089 -0.039168485 -0.029629776 0.0100871865 -0.044170354 -0.019794812 0.00053320645
0.018466264 -0.030584661 0.0054556685 0.006599136 0.061992694 -0.061983887 0.04835645 -0.045703396
0.04580151 0.022692619 0.02609955 -0.020392504 0.029138811 -0.0018239728 -0.014206165 -0.0049512973
0.025484791 -0.033242147 0.008671598 0.023600861 -0.0400418 -0.014262623 0.010646158 -0.03302843
0.026353162 -0.017009545 -0.015876243 -0.043883648 0.056340374 0.06126541 0.0037181464 0.057688557
-0.0057999166 -0.0043020947 0.0028199097 -0.045858115 0.05023485 -0.008840385 0.018142631 0.041171364
-0.05015104 -0.008305174 -0.030148527 -0.0008516523 0.013240639 -0.012179464 0.0391399 0.052887645
0.040745966 0.044876024 -0.03033614 0.019775275 -0.04404822 -0.019422513 -0.01277337 -0.011219691

fc3.weight f4 [32, 128]
00000000: 6fc1 143d 2f87 a33d 8225 a13c 5868 a0bd
00000010: 3604 70bd 1d63 b2bd d3cb 1cbd 8d4d acbd
00000020: 054f ae3d 1883 2bbd 4cff c3bc 9ae7 e03b
00000030: 0114 4e3c b9f4 043d cb55 8e3d ab5f 28bd
00000040: 2454 c43c 6a8c 3dbd 391d dc3c 637b ba3c
00000050: 29a0 82bd ae3c 263d d256 81bd abc0 ad3c
00000060: 8274 843a de05 8f3d 3023 823d 7754 d13c
00000070: 5e3a abbd e3fe 41bd 6882 2bbc 14cb cd3b
00000080: ca4d afbc c134 16bd 0899 0f3d bca6 2e3d
00000090: d903 b43d 9618 1e3d 7c06 da3a c3c2 a1bd
000000a0: de02 8a3d 7717 edbc dbde f8bc 32e9 b8bc
000000b0: 30ad 10bc 6d53 8cbc 15db 67bc 75ae 683b
000000c0: 8159 703d 4824 2bbb cbaf 963d 03c2 a13d
000000d0: c3eb b63c 8b3c 273d 0aef 3abd 3716 93bd
000000e0: 333d 0b3c 3294 8a3d 44cb a13d 4141 e73c
000000f0: a9ca 043d c36d adbd 2350 363d 475c 47bb
00000100: b81e 9dbd 06f6 66bd ebda 25bd 37c9 16bd
00000110: b9dd 3f3d 5330 12bd bee3 58bd 5904 653d
00000120: f3b3 273d 2fdc 7a3d b386 78bd 9b8a a5bd
00000130: eb23 39bd f8e2 a43d a5b9 e93c d02d 933d
00000140: fc22 b23c ef7b cf3c 648d 2fb9 47c6 83bc
00000150: 772b adbc 6b23 2cbc 59a4 08bd 7614 adbd
00000160: 3f4b ac3d c49b 8fbd c396 953d 8161 7d3c
00000170: e205 86bd 32ab 16bd 6e9e 843d 3616 47bd
00000180: ebd7 5fbd fd5f 3abd 72ea 38bd 3042 73bd
00000190: ac75 a03d 7748 86bd f218 9f3d 703b b0bd
000001a0: 8c63 513d 637c 77bd 16e8 bebb 04c0 59bd
000001b0: 39f8 1bbc a1cd ce3c 7110 453d c495 b53d
000001c0: f966 3a3d ee8b 64bd 21cc 25bd 46dc bdbc
000001d0: 4aa9 5ebd 7d4f acbd f9e8 a9bd 8e9c 1b3c
000001e0: eda0 98bd 1887 603d a173 adbc 27ae 6d3c
000001f0: ae8a 423d 3953 6dbc 55b4 583d b766 4a3d
00000200: de67 a53d b80e 5dbd 8e34 9bbd 170f adbd
00000210: e328 1e3d a5c0 4a3c 5886 3cbd 7c61 8a3d
00000220: d6db 59bd 69f4 d53c 05fb a7bd 7919 a4bd
00000230: 4e6e 0bbd dfc4 01bd 3d64 c5bb 29cf 8d3d
00000240: f84f 92bc 09eb 193d b764 6bbd f2f4 503d
00000250: 5c2b 053d 996a 7cbd 5d44 8bbd e9c3 adbd
00000260: 244c 43bc 35c7 8b3b 8b5c 93bd dd74 7a3c
00000270: 8dc0 7dbd 2970 093d 12f2 483d 1bab 993d
00000280: 6455 6bbd eb2d 013d 9373 2bbc 208c 16bd
00000290: 2385 20bd db90 bdba c1f2 243d 1cc4 a7bb
000002a0: 0f9b aa3d e9f0 aa3d f4d2 b8bc b6ee 9f3b
000002b0: 1bc6 a1bd 60d1 33bd 32d7 123d 496e 0fbd
000002c0: ed84 e53c 4be4 afbd dae9 32bb 338f 863d
000002d0: c91b 0dbd 21ef 9e3c bb41 583c 6965 8cbc
000002e0: d9ce b8bb 2599 04bd 9021 a73d 68c7 903d
000002f0: c099 943c 7206 3dbc bf60 83bb 2f2a 613d
00000300: c772 14bd 856e 5abd 8055 493b 4b05 3f3d
00000310: 44ef 50bc 0cd1 273d 01f2 073d 7cad 2fbd
00000320: 3aef b2bd 1342 963c 0446 a0bd cd88 1cbd
00000330: 462a c4bc fbac 40bc 6788 39bc 674a 8f3d
00000340: 0e0e 8fbd 247d 8e3c b9aa 51bd 1e02 aabd
00000350: 634b 42bd 2346 7cbd 4b5a a33c 3595 ad3d
00000360: bb93 9abd f425 583d 4869 12bd 783b 6fbd
00000370: 3a8d f5bc 1a8c ae3d f346 b9bb d3fd 863d
00000380: 436c 6fbb b882 963d e8da 9e3d 0011 823d
00000390: 0f1e 98bd f18d 5a3d 5f22 173d 4e52 2dbd
000003a0: 3220 b4bd b0c0 ad3d 76f6 8cbd 0d9a 723d
000003b0: 407f a5bb e00f 7dbc 4362 cfbb 30fb 7d3d
000003c0: 2862 313d a79d 6bbd e57d febc 7499 013d
000003d0: f9d6 89bc d0ea abbc 033c 4a3d d8d8 26bd
000003e0: aece 933d dc90 b13d 7542 6c3d a4fa a53d
000003f0: a8bd 903d bd8d b23d 144d 423d 3de2 ecbc
0.036317285 0.079847686 0.019671205 -0.07832402 -0.058597766 -0.087103106 -0.03828032 -0.08413229
0.085111655 -0.041873068 -0.023925446 0.0068635466 0.0125780115 0.03245995 0.069499575 -0.04110686
0.023965903 -0.046276487 0.026869403 0.022763913 -0.063782044 0.040585212 -0.06315388 0.021210035
0.0010105523 0.06983541 0.06354368 0.025552971 -0.08360742 -0.04736222 -0.010468103 0.0062803123
-0.021399397 -0.036671404 0.03505805 0.04263948 0.087897964 0.038597666 0.0016634013 -0.07898476
0.06738828 -0.028941853 -0.030379703 -0.022572134 -0.008830354 -0.017129624 -0.014151354 0.0035504375
0.058679108 -0.0026114155 0.073577486 0.07898333 0.022329217 0.040829223 -0.04563812 -0.071819715
0.008498478 0.06766547 0.07900098 0.028229358 0.032419834 -0.08468201 0.044510018 -0.0030419992
-0.07671875 -0.05638697 -0.04049198 -0.036812987 0.04684231 -0.035690617 -0.052951567 0.05591235
0.040943097 0.06124514 -0.060675334 -0.080830775 -0.04520027 0.08051103 0.028530905 0.071864724
0.021745197 0.02532765 -0.00016741973 -0.016085757 -0.02113889 -0.010506491 -0.03335986 -0.08451168
0.084127896 -0.07012132 0.07304146 0.015465141 -0.06544091 -0.03678436 0.064755306 -0.048605166
-0.054649275 -0.045501698 -0.04514546 -0.059389293 0.07834944 -0.0655679 0.0776843 -0.08605087
0.051120326 -0.06042136 -0.0058260066 -0.053161636 -0.00951963 0.025244536 0.048111383 0.08866456
0.04550836 -0.05579751 -0.040477876 -0.023176324 -0.054360665 -0.08413599 -0.08296389 0.009497775
-0.07452569 0.054816335 -0.0211733 0.014506853 0.047495537 -0.014485174 0.052906353 0.049414363
0.08076452 -0.053969115 -0.075783834 -0.08450144 0.03861321 0.012375032 -0.046026558 0.06756875
-0.053188168 0.02611752 -0.08202175 -0.08012671 -0.03404074 -0.03168189 -0.006023912 0.06924278
-0.017860398 0.037577663 -0.057469096 0.051014848 0.032512054 -0.061625097 -0.06800149 -0.084846325
-0.011920009 0.0042656907 -0.071953855 0.015286651 -0.06195121 0.03355423 0.04905898 0.07503339
-0.05745448 0.03153793 -0.010464567 -0.036754727 -0.03918947 -0.0014462726 0.04027057 -0.0051198136
0.08330356 0.08346731 -0.022561528 0.0048807515 -0.07899114 -0.043900847 0.035849757 -0.035017285
0.028017486 -0.08588465 -0.002730003 0.06570282 -0.034450326 0.019401135 0.013199265 -0.0171382
-0.0056398925 -0.032372613 0.081606984 0.07069284 0.01813972 -0.011537181 -0.004009336 0.05497187
-0.036242273 -0.053328056 0.0030721128 0.046635907 -0.012752358 0.040970847 0.033189777 -0.042890057
-0.08737035 0.018342054 -0.078258544 -0.0382164 -0.023945939 -0.011759992 -0.011324025 0.06996613
-0.069851026 0.017393656 -0.051188204 -0.08301185 -0.047435176 -0.061590325 0.019940516 0.084757246
-0.075477086 0.05277057 -0.035744935 -0.058406323 -0.029974569 0.08522816 -0.0056542098 0.06591382
-0.0036533035 0.073491514 0.07756597 0.06350899 -0.07427608 0.053358022 0.036898013 -0.04231482
-0.08795203 0.08484018 -0.06882946 0.059228946 -0.00505057 -0.015445679 -0.0063288524 0.06200713
0.0433065 -0.057523396 -0.03106589 0.031640485 -0.01682614 -0.02098599 0.049373638 -0.040734142
0.072171554 0.08670208 0.057680566 0.081044465 0.07067424 0.08718441 0.04743679 -0.028916473

fc3.bias f4 [32]
00000000: 5500 43bc e267 b93b ccd0 803d 1e0a fdbb
00000010: 0414 233d eb18 293d 7d68 2d3d 029b 853d
00000020: c008 a8bd 96e3 9c3d cf14 e1bb f986 21bd
00000030: 7545 5dbd f87e 7e3d 5cd1 20bd 2c8f 2f3d
00000040: c2ac 8b3e 5c81 a5bc 1d48 ef3d 440c 173d
00000050: eb1d 2cbd 7aea 11bd de6e 283d cdc1 2ebd
00000060: 4808 5a3d c258 133c 8868 85bc 4b4d 16bc
00000070: a034 bdbc 6fdb 18bc e7c0 39bc cc46 223c
-0.011901935 0.0056581357 0.06289825 -0.0077221533 0.03981401 0.04128353 0.042335976 0.06523706
-0.08204794 0.07660596 -0.0068689357 -0.03943536 -0.054021318 0.062132806 -0.03926216 0.04286115
0.2728024 -0.020203285 0.116836764 0.03687693 -0.04202072 -0.035624005 0.041121356 -0.04266529
0.053230554 0.0089933295 -0.016285196 -0.0091737015 -0.023096383 -0.009329661 -0.011337495 0.009904575

fc4.weight f4 [2, 32]
00000000: 02af ae3d 2f4b 0e3e ecec 1e3d 2ebe 273d
00000010: 3c90 d1be b3ed 1cbd 5642 a83d 3b8a fabd
00000020: 31a2 183d a740 ae3a 861f 40be e5ca de3b
00000030: 94db 7d3d 3f07 cfbe 1f48 c0bd 789f 6a3e
00000040: f840 0f3f 250b c0bc e002 6a3e caa2 5abe
00000050: 0906 9cbd 7bc3 be3d 8469 e2be faf3 a2be
00000060: 205c 933e d4a8 3d3e e8b4 05bf 4289 da3d
00000070: 17e6 e7bd 3a41 b53d b80d d23d e4e2 123e
00000080: ec3b be3c 08a0 eb3d 4bf7 81be 9b8b 06be
00000090: 5887 ac3e 23a0 103e 6eef 9a3d a0ce ef3d
000000a0: 567c 33bc 5c4a 4dbe a18e 843e bc02 43bc
000000b0: 5665 2abe 7096 dd3e 43ff 51bc b54f 52be
000000c0: 4665 06bf 67d2 b63d 5df2 49be 8aa4 a73c
000000d0: 620b 98bd cd04 5f3d 1332 843e 5c85 a43e
000000e0: a6a3 a3be b0a7 f53d e08c b13e d0ac a63d
000000f0: 3351 4c3d 1252 803d 5f93 403e e579 8cbc
0.08529474 0.13895868 0.038800165 0.040952854 -0.40930355 -0.038312625 0.082157776 -0.122333966
0.037264053 0.0013294414 -0.18762025 0.0067990893 0.061976984 -0.40435216 -0.09388756 0.22912395
0.5595851 -0.023442814 0.22852659 -0.21351162 -0.076183386 0.09314629 -0.44221127 -0.31826764
0.28781223 0.18521434 -0.52229166 0.10670711 -0.11323183 0.088503316 0.10256523 0.14344364
0.023221932 0.11505133 -0.25383982 -0.13139193 0.3369701 0.14123587 0.07565199 0.117093325
-0.010954937 -0.20047897 0.25890067 -0.011902507 -0.16640219 0.43278837 -0.012817207 -0.20538218
-0.5249828 0.0892685 -0.1972136 0.0204642 -0.07424046 0.054447938 0.25819454 0.32132995
-0.3196079 0.119948745 0.34677792 0.0813843 0.049882125 0.06265654 0.18806218 -0.017147968

fc4.bias f4 [2]
00000000: fe9a 573e fad8 9ebe
0.21055219 -0.31024915
