ligand_model/DNN_FC0001_ModelH2-PubChemFP-top256_batchsize-16_optim-sgd_lr-0.0025/train2.model (torch, 413839 bytes, 8 tensors)

fc1.weight f4 [256, 256]
00000000: e56f ec3c 083f 16bd 304e 61bd 1c96 59bd
00000010: 7f7c 823d 6649 3d3d 38cf 373c c1d9 bebb
00000020: 8e43 d9bc bcce 563c 9911 f2bb ecd1 703d
00000030: ea7c 01bd ea25 6c3d 7006 f1bc db61 80bd
00000040: 0510 2abc 21fb 533d 275c 23bd 226c 4a3c
00000050: 545b 74bd bbd4 26bd 00a5 d8bc a966 1ebd
00000060: a694 7bbc 7b5a 62bd 69d2 07bd b689 33bd
00000070: ccd5 15bd b408 243d 10df 653d 52f1 bebc
00000080: 606b 72bc 8929 373d d36e acbc cdff acbb
00000090: ef37 7ebd 4bb5 0e3d 8596 803c bdad 613c
000000a0: 63d0 8bbc 5dd0 5b3d 6df4 623d 01c6 65bd
000000b0: ca68 69bd 4dd6 8c3c c3f0 53bd fbe3 50bb
000000c0: 84f1 153d d6e5 49bd eed4 10bb 246b b7bc
000000d0: 90bd 20bd 8b6a fb3c f4d8 383d 9c7f 4e3d
000000e0: 181c 41bd ba5d 0dbd 20fb b73c f77a 0dbd
000000f0: cfee 6b3d 0bff 12bd 938e 163b 223a e73c
00000100: c5e2 90bc deb0 5bbd d7bd 2b3b e95c fe3c
00000110: cd91 00bd 4d64 25bd 0538 3e3d 1981 d43a
00000120: 588c 66bd ee62 723d ba82 17bc 5d41 47bd
00000130: a67a 963c 64ab a6bc 145a b0bc 6845 6b3b
00000140: 12b2 313d 49a5 fabc 5f24 cb3c 4191 773d
00000150: c51a 51bc 4979 9f3a e5cc 7bbc 08ee f5bc
00000160: c8ea a03c 9aeb 1c3d b778 21bc e3f0 6bbb
00000170: 44a1 40bb 6688 fabc f8c0 06bc 50b8 86bd
00000180: b218 aa3c f4fd 7cbd d440 3a3d 426d 19bd
00000190: 3faa 35bd 726b 893b 3d7c a73c a6de 86bc
000001a0: 5717 60bd e8c6 10bd 63cc f73b 5344 e33b
000001b0: d7e0 523c 0b9c cd3b 62ea 853c 7c02 f63a
000001c0: 042d 5dbc fb7a 64bd 633d b43b 7918 5bbd
000001d0: 76cd 3abc 8572 5dbd 110f 24bc 83fc 69bc
000001e0: 0aae 783d 4a8c 053d a23f ac3c 326f 413d
000001f0: 8327 3fbd 0f7c bd3b 6bfb bfbc e1f1 6b3d
00000200: 25ec 6fbd 6f5c 61bd 633d 473d 5f6e 19bd
00000210: 2b8a 393d 9930 6bbd 2d76 4b3d b318 c53c
00000220: c494 73bd 580f 5fbd ef7f b63b 118e 563c
00000230: 89c1 1e3c 7eb3 3d3d 8be0 543c eeff 553d
00000240: 6bb5 12bd cac3 40bd 732d 47bd b38b 0f3d
00000250: c6b1 c03c bf44 2eba 7946 18bd dc01 bbbc
00000260: f49f adbc d919 543b f4a7 673d 21fd cd3c
00000270: 8676 663b 31aa 0b3d e13d f5bb 2eeb dcbc
00000280: 56ec b33c 4f66 04bd 863c 743c 648f cdbc
00000290: 6745 6b3d 6afd 6bbd 2d25 14bd deae b03c
000002a0: 901c 653d 690f 78bc 1998 643b b269 0b3d
000002b0: 6cde c3bb ee05 d3bc aa5d 1c3d e0b7 303c
000002c0: 45f5 09bd c1a0 1a3d 97ee 553d 88ba a73b
000002d0: 55bf 46bd 9ded 04bc 38a7 573c b9d6 103d
000002e0: a8bb abbc dcc3 67bc d9db 573c 709b 6a3d
000002f0: aaa4 ed3c 43f4 67bd bcdc 0f3d 6031 09bd
00000300: 228f 1dbd 9dc8 f13b 4ffe 05bd 78a5 3dbd
00000310: e895 173d a63c 143d 6928 b9bc bfe3 4e3b
00000320: aa60 453d 9f39 b7ba 8c78 843a 9a07 63bc
00000330: e250 053d 2bd4 d53a 630d f8bb c837 aabc
00000340: 9eca 0d3d 60dd 053d e778 5fbd f28a 19bc
00000350: 0d54 34bd d7a9 6abc c5a6 1b3d 510b 423b
00000360: 53ae 03bd fec5 0f3d 5bc9 babc 9337 dabc
00000370: 51a1 603c 00a6 6b3d e3cf 48bd 6a8d 483b
00000380: 2f36 c0bc 9640 58bc 36f1 91bc 2845 093d
00000390: 4d87 ebbb 6ff8 16bd 01cf 223d 44ad 42bd
000003a0: 23f4 3a3d 9e80 1dbd c57c 01bd 61dc e83c
000003b0: 27de 26bd f682 4d3d a872 1b3d 8965 f4bc
000003c0: 5dad 01bd 6c75 223d 7cd4 a33c cc08 35bc
000003d0: d96d 003d 5f0c 7dbd 773e 30bc 6dfc 44bd
000003e0: b1a6 30bd 45db 33bd 5e2c 3839 bd39 473d
000003f0: 70a0 58bd c3ad 533c 5ea4 ffbc 4df2 1bbd
0.02886195 -0.036681205 -0.055006206 -0.05312167 0.06371402 0.046212576 0.011218838 -0.005824298
-0.02652147 0.013110813 -0.0073873517 0.058793947 -0.031613268 0.057653345 -0.029422015 -0.062686644
-0.010379796 0.051753167 -0.039882805 0.012354882 -0.05965741 -0.04073022 -0.026445866 -0.038672123
-0.015355265 -0.05526207 -0.033159647 -0.043832503 -0.036580846 0.040047362 0.056120932 -0.02330843
-0.014796108 0.044717345 -0.021048939 -0.0052795173 -0.06206506 0.034840863 0.015696773 0.013774333
-0.01706714 0.053665508 0.055408884 -0.056097034 -0.0569847 0.01719203 -0.05174328 -0.0031874168
0.03660728 -0.049291454 -0.0022099572 -0.022389956 -0.03924328 0.030690452 0.045128778 0.050414667
-0.047145933 -0.034513213 0.022458613 -0.034541097 0.057600792 -0.03588776 0.0022973164 0.028225962
-0.017686257 -0.05363547 0.0026205683 0.031050162 -0.031389046 -0.040378857 0.046440143 0.001621279
-0.056286186 0.059176378 -0.009247476 -0.04864632 0.01836903 -0.020345397 -0.021527328 0.0035899524
0.04338271 -0.030596392 0.024797617 0.06044126 -0.01276273 0.0012166883 -0.015368675 -0.030020729
0.019643202 0.038310625 -0.009855441 -0.0036001734 -0.0029392997 -0.030582618 -0.008224718 -0.065781236
0.020763729 -0.061765626 0.04547198 -0.037457712 -0.044351812 0.0041937167 0.020444984 -0.016463589
-0.05470976 -0.03534594 0.0075622066 0.006935635 0.012870989 0.0062747053 0.016347114 0.0018769051
-0.013499502 -0.055781346 0.005500482 -0.053490136 -0.011401525 -0.054064292 -0.010013358 -0.014281395
0.06071285 0.032604493 0.021026436 0.047225185 -0.04666854 0.005782611 -0.023435315 0.05760372
-0.058574814 -0.055019792 0.048642527 -0.037458774 0.045297783 -0.057419393 0.049673248 0.024059629
-0.059468046 -0.054457992 0.00556945 0.013095395 0.009689697 0.046313755 0.012992988 0.052246027
-0.035817545 -0.04706172 -0.048627328 0.035045337 0.023522269 -0.0006647817 -0.037176583 -0.022828035
-0.021194436 0.003236404 0.056556657 0.025145115 0.003516586 0.034097854 -0.007484183 -0.026967611
0.02196328 -0.03232413 0.014907008 -0.025092788 0.057439234 -0.05761472 -0.036168266 0.021567758
0.055935442 -0.015140393 0.0034880696 0.034036346 -0.0059774425 -0.025759663 0.038175263 0.010786027
-0.033681173 0.037750963 0.05222949 0.005118672 -0.048522312 -0.008113292 0.013162427 0.035361025
-0.020963505 -0.014145818 0.013174974 0.057277143 0.029009182 -0.05662943 0.035122618 -0.033494353
-0.03846658 0.0073786513 -0.03271323 -0.04630038 0.037008196 0.03619065 -0.022602277 0.0031568853
0.04818789 -0.0013978964 0.0010106727 -0.013856793 0.03254784 0.0016313841 -0.007569955 -0.020778552
0.03461706 0.032681823 -0.05455866 -0.009371506 -0.04402547 -0.01432272 0.03800084 0.0029608796
-0.03214867 0.03510093 -0.022801092 -0.026637828 0.013710336 0.057531357 -0.04902638 0.0030601867
-0.023463337 -0.013198992 -0.017815214 0.03351322 -0.00718776 -0.03685802 0.039748196 -0.04752852
0.045642983 -0.038452737 -0.03161313 0.028425397 -0.040739205 0.050173722 0.03795114 -0.029833572
-0.031659473 0.039662763 0.019998781 -0.011049461 0.03135476 -0.061779376 -0.01075708 -0.048092294
-0.04312772 -0.043910284 0.00017564135 0.048639048 -0.05288738 0.012919846 -0.031206306 -0.038072873

fc1.bias f4 [256]
00000000: e699 abbc 3dce 643d 3da0 88bc f000 5cbc
00000010: 69b0 54bd dcf8 183d 0730 163d 1187 063d
00000020: c434 123d 0fa4 eebb 5d28 243d 67b8 40bd
00000030: 4a64 f53c 5e33 b13c 4509 a7bd 0513 2cbd
00000040: ab6e 38bd d9e6 3a3c 18c9 4bbc c1ff f73c
00000050: 0a89 1bbc 8108 2a3d 82a4 cfbc 6d7e 4cbd
00000060: 5a5d 55bd f7fe a73c 96fb e9bc b805 573c
00000070: 0cdc 083c f433 38bc 2231 1abd a253 2b3b
00000080: c356 d4bc 8ba3 debc d768 43bd e9b8 c9bb
00000090: 72d8 bcbc ca43 133d 554f 44bd 9f51 c63c
000000a0: a4c9 353d 4ecb 28bd b32a a6bc 4683 033d
000000b0: cbb7 813d acf7 963a 2e4e 6cbc ddf0 1d3d
000000c0: 72db a4bc fb18 e33a bff8 f6bc 2165 803d
000000d0: 567c 06bc ada6 d23b 35cb 75bd c86f 423d
000000e0: 9ca9 52bd 082b b6bc 9853 453d c00d 2abc
000000f0: a5c0 6ab8 eade 093d 5179 acba 4b08 20bd
00000100: 67d7 003d 55f4 cabc 4d48 863c c883 13bd
00000110: 158c 63bd 9e9d c3bb c79a fabb 04a2 5dbd
00000120: b2fe 333c c337 4abc 54e1 13bd 778d abb9
00000130: 5db7 f03b 4739 4bbd c511 2f3d 3642 393d
00000140: e6c1 35bd 5037 2d3d d95d 17bd 61c0 9cbc
00000150: 455f 16bd e15b 613d 1664 9bbc 9577 41bd
00000160: 78bd 6c3d dcee 293c 28c1 0f3d a474 5bbb
00000170: 6cc3 84bb 54d3 163d d768 e33b 77ee 353d
00000180: db36 c53c 37b9 38bd c6fd 543c 2336 413d
00000190: 257a 313d 9c3e b93c 3aee 563d 2225 843c
000001a0: af7f 703c 0bcc c13c f3a8 6e3c ebdf bdbc
000001b0: 0420 debc 5e80 223d 0e0d 623d 2547 a5bc
000001c0: 20f0 eb3c a6a3 263d 203e a93b 7d03 263c
000001d0: 8878 9cbc 39f5 1f3d c6d1 b7bc 4f8e 62bd
000001e0: 6f3c cb3c 5973 1abd 0827 033d 48c7 1ebd
000001f0: 6d0d 2e3d 8d48 563d 88cd 063d 3f6a c0bc
00000200: d89b 6f3d 7345 c6bc 504a 89bd 4521 f23b
00000210: ccee 1ebb 7eb1 81bd 5763 5c3d 9c8e 1b3c
00000220: eae7 48bd f3fe 843c 3514 6a3d 5a9b 2b3b
00000230: fdab a8bc b73f efbc 5677 14bc 3b0f 57bd
00000240: bbb7 47bd 2503 613d c2fd 843c cc56 5f3b
00000250: 5665 653d 1539 fb3c 3d64 6fbd 7070 f6bc
00000260: abf1 21bd ea14 91bd ab19 95bb 3da5 13bd
00000270: 27f7 73bc 10b5 383d a271 f8bc 43b0 1f3b
00000280: 1442 a43c 5126 ac3c 0162 edbc 5fc5 e53c
00000290: 9627 14bd 3418 dd3c d57c 5b3d 26d9 f7bc
000002a0: d2c9 e83c a7d7 453c 384a 433d f49c a03c
000002b0: a429 e93c 47ef 14bb e7a1 d43c 7add 05bd
000002c0: b0a2 833c 4a23 d1bb c71f 9e3a 64be f33c
000002d0: b3dd 863c 2d12 65bd 3f73 d53c 7381 273d
000002e0: 0006 60bd 42c5 7fbd 4e56 d73c da75 6e3c
000002f0: 2c7d 33bb f0e5 893c 1342 283d d241 043d
00000300: c464 d63c a572 703c eaec 733d a994 a13c
00000310: ebb7 613d 2925 dcbc 961b f43b bd45 3dbd
00000320: baac e33c a804 10bd 53e1 bebc e2ff 383d
00000330: 0186 9abb 57c4 a7bc 0408 9cbd 48ab 4fbc
00000340: 8aaf 543d bc1d 863c daa9 a73c 73d1 ecbc
00000350: ed17 9d3b efa2 13bd e902 dabc 1e4e fc3c
00000360: eddd 92bc 8135 63bc 8728 5dbc e98b 7e3c
00000370: 0fdc 57bd bb41 103c eeb2 b3bc b81e a93c
00000380: 50d1 dcba 2a66 18bd 47fc 083d cfc2 333d
00000390: 6466 713b 2a93 683c 2f21 173d 7ae6 42bb
000003a0: 64ab b93c b1f7 a3bc 3bc0 f2bc 35d1 2ebd
000003b0: 819d 36bd f323 7b3c 5cf8 fd3c 96be 58bd
000003c0: b7b9 a93c ae14 8abc 2fd0 6ebd 6fb5 ce3c
000003d0: 97c0 8cbb 6a45 6bbd 9678 733d 33a1 be3b
000003e0: 7eb2 593d 7bf0 40bd 5d60 30bd e8b3 73bd
000003f0: e059 07bc 4ba5 193d 9919 7b3b 70e3 b2bc
-0.020947408 0.055860747 -0.01667797 -0.013427958 -0.05192605 0.037346706 0.036666896 0.032843653
0.035694852 -0.007282741 0.040077556 -0.04705086 0.029955048 0.02163094 -0.08156065 -0.042010326
-0.045027416 0.011407577 -0.012438081 0.03027332 -0.009493122 0.041512016 -0.025346998 -0.049925257
-0.05209098 0.020507319 -0.028562348 0.013123922 0.0083532445 -0.011242855 -0.037644513 0.0026142378
-0.025920277 -0.027177593 -0.047707405 -0.006156076 -0.023052428 0.03595332 -0.04792722 0.024208842
0.044381753 -0.04120951 -0.020284032 0.032107614 0.06333884 0.0011517904 -0.014422936 0.038559783
-0.02012417 0.001732617 -0.030147908 0.06269289 -0.008208355 0.0064285607 -0.060008246 0.047469884
-0.051431283 -0.022237316 0.048175424 -0.010379255 -5.596936e-05 0.033659853 -0.0013158714 -0.03907041
0.031455424 -0.02477471 0.016391898 -0.03601435 -0.055553515 -0.005969717 -0.0076478454 -0.05410959
0.010986017 -0.012342396 -0.03610356 -0.0003272106 0.0073460774 -0.04961517 0.042741556 0.04522916
-0.04437437 0.04228908 -0.036954734 -0.019134702 -0.03671195 0.055019263 -0.018968623 -0.047233183
0.05779788 0.01037189 0.035096318 -0.0033486271 -0.0040516164 0.036822632 0.006939988 0.04441687
0.024074009 -0.04509851 0.012999957 0.04717077 0.043329377 0.022612862 0.052473284 0.016130988
0.01467888 0.023656866 0.014566648 -0.023178061 -0.027114876 0.0396732 0.05518823 -0.020175526
0.028801024 0.04068341 0.0051648766 0.010132668 -0.019100443 0.039052222 -0.022438895 -0.055311497
0.02480909 -0.03770766 0.032019645 -0.03876427 0.042493273 0.052315284 0.032910854 -0.023488162
0.058498234 -0.024203038 -0.06703627 0.00738922 -0.002425122 -0.06332682 0.053805675 0.00949445
-0.049049295 0.01623485 0.057148177 0.0026185126 -0.020589823 -0.029205186 -0.009061655 -0.05250476
-0.048759203 0.05493464 0.016234282 0.0034078835 0.056004845 0.030666867 -0.058445204 -0.030082911
-0.039537113 -0.07084067 -0.004550179 -0.036046255 -0.014890469 0.04509455 -0.030327622 0.0024366535
0.02005104 0.021014364 -0.028977396 0.028048215 -0.036170565 0.02698908 0.053585846 -0.030254912
0.028416548 0.012075341 0.047678202 0.019606091 0.028462239 -0.0022725628 0.025956107 -0.03268192
0.016068786 -0.0063823806 0.0012063914 0.029753871 0.016463136 -0.055925537 0.02605593 0.040894937
-0.054693222 -0.06244398 0.02628627 0.014554465 -0.002738784 0.016833276 0.04107864 0.032289334
0.026171096 0.014675771 0.05955211 0.019724207 0.05510704 -0.026873188 0.0074495776 -0.046209086
0.027792323 -0.03516069 -0.023300802 0.045165904 -0.0047156815 -0.020479364 -0.07618716 -0.012675114
0.05192522 0.0163716 0.020466734 -0.028908467 0.004794112 -0.036044057 -0.026612716 0.030798968
-0.017928088 -0.013867737 -0.013498432 0.015536287 -0.0527001 0.008804734 -0.021935906 0.02064453
-0.0016847048 -0.037206806 0.033443715 0.043886956 0.0036834711 0.014195243 0.03689688 -0.0029739426
0.022664733 -0.02001557 -0.029632678 -0.042679984 -0.0445838 0.015328395 0.031002216 -0.052916132
0.020718439 -0.016855564 -0.058304008 0.025232999 -0.0042954194 -0.057439245 0.05944117 0.0058175563
0.05314874 -0.04710434 -0.04306065 -0.059497744 -0.008261174 0.03751115 0.0038314818 -0.021836966

fc2.weight f4 [128, 256]
00000000: 2a77 723d b7d4 1b3c 2540 3fbd dcc6 2dbd
00000010: 6344 11bc e314 2fbb ff26 46bd fc8e 16bd
00000020: 213a 973a ea84 423c a805 4d3d 46fa eb3b
00000030: 6c20 f53c b990 383d 0fae a7bb af17 283d
00000040: 5248 46bd 5711 50bd 6807 fcbc a37a 393d
00000050: ea1e e6bc c8b1 5d3b bc13 8cbc 2336 0cbd
00000060: 5264 2abd 7b2c 533b cc2e 723d aebb 6fbd
00000070: 0746 133a 8c1e 14bb cdf1 4a3d d729 aebb
00000080: d6d2 5dbd eab9 00bd 8afd 31bd b6e1 debc
00000090: 3560 5ebd 8501 6f3d ed96 143c 969b 083d
000000a0: a543 a33c 27fe b43c f30a 80ba d99c 4f3d
000000b0: 19b9 a0bc e1ab 15bc 0f1b 823c 6002 13bd
000000c0: c672 8f3c c0da 7dbd b321 ebbc 0c00 e93c
000000d0: 1e61 323d 4d6a 9cbc 0ed8 5ebd d54b 263d
000000e0: 5a2e fc3c 3aad c4bc 6291 c03b cf4e a0bc
000000f0: 872d 043d 6992 743d 5bb9 0d3d 447e 423d
00000100: 6e8f acbc 9dcb 35bd 5c2f 02bd 1d64 61bd
00000110: 300f 67bd 6d4e 8b3c a85a ffbc 3855 573d
00000120: 4e4b 7bbd 8db9 41bd b9f9 6a3d 3026 b3bc
00000130: f71a 7b3d 8ecd 4abd 0e30 143d c416 fabb
00000140: 374c 7e3d b7bd aa3c 77a0 ee3c b122 123c
00000150: bcdd 543d 61b5 753d 24b3 7a3d 9b30 edbc
00000160: c223 793c 12f8 2bbc 3131 02bb deac 74bd
00000170: 9f8f f33b ae51 35bd 2899 33bd 0d93 92bc
00000180: f5ce d1bc f4d1 cbbc 256d 503c d686 70bd
00000190: ce4b 50bd e9c8 2e3c a366 133d 084b 22bd
000001a0: 5afc 933c 8d09 953c 986f 2f3d 5664 13bc
000001b0: 6a7a 7f3d 2bd3 5abd 601e afbb ae4e 64bc
000001c0: 1684 863c 8cd6 bc3b e00d 2fbd babd 4cbd
000001d0: 4184 583c 6bce b03c 9f6a 01bc 53e2 cf3c
000001e0: 5f76 71bd 3a7d f2bc 193b 3f3d 77d3 2abd
000001f0: 9a95 063d c7b9 e2bb 6979 253c a01e 183d
00000200: b3e8 15bd 23a0 cf39 7653 c1bc 52a4 35bd
00000210: 915a 67bd 38dc 98bc 7ee7 1f3d 58d2 31bd
00000220: 3ee2 0c3c 4b58 57bd 9050 6b3c e370 1a3d
00000230: d6cf 23bd d686 623c 0086 1d3d 4777 acbc
00000240: 55a0 18bc 246a 7cbd 6a9f 45bd b00c 44bd
00000250: a622 353d 64b9 b83c 2ca2 4f3d 4f42 8cbc
00000260: a8cf 57bd dadc 05bd 1839 3f3d e3fb 773b
00000270: 9728 133d 0a92 b3bc f5f4 67bd 873f 043d
00000280: 8737 5ebd 9cb7 9eba 9df1 3f3d e319 85bb
00000290: 0c7f ff3c dc87 423d 5889 5cbd 89ba 4ebd
000002a0: 0f9b 9d3c 8178 533d 9827 4a3d 4c72 1ebd
000002b0: 1b2f da3c bb47 d93b 63ad 3e3b a61d f53b
000002c0: 941d e6bc e9ee 553d 76d3 a6bc aee5 59bd
000002d0: 4df3 0c3d 6d99 0e3d a19e 7cbd 94ba 28bd
000002e0: 06e6 09bd 2eb3 343d 81a7 09bd e03e 6b3d
000002f0: ed5d 5f3d b903 683d 58a9 213d bf35 f03c
00000300: 1722 a13a da25 8abc 5413 5bbd 05f4 f03c
00000310: 0bd6 0f39 acb7 93bc e15f 303d c2bf 63bd
00000320: 5bcb 763c 3f34 52bd 2956 6fbd 920f f33b
00000330: e707 0d3d 3b92 5fbd 61e1 3e3d 02a2 1dbd
00000340: 4814 c4bc 8dbf 21bc 2388 8bbc bfa8 7fbd
00000350: 9480 c83b a5d5 64bc 0247 943c adf8 7abd
00000360: 5852 adbc 8aa4 5dbc 6025 82bb b982 80bc
00000370: d2de 6abd 8b4f 03bc d159 ab3c af03 903c
00000380: a493 483d 3ee7 3f3d dd09 213c b2f8 55bc
00000390: 52bd 883c c5de 29bd e873 59bd 870d e63a
000003a0: 724f 3d3c c19e 48bd a0fb 45bd 647f 5bbd
000003b0: 986a 94bc 15b4 543c a4f4 debc fe4c 593d
000003c0: 38c2 063d 9242 29bc 12d8 89bc a490 533d
000003d0: 66e1 34bd c235 a13a 9bcf d93c de9e 11bd
000003e0: 9c07 22bd cc5e 9a3b a20d 1ebd 4c64 403c
000003f0: 278d c13c 2d86 64bc 6543 813b 72b2 023d
0.059195675 0.009511164 -0.046692032 -0.042425975 -0.008866402 -0.002671533 -0.048377033 -0.036757454
0.001153771 0.0118725095 0.050054222 0.007201466 0.029922687 0.045059893 -0.005117185 0.04103821
-0.048408814 -0.050797787 -0.03076525 0.04528297 -0.028090913 0.003382789 -0.017099254 -0.034231316
-0.04159958 0.0032222557 0.05912666 -0.058528595 0.000561804 -0.0022601215 0.049547005 -0.0053150463
-0.054156147 -0.0314273 -0.043454684 -0.027207237 -0.05429097 0.05835106 0.009069187 0.033351503
0.019929716 0.022093846 -0.0009768888 0.05068669 -0.019619511 -0.009135217 0.015882043 -0.035890937
0.017510783 -0.061976194 -0.028702592 0.028442405 0.04354965 -0.019093657 -0.054405265 0.040599663
0.03078382 -0.024008382 0.005876706 -0.019568829 0.03226998 0.05970994 0.034600597 0.047483698
-0.021064486 -0.044383634 -0.031783447 -0.055027116 -0.05641097 0.01700517 -0.031171158 0.052571505
-0.061351113 -0.047296096 0.05736706 -0.021868795 0.061305013 -0.04951244 0.03617864 -0.0076321084
0.062084403 0.020842416 0.02912925 0.008919404 0.051969275 0.05998743 0.061205998 -0.028953841
0.015206279 -0.010496156 -0.0019865746 -0.05973517 0.0074328925 -0.04426735 -0.043847233 -0.017892385
-0.02561138 -0.024880387 0.012721335 -0.05872234 -0.050853543 0.010668018 0.035986554 -0.039622337
0.018064667 0.01819303 0.042831033 -0.00899609 0.062372603 -0.05342404 -0.005344197 -0.013934774
0.016420405 0.0057628807 -0.04273784 -0.049985625 0.013215126 0.021582803 -0.007898956 0.025376474
-0.058950778 -0.029600728 0.04668722 -0.041705575 0.032857515 -0.006919119 0.010099747 0.03713858
-0.036598872 0.00039601428 -0.023599368 -0.04434616 -0.056482855 -0.018659696 0.039039128 -0.04341349
0.008598862 -0.052574437 0.014362469 0.037705313 -0.03999313 0.013826093 0.03845787 -0.02105297
-0.00931557 -0.06162466 -0.048247732 -0.047863662 0.044222496 0.022549339 0.05069177 -0.017121462
-0.05268827 -0.032681324 0.04668531 0.0037839345 0.03592738 -0.021920223 -0.056630094 0.032287147
-0.054252174 -0.0012109163 0.04686128 -0.004061924 0.03118851 0.047492847 -0.05384192 -0.050470863
0.019238977 0.051628593 0.049354166 -0.03868322 0.02663379 0.0066308654 0.0029095046 0.007480341
-0.028090276 0.052229796 -0.020364504 -0.053197555 0.034411717 0.034814287 -0.061674718 -0.04119356
-0.033666633 0.04411619 -0.03360701 0.05743301 0.054532934 0.056644175 0.03946814 0.029322503
0.0012293485 -0.016863752 -0.05348523 0.029413233 0.0001371728 -0.018031918 0.043060187 -0.055602796
0.015063132 -0.051319357 -0.058431778 0.0074176276 0.034431364 -0.054582816 0.046601657 -0.03848458
-0.023935452 -0.009872329 -0.017032688 -0.06241679 0.0061188433 -0.013966952 0.018100265 -0.061272312
-0.021157429 -0.013527999 -0.0039717406 -0.015687333 -0.057341404 -0.00801457 0.020916851 0.017579881
0.048968926 0.04685139 0.009829012 -0.013059782 0.016691837 -0.041472215 -0.053089052 0.0017551639
0.011554586 -0.048979525 -0.04833567 -0.053588286 -0.018117234 0.012982388 -0.027216263 0.05305194
0.032900065 -0.010330813 -0.016826663 0.051651612 -0.04416027 0.0012299346 0.026588252 -0.0355519
-0.039558038 0.0047110077 -0.03858722 0.011742663 0.023626877 -0.013948006 0.0039448016 0.03190846

fc2.bias f4 [128]
00000000: c8af 143d 9d35 383d 6f06 16ba 8ade 143d
00000010: f67e 0fbd 84f7 353c b02a 123d d9e7 c13c
00000020: 8944 2f3d e05f 0fbd 21f1 653d 8910 5bbb
00000030: e7d3 9b3c cf0b a13c 45cf 07bd 042f 80bc
00000040: 5e6b 5cbb a60c 623d e1da e63c 035f 053d
00000050: 4865 7b3c 9723 863d 8a3d 45bc 50a0 bf3b
00000060: dbe6 3f3d d778 71bc cae4 9c3c 5308 8fba
00000070: eb1a a53d bb22 56bd 5c31 6c3d 6e86 70bd
00000080: 3143 043d a34e 36b9 23b4 a6bb c948 cdbc
00000090: 65dd 483d f1e1 753d 8a82 17bc ea73 743c
000000a0: c3f3 15bc 9a24 ecbc b57b 57bd 6578 ccbb
000000b0: 5f94 263c fc87 173d 84b9 ab3b e6f0 773c
000000c0: d874 4abd 3ace 9e3c 77ac 47bc 95d4 5ebd
000000d0: 6cd7 b63c 0564 483d de54 853c f13d 0fbd
000000e0: 8079 14bd 681c 1abd 26f1 7439 9478 debc
000000f0: 837c ccbc 6c15 a73b 3e19 70bd 3463 50bd
00000100: 2a4e b93c 889e 17bd 89bf 9ebb 193a 5f3d
00000110: b016 4d3d c9c7 833d 501d 02bd 6739 1e3c
00000120: f5e0 fa3b 2482 663d 4770 15bd 39b5 093d
00000130: 6a91 01bd 9e23 0cbd 75a7 ecbc 11ec 043d
00000140: 5a19 793d 0813 9c3c ef1d afbc 77b0 f9bc
00000150: 1395 443d 91ad f1ba 7595 6c3d 4f3d 093d
00000160: 1dd1 a23c 2146 47bd 11ce be3b 4ec9 5e3d
00000170: f2aa 80bd 99a4 4a3d f641 0b3c 5990 3d3d
00000180: 3249 0b3c 00bc 543c ddea 2f3b 97d0 6e3d
00000190: 7093 a8bc 16d2 133d 50cb d13c 74d5 6abc
000001a0: 29eb 363d c6e9 c03c a729 b73b 8e5c 803d
000001b0: 8ab0 63bd 6889 b4bb 0369 56bc 1fdd 42bd
000001c0: 183c 62bc 70a2 dabb d5d4 dc3b aa68 4b3d
000001d0: 0357 823b c432 673c d7ef ae3c 4739 f53c
000001e0: c0a9 9cbc 606e aebc 39c6 983c 9877 49bd
000001f0: 11ad 4abd 1491 6fbd be36 4dbd c290 ab3d
0.03630045 0.044973005 -0.00057230046 0.036345042 -0.03503319 0.011106376 0.03568524 0.023670124
0.04278997 -0.035003543 0.05613816 -0.0033426604 0.019021941 0.019658951 -0.033156652 -0.015647419
-0.0033633332 0.055187844 0.028180541 0.032561313 0.015343972 0.06549757 -0.012038598 0.005847968
0.04685102 -0.014738283 0.019152064 -0.0010912515 0.08061775 -0.052279215 0.05766426 -0.058721952
0.03229064 -0.00017386167 -0.005087392 -0.02505912 0.049039263 0.060029928 -0.0092474315 0.014920214
-0.009152356 -0.028826047 -0.05260821 -0.006239938 0.01016721 0.03699492 0.005240621 0.015133118
-0.049427837 0.019385446 -0.012187115 -0.054401953 0.022319518 0.04892351 0.01627582 -0.03497118
-0.036248684 -0.037624747 0.00023359488 -0.027157106 -0.024961716 0.0050989892 -0.058617823 -0.050875857
0.02262028 -0.03701642 -0.00484461 0.054498766 0.050070465 0.0643459 -0.031766236 0.0096572405
0.0076562115 0.056276456 -0.03648403 0.033620093 -0.03163282 -0.034213655 -0.028888443 0.032451693
0.060815193 0.019052044 -0.021376578 -0.030479653 0.04799373 -0.0018438568 0.05775972 0.033505734
0.019875104 -0.048650865 0.005822905 0.054391198 -0.06282605 0.04947338 0.008499613 0.04628024
0.008501338 0.012984276 0.002684287 0.058304396 -0.020578116 0.036089025 0.025609642 -0.014333118
0.04465786 0.023548972 0.005589682 0.062676534 -0.055588283 -0.005509544 -0.01308656 -0.04757416
-0.013808273 -0.006672196 0.0067392387 0.049660362 0.0039776578 0.014111225 0.021354599 0.029934539
-0.019123912 -0.021292865 0.018649207 -0.04918632 -0.049481455 -0.058487967 -0.050101034 0.0837722

fc3.weight f4 [32, 128]
00000000: 6d63 99bb 6acb 6fbc 1ba6 b93d aa11 b4bd
00000010: a20e 60bd ab5b acbd 6ae0 8b3d 8562 45bd
00000020: d45a a2bd 721a 803d c1d4 99bd a8fd ce3c
00000030: 4880 ab3d 9581 99bd 5c8e 53bd ed39 31bd
00000040: d804 78bd 803b 89bd ef64 65bd a8a0 9cbb
00000050: 2d64 87bc 5e7f db3b dc27 95bb ccb3 353c
00000060: 7d57 46bd bb44 91bd 3959 3f3d e542 7b3d
00000070: 73e1 a5bc 75da 613b fb6e b2bd 51eb 4dbd
00000080: f332 95bc f01e 8ebc 94f6 a33d 66c9 9f3c
00000090: 541e 873d 3ffa 463d 4d7f 13bd f643 ad3c
000000a0: c2bf e23c e1ec 093d ab72 1a3d e553 56bd
000000b0: 984f 823c 1b4e 9e3d fe45 dcbc 6789 143c
000000c0: e786 8fbd fb55 dd3d 12da 033c f8d8 33bd
000000d0: 4c18 e0bc b8e8 5abd 73a2 583b c5fe d0bc
000000e0: d025 4bbd 0164 86bd e20b 513d c68f e3bc
000000f0: 4e78 813d a222 9fbd cf3d a13b cb3d fbbc
00000100: 187f cd3c 5a53 a0bd 2ff1 02bd 320d 613d
00000110: 1678 2fbc da23 aabb 0554 a63d 302a 95bd
00000120: 1899 b8bd 5439 4b3d 53aa 3c3d 1777 48bc
00000130: 02e8 a4bd abdc e8bc de43 0d3c 8017 a4bd
00000140: 80be ad3d 9907 523c 9c4f a3bc f48f 98bc
00000150: 2a5d afbc ce76 803c 5861 2ebd ccfd d03d
00000160: 4b6b eb3d f678 683a b302 97bc fe56 65bd
00000170: 65d5 34bd c3f4 0ebc 2ded 99bc 724e 50bd
00000180: d7eb ae3d a9d3 a03d 0566 afbd 6358 35bd
00000190: a868 4cbd 3970 993d 7b09 d73d 4dc9 8d3a
000001a0: b502 8e3d 3970 f4bc a27d 2bbc 8afa 1b3d
000001b0: 5047 8abb 66ff 5abd f900 5fbc 459a abbd
000001c0: c349 97bb abb1 cb3d b0ca cebc 0647 2f3d
000001d0: 8c5b 34bc ae05 ee3c 520f 8b3d bc37 0cbd
000001e0: e9e0 7ebd 1103 1a39 3543 83bd db6b 9d3d
000001f0: de03 7b3d 1a5f 733d 72c7 31bb 5173 4f3d
00000200: 7fed 2e3d d809 26b9 55c2 06bc e128 8abc
00000210: e635 933d 7112 a23d f7ad 34bd 20e1 da3b
00000220: 6bc5 0fbd c344 483c e08c 8e3d 0cf6 52bc
00000230: 9092 6bbd cf79 7dbd f3ca c4bb 88c7 15bd
00000240: 49c2 67bd 7551 a03d bc01 c5ba 4974 e13b
00000250: 1746 0a3d 1e31 31bc 605d 533d 19b1 9bbd
00000260: 9304 88bd aabd ab3c 7d3b e83c 9da0 aa3c
00000270: c100 a8bd f2c1 773d 73ef c43a c435 833d
00000280: b283 5cbd b488 8b3c 7cb0 ce3a 6c27 80bd
00000290: 9463 8fbd cbe0 1bbd 70ed 68bc 159a 6cbd
000002a0: 4b78 38bd 2c6b ab3d 0473 f9bc e695 b5bb
000002b0: 5df6 8fbd c572 a83c 9b29 8ebd 3adf 0f3d
000002c0: 4eeb 13bd 83d1 623d 5b65 22bd b2db afbd
000002d0: a6c9 aebd 90f8 4e3d 50b2 34bd 5a8f dcbc
000002e0: f773 273d 2dd6 f2bc b96b a13d af97 5e3d
000002f0: 3bf3 353a ff63 f43b 4b35 663d 8183 f83b
00000300: 43bd 96bc 1a9c 51bd 6e1e c0bc 831c cabc
00000310: cb84 8b3d f02e 64bd d979 40bd 2ef6 92bc
00000320: b190 27bd 31e6 a73c 39c9 1a3d 7eca 8b3d
00000330: 446c 303d 0577 39bc 41bd 98bc 2b35 293d
00000340: 944f 23bd 93c6 8a3c 560a d43c cbbd ef3c
00000350: 61a9 a6bd 2f68 753d c6cf 453d cd8b 63bd
00000360: 82a4 dbbb 3555 183c c707 9ebd c630 65bd
00000370: d973 8b3d 3f54 81bd 31f0 133d da9c 88bc
00000380: e205 6e3d 8e82 95bd ce3a a13d 0ac1 023d
00000390: 8638 63bd dc85 43bd 4d7a 8a3c 1607 6ebb
000003a0: 1432 5abd 13ee 7fbd 9600 92bd f08c a03d
000003b0: 1915 95bd 533b 85bd b1f5 1bbd 6205 04bb
000003c0: 2ea8 41bd ea9f 6d3d da5f 1bbd b16d 893d
000003d0: 2390 afbc 595f 803d 41e3 fcbc 906f 30bd
000003e0: bb30 f33c 997e d8bc 1d29 af3d ec94 87bd
000003f0: 0509 a6bd 1f17 96bd 603c 0d3d f4e8 473d
-0.004681042 -0.0146359 0.09064885 -0.08792432 -0.054701455 -0.08415922 0.06829913 -0.04818966
-0.0792748 0.06255044 -0.07511283 0.025267437 0.08374077 -0.07495419 -0.051649436 -0.043268133
-0.060551494 -0.06700802 -0.05600446 -0.004779894 -0.01652726 0.006698533 -0.0045518707 0.01109023
-0.04842328 -0.070931874 0.04671595 0.061343092 -0.020249104 0.0034462486 -0.08712574 -0.050273243
-0.018212771 -0.017348737 0.080060154 0.019505214 0.065975815 0.048578497 -0.036010075 0.02115057
0.027679328 0.03367317 0.037707012 -0.0523261 0.015907094 0.07729741 -0.026888844 0.009065962
-0.070081525 0.10807415 0.0080475975 -0.04390809 -0.027355336 -0.053444594 0.0033055812 -0.025512109
-0.049596608 -0.06562043 0.051036723 -0.027778517 0.063217744 -0.077702776 0.0049206982 -0.030669114
0.025085017 -0.07828398 -0.03196829 0.054944225 -0.010709783 -0.005192262 0.08121494 -0.07283437
-0.09013575 0.04961522 0.04606087 -0.0122354245 -0.080520645 -0.028425535 0.008622138 -0.08012295
0.084836006 0.012819194 -0.019935422 -0.01862333 -0.021406729 0.01568165 -0.042573303 0.10204658
0.11495074 0.0008868122 -0.018433904 -0.055991165 -0.04414882 -0.008725348 -0.018789852 -0.05085606
0.08541077 0.07852871 -0.085643806 -0.044273745 -0.049904495 0.07492108 0.10499855 0.0010817439
0.0693411 -0.029838668 -0.010466965 0.03808073 -0.004219927 -0.053466223 -0.013611072 -0.08379034
-0.0046169474 0.09945997 -0.025243133 0.042792343 -0.011008155 0.029055443 0.067900315 -0.03423284
-0.06222621 0.00014687727 -0.06409303 0.076865874 0.061282985 0.059416868 -0.0027126935 0.050647084
0.042706963 -0.00015834661 -0.008225043 -0.016865196 0.07188015 0.07913674 -0.04411122 0.006679669
-0.03510038 0.012223425 0.069604635 -0.012876045 -0.05751282 -0.061883744 -0.0060056387 -0.03656724
-0.05658177 0.07828037 -0.0015030424 0.0068803173 0.03375825 -0.010814933 0.05160272 -0.07602138
-0.066414975 0.020964462 0.028348679 0.02082854 -0.08203269 0.060487695 0.0015024975 0.06406739
-0.053836532 0.017032959 0.0015769149 -0.06257519 -0.07001415 -0.038056176 -0.014216766 -0.05776413
-0.045036595 0.08370051 -0.030450352 -0.005541551 -0.07029412 0.020562539 -0.06941529 0.035124995
-0.036113076 0.055375587 -0.03964744 -0.085868254 -0.08534555 0.050530016 -0.044115365 -0.026923824
0.040882077 -0.029643143 0.078818746 0.054343875 0.0006940846 0.0074582095 0.056203168 0.007584036
-0.018400794 -0.05117426 -0.02345201 -0.024671799 0.068124376 -0.055708826 -0.046991203 -0.017939653
-0.040909473 0.020495506 0.037789557 0.06825732 0.043072 -0.01131988 -0.01864493 0.04131047
-0.039870813 0.01694039 0.025883835 0.029265305 -0.08137775 0.05991381 0.04829385 -0.055553246
-0.0067029605 0.009297659 -0.07716327 -0.055954717 0.068092056 -0.06314897 0.036117736 -0.016676355
0.05811108 -0.07300292 0.07872544 0.031922378 -0.055473827 -0.04773508 0.01690402 -0.0036320142
-0.053270414 -0.062482905 -0.07129018 0.07839382 -0.07279415 -0.06505456 -0.038076106 -0.002014481
-0.04727953 0.058013834 -0.037933208 0.06710375 -0.021431034 0.06268186 -0.030870082 -0.043075144
0.029686322 -0.026427554 0.085527636 -0.066202015 -0.08107189 -0.07328629 0.034481406 0.048806146

fc3.bias f4 [32]
00000000: 3fa6 073e a5f4 21bd ddfd 323d 8d54 fb3d
00000010: 534b 5d3c 1d72 763c bc10 9cbd bb24 06bb
00000020: 8bf5 50bc 6764 333d 9bf1 47bd 0767 123e
00000030: 5cc9 353d 611e df3d b6b6 17bd b918 bcbd
00000040: e538 e4bb 5390 21bd 7722 833d 6a06 1a3d
00000050: 4a74 7e3d d82b ec3c 8215 99bd 7cf1 943d
00000060: 72a1 ccbc 8846 323c 5130 d23d 831a 0a3e
00000070: 652a 34bb c43c c2bd 8d78 c93c cd05 d93c
0.13247012 -0.03953995 0.043699134 0.12271986 0.013506728 0.015041855 -0.07620379 -0.002046867
-0.0127538545 0.043796923 -0.048814397 0.14297114 0.044381484 0.10894466 -0.03703948 -0.09184403
-0.00696479 -0.03944428 0.06403058 0.037603773 0.06212262 0.0288295 -0.074748054 0.07272622
-0.024979327 0.010881074 0.10263122 0.13486676 -0.002749109 -0.094842464 0.024593616 0.026492024

fc4.weight f4 [2, 32]
00000000: 888e 663e c960 48bc ad1a b1be 215d 893e
00000010: 4854 10be 65b3 c6be 646b 0bbd c874 9cbe
00000020: 47e2 cb3b 150b 1d3e c943 68be b9e3 ac3e
00000030: e8ea 3bbe 63ad 373e e98e 793d bddd 093d
00000040: f7a4 5abe d253 28be 9e33 c8be 170f 553e
00000050: e8dd 88bd 79a6 b3bc de87 d3bd ac9f 273e
00000060: d9df d9be 1653 1b3e 68aa 9e3d d7f5 9a3e
00000070: cc19 12be 6d6b d03d 1926 e73c b63c 993d
00000080: dd57 e1bd 126e 20bd 1360 db3e f670 91be
00000090: 81cf 033e 8133 af3e c045 bd3d 384d 423e
000000a0: 9725 653d 2b64 043e 1a68 b1bd 3efb 08be
000000b0: 14f7 08be cb4e 6cbe c0bd c3bc c653 a23d
000000c0: 6471 0c3d 852e 273e 6bcb ef3e 736b 033e
000000d0: 2418 343d 91d4 f5bd 659c 72bc e665 c53c
000000e0: 018a ed3e 1d61 76be 1ceb 6dbe a979 e9bd
000000f0: 8851 fb3d 4679 21be 53d1 6ebc eb76 8c3d
0.22515309 -0.012230107 -0.34590665 0.26828864 -0.14094651 -0.38808742 -0.034037963 -0.30557847
0.0062220427 0.15336259 -0.22682108 0.3376749 -0.18351328 0.17937236 0.060927305 0.03365873
-0.21351992 -0.16438225 -0.3910188 0.20806538 -0.0668295 -0.021929966 -0.10328649 0.16369504
-0.42553595 0.15168414 0.07747346 0.30265686 -0.14267653 0.1017674 0.028216409 0.07482283
-0.11003087 -0.03916747 0.42846736 -0.28406495 0.12872125 0.34218982 0.092418194 0.18974769
0.05594405 0.12928836 -0.08662434 -0.13377091 -0.13375503 -0.23076932 -0.02389419 0.07926135
0.034287825 0.1632634 0.46834883 0.12833957 0.043968335 -0.120034344 -0.014807795 0.02409644
0.4639435 -0.24060483 -0.23234218 -0.11400158 0.1227141 -0.15768918 -0.014576274 0.06858619

fc4.bias f4 [2]
00000000: d6da e73e adcb 39be
0.45284146 -0.18144102
