ligand_model/DNN_FC0001_ModelH2-PubChemFP-top256_batchsize-16_optim-sgd_lr-0.0025/train1.model (torch, 413839 bytes, 8 tensors)

fc1.weight f4 [256, 256]
0	0xbcfa78b6	-0.030575138
1	0x3d167060	0.036728263
2	0x3d61c504	0.05511953
3	0xbd3c68ed	-0.045998503
4	0x3d5de9c5	0.054178018
5	0x3c426f1b	0.01186731
6	0x3d3e2267	0.046419527
7	0x3c0b0f60	0.008487552
8	0x3cf8e112	0.03038076
9	0xbc0cca08	-0.00859309
10	0x3d456e1a	0.048200704
11	0x3c1b2590	0.009469405
12	0xbced2070	-0.028946131
13	0x3c84673c	0.016162507
14	0xbcea0078	-0.028564677
15	0xbbe897fa	-0.007098195
16	0xbccf5879	-0.025310742
17	0x3d2ad281	0.04170466
18	0xbd491457	-0.049091663
19	0xbcea09d6	-0.028569143
20	0xbc90936c	-0.017648421
21	0xbd18ed2b	-0.037335556
22	0x3bc94abb	0.006142942
23	0xbd7bd8b7	-0.061485972
24	0x3d6831fb	0.05668829
25	0xbd5876ed	-0.05284779
26	0x3d45a396	0.04825171
27	0x3c2e6923	0.010645184
28	0xbca43ff6	-0.02005003
29	0x3d1f31cb	0.038865846
30	0x3c1f9758	0.009740673
31	0x3d4ec970	0.050485075
32	0x3bdf78fb	0.006819842
33	0xbca04d9f	-0.019568263
34	0x3c8b6011	0.017013581
35	0xbc8ad808	-0.016948715
36	0x3cd95fd8	0.02653496
37	0x3d658291	0.05603272
38	0x3d14ee49	0.03636006
39	0xbcdfef96	-0.027335923
40	0x3d13ba5e	0.036066405
41	0x3c3b02c8	0.011414237
42	0x3d02f40d	0.031971026
43	0xbd1b15f3	-0.03786273
44	0xbd7d6aa4	-0.06186928
45	0xbcc5d10c	-0.024147533
46	0xbd4468dc	-0.047951564
47	0x3d52270e	0.051306777
48	0x3c93a965	0.01802511
49	0x3cd44459	0.025911497
50	0x3ca21d89	0.019789474
51	0xba8b7981	-0.0010641069
52	0x3d48713c	0.048936114
53	0xbd3509dd	-0.04419886
54	0x3b7e5fa2	0.0038814326
55	0xbd2ebaf4	-0.04265876
56	0x3c9de050	0.019272
57	0xbcb052e0	-0.021523893
58	0x3c9ce298	0.019151017
59	0xbc563928	-0.013075151
60	0x3d5552d9	0.052080963
61	0xbd17f3b8	-0.037097663
62	0xbd18ad8a	-0.037274875
63	0xbd17bd53	-0.037045788
64	0x3d6741b5	0.056459147
65	0x3cac9f9a	0.021072198
66	0x3d7755e3	0.060384642
67	0xbd52457b	-0.051335793
68	0xbd7cebc5	-0.061748285
69	0xbd47492b	-0.048653763
70	0xbd2b3587	-0.041799095
71	0x3cd16122	0.025559012
72	0x3cb78645	0.022402892
73	0x3d54cfae	0.05195587
74	0xbd041c3c	-0.03225349
75	0xbd2ebd12	-0.04266078
76	0x3d079b90	0.03310734
77	0xbccef3e4	-0.02526278
78	0x3d1b5f5c	0.03793274
79	0xbc6eff95	-0.014587303
80	0x3d13716d	0.035996843
81	0xbd45e78d	-0.048316527
82	0xbd0030e7	-0.031296637
83	0x3c9e187a	0.01929878
84	0x3c5c4590	0.013444319
85	0xbc8189a5	-0.015812704
86	0x3d185f9a	0.037200548
87	0x3d2ee255	0.042696316
88	0xbd38b263	-0.045091998
89	0xbd07b903	-0.033135425
90	0x3d6b432d	0.05743711
91	0xbcacc3f4	-0.021089531
92	0xbcb5832c	-0.022157274
93	0xbd77b448	-0.060474664
94	0xbd12d2ec	-0.035845682
95	0x3c81cb7b	0.015844097
96	0xbc035ee0	-0.008018225
97	0xbd38e117	-0.045136537
98	0x3ad02ced	0.001588253
99	0xbd2df6d3	-0.042471718
100	0xbd593086	-0.05302479
101	0xbd0bc8e5	-0.034127135
102	0xbd5f0e13	-0.05445678
103	0xbd220171	-0.039552156
104	0x3d807318	0.062719524
105	0x3c416870	0.011804685
106	0x3c9dc71c	0.019259982
107	0xbd6ec466	-0.05829277
108	0xbd2695e2	-0.040670283
109	0xbcaa6c14	-0.020803489
110	0x3c201fc0	0.009773195
111	0xbd6214cd	-0.05519562
112	0xbcdb9b15	-0.026807347
113	0xbd194258	-0.037416786
114	0x39359e00	0.00017320365
115	0xbcc028cf	-0.023456959
116	0xbb8fae3d	-0.0043847845
117	0xbd2d7924	-0.042351857
118	0xbd2f12c1	-0.042742494
119	0xbd14673f	-0.036231276
120	0xbcae414d	-0.021271372
121	0xbd491bbd	-0.04909872
122	0x3d566d8e	0.052350573
123	0xbc4c1bd8	-0.01245781
124	0x3d5cc318	0.053896993
125	0x3ca087ff	0.019596098
126	0xbd58478e	-0.052802615
127	0x3d31a95a	0.043374397
128	0xbc8bdf79	-0.017074334
129	0xbcc34301	-0.02383566
130	0xbd547f80	-0.051879406
131	0xbd7e8150	-0.06213504
132	0x3c944c41	0.018102767
133	0xbc5c1175	-0.013431896
134	0x3cc92485	0.024553547
135	0xbd512f65	-0.05107059
136	0x3d3ef771	0.046622697
137	0xbd3b6ad0	-0.04575616
138	0xbc2ed0b0	-0.010669872
139	0x3c587558	0.013211571
140	0x3d04cdeb	0.03242294
141	0x3d4e737c	0.050403103
142	0x3d6a1c3b	0.05715583
143	0xbd4aad15	-0.04948147
144	0x3c81dad7	0.015851421
145	0xbcdc3978	-0.026882872
146	0xbbdb4721	-0.006691829
147	0xbd3e428f	-0.046450194
148	0x3d6a8885	0.0572591
149	0xbd3b9451	-0.045795742
150	0x3d0a2c49	0.03373364
151	0x3cb4f033	0.022087192
152	0x3ca78b99	0.020452308
153	0xbd0b3a11	-0.033990923
154	0x3d68fec8	0.056883603
155	0x3c623d30	0.013808534
156	0x3c078490	0.008271351
157	0xbd6119c8	-0.054956228
158	0x3cd67dab	0.02618297
159	0xbc1635b8	-0.009168081
160	0xbcea8f44	-0.028632767
161	0x3d5c640e	0.053806357
162	0x3c664d48	0.014056511
163	0xbd0da386	-0.034579776
164	0xbd009fbf	-0.031402346
165	0xbb439b80	-0.0029847324
166	0x3d0fe357	0.035128918
167	0xbc82d554	-0.015970863
168	0xbd121132	-0.03566093
169	0xbcaf54ac	-0.02140268
170	0xbd3e4db9	-0.04646084
171	0x3cb69888	0.02228953
172	0x3d462780	0.048377514
173	0xbd71023c	-0.05884002
174	0x3c6dd320	0.014515668
175	0x3d043f5c	0.032286987
176	0x3c39ae68	0.011333086
177	0xbcb655f8	-0.02225779
178	0x3d0642d7	0.032778587
179	0x3d077a9b	0.03307591
180	0x3cc15898	0.023601815
181	0xbc3025f8	-0.01075124
182	0xbc85aed4	-0.016318716
183	0x3be2ad96	0.0069176657
184	0xbc314685	-0.010820036
185	0xbc96c46f	-0.018404214
186	0x3d23a310	0.03995043
187	0x3d5bc934	0.05365868
188	0xbbcabf20	-0.0061873347
189	0xbc654538	-0.013993554
190	0x3a6f1480	0.0009120181
191	0xbb7490a0	-0.0037317649
192	0x3c762e60	0.015025705
193	0x3c8f09ef	0.017460791
194	0xbd68bbec	-0.05681984
195	0xbcbb235b	-0.022844007
196	0x3d587d67	0.052853968
197	0x3cc9d25f	0.024636446
198	0xbb4bb9a0	-0.0031085983
199	0xbd1a5808	-0.03768161
200	0xbd1cd7aa	-0.03829161
201	0xbd63e93d	-0.055642355
202	0xbca6e48c	-0.020372652
203	0x3cace790	0.021106511
204	0x3d233b2c	0.039851353
205	0x3cec6398	0.028856084
206	0xbd624a28	-0.055246502
207	0xbd19f2e4	-0.037585154
208	0xbc219ab0	-0.0098635405
209	0x3d7896cb	0.060690682
210	0x3c178a60	0.0092493
211	0xbc863c4f	-0.01638618
212	0x3cd3d27c	0.025857203
213	0xbcc11db4	-0.023573734
214	0xbd25b28c	-0.04045348
215	0x3d3bb43f	0.045826193
216	0xbce8ceac	-0.028418861
217	0xbc4d4728	-0.012529172
218	0xbd7eab7e	-0.062175266
219	0x3d2b5552	0.041829415
220	0x3d41f458	0.047352165
221	0x3cba98f4	0.022778012
222	0xbd328090	-0.043579638
223	0xbd7ca818	-0.061683744
224	0xbd4f109b	-0.050552946
225	0x3d3fc091	0.046814505
226	0x3cf7b5a0	0.030237973
227	0x3d584731	0.05280227
228	0x3d0703f1	0.032962743
229	0x3c817aca	0.01580562
230	0xba207180	-0.00061204284
231	0xbd41bdf3	-0.04730029
232	0xbd5b556c	-0.05354826
233	0xbd6f7302	-0.05845929
234	0x3cd197e4	0.025585122
235	0xbcfb6028	-0.0306855
236	0xbc4e1528	-0.012578286
237	0xbd1261bd	-0.03573774
238	0xbc36fa85	-0.011168127
239	0xbd3346eb	-0.043768805
240	0xbd274640	-0.04083848
241	0x3ca9d600	0.020731926
242	0xbc982a20	-0.018574774
243	0x3d1e0a34	0.03858395
244	0xbca4410c	-0.020050548
245	0xbd3bcb10	-0.045847952
246	0xbc34ac68	-0.011027433
247	0xbcf830d0	-0.030296713
248	0xbc9ba411	-0.018999131
249	0xbd73e124	-0.059540883
250	0x3d0fadae	0.035077743
251	0xbd323a76	-0.043512784
252	0x3d019e21	0.031644944
253	0x3ce85668	0.028361514
254	0x3d36e510	0.044652045
255	0xbd445d86	-0.047940753

fc1.bias f4 [256]
0	0x3ccf0ce0	0.025274694
1	0xbd4db388	-0.050220042
2	0xbd2ca378	-0.042148083
3	0x3cd93c50	0.026518017
4	0x3b8c24ce	0.0042768484
5	0x3c997819	0.018734025
6	0x3bf12d85	0.0073601627
7	0x3ca9ce02	0.020728115
8	0xbc8a78e7	-0.016903354
9	0xbd17aea4	-0.037031785
10	0xbc76e478	-0.01506912
11	0xbb46d19d	-0.0030337342
12	0x3c8ee808	0.017444625
13	0x3ccee350	0.025254875
14	0x3c491130	0.012272164
15	0xbcce58b5	-0.025188783
16	0x3ce6c949	0.028172152
17	0xbc26ada8	-0.010173239
18	0x3d03b973	0.03215928
19	0xbd4ba9e3	-0.049722563
20	0xbd4583dd	-0.048221458
21	0xbd952756	-0.07282893
22	0x3bf314dd	0.0074182586
23	0xbd5f1b80	-0.054469585
24	0x3d4b30d2	0.049607106
25	0x3cda831a	0.026673842
26	0xbca737bf	-0.020412324
27	0x3cfd133a	0.030892957
28	0x3d388cf6	0.045056306
29	0xbd687ea7	-0.05676141
30	0x3ce9963c	0.02851402
31	0xbd5785d0	-0.052617848
32	0x3d28ea11	0.041238848
33	0x3d323ff5	0.043518025
34	0x3d26d78d	0.04073291
35	0xbb4d4a4a	-0.0031324797
36	0x3be58130	0.0070039257
37	0xbd57efc2	-0.052718885
38	0x3d00fb56	0.031489693
39	0xbd85b79e	-0.06529163
40	0xbcd7f347	-0.02636112
41	0xbc8d6959	-0.017262148
42	0x3d05fc0b	0.03271107
43	0x3b8a4408	0.0042195357
44	0xbcd30c44	-0.025762685
45	0xbca33780	-0.019923925
46	0x3c9f1552	0.019419346
47	0x3d0c5be1	0.03426731
48	0x3cb78660	0.022402942
49	0xbd36ffa8	-0.044677407
50	0xbd3fdf0e	-0.04684358
51	0x3d64d861	0.055870418
52	0xbd0d9294	-0.034563616
53	0xbc946332	-0.018113706
54	0x3d02aa9c	0.031900987
55	0x3caa321b	0.020775845
56	0xbd36ccdf	-0.044628974
57	0x3d153e2e	0.036436252
58	0xbb628ea9	-0.0034569895
59	0xbc0365ea	-0.008019904
60	0xbca04a08	-0.01956655
61	0xb9654a7f	-0.00021866894
62	0xbb8708c4	-0.004120918
63	0xbd3978d0	-0.04528123
64	0xbd4c52c3	-0.049883615
65	0xbd24cde1	-0.040235404
66	0x3d8eed93	0.069789074
67	0x3d3c83b7	0.04602405
68	0x3cb7c3c0	0.022432208
69	0x3cd256c5	0.02567614
70	0x3d5fbb46	0.054621957
71	0x3d58c258	0.052919716
72	0x3ceb1bc4	0.028699763
73	0xbb0898e4	-0.0020843083
74	0x3ce53e73	0.02798388
75	0xbd0cdd62	-0.034390815
76	0x3d21bb6d	0.039485384
77	0x3d2dbba5	0.04241528
78	0x3c526c7d	0.012843248
79	0xbd18e147	-0.037324216
80	0x3c6b2f4c	0.014354538
81	0x3d3a786b	0.045524996
82	0xbcca1f6c	-0.024673186
83	0x3cd3a6a0	0.025836289
84	0x3c5b9af2	0.013403641
85	0x3d1b20a1	0.037872914
86	0xbc6860c2	-0.014183225
87	0x3aea4ae1	0.0017875099
88	0xbd5fcf06	-0.054640792
89	0x3d0a86fb	0.033820134
90	0xbd5dc4e8	-0.054142863
91	0xbd4f3d8d	-0.05059581
92	0x3d6374e4	0.055531397
93	0xbba2ff04	-0.004974248
94	0xbd873163	-0.06601217
95	0x3d185e15	0.0371991
96	0xbc6e7de6	-0.014556384
97	0x3d2b3dea	0.041807093
98	0x3d3ff36d	0.04686301
99	0xbd583594	-0.05278547
100	0xbd87e866	-0.06636123
101	0xba462794	-0.0007558998
102	0xbc8f4d36	-0.017492872
103	0xbd96c635	-0.07362024
104	0xbd65c633	-0.05609722
105	0x3d3aac1f	0.045574304
106	0x3c37c855	0.0112171965
107	0x3cb36070	0.02189657
108	0x3cf920a0	0.030411065
109	0x3c57943e	0.013157902
110	0x3d2bdb31	0.041957084
111	0xbc14ef6a	-0.009090284
112	0xbb0f1088	-0.0021829922
113	0x3d817d26	0.06322698
114	0x3c57e648	0.013177462
115	0xbc37c0f3	-0.011215436
116	0x3d2ab207	0.041673686
117	0x3d03626b	0.03207628
118	0x3c2aff5b	0.010436858
119	0x3d32a472	0.04361386
120	0x3d463575	0.048390824
121	0xbc8fb0e5	-0.017540405
122	0xbce7aa1a	-0.028279353
123	0x3c286cde	0.010279862
124	0x3d66e259	0.056368206
125	0xbd05562a	-0.032552876
126	0xbd61977e	-0.055076115
127	0xbc984cd3	-0.01859132
128	0x3c719f25	0.014747416
129	0xbd4b5a7e	-0.049646847
130	0xbd1f0c9d	-0.03883039
131	0xbb1e97e6	-0.0024199425
132	0x3d4e569d	0.05037557
133	0x3c5d4b9f	0.013506799
134	0x3d21020e	0.0393086
135	0x3ad04712	0.0015890321
136	0x3c7694a2	0.015050085
137	0x3d84f718	0.06492442
138	0xbca8f05b	-0.020622423
139	0xbb9e7cd9	-0.0048366603
140	0x3c2794d1	0.010228352
141	0x3bf6795d	0.007521792
142	0x3b3b6229	0.0028592444
143	0xbce2551d	-0.027628476
144	0x3d0aa67c	0.033850178
145	0x3d04c8c3	0.032418024
146	0xbd5875a3	-0.052846562
147	0x3be8a63a	0.007099894
148	0xbd9619f6	-0.073291704
149	0x3d63826e	0.05554431
150	0x3cd85b85	0.026410827
151	0x3cf55653	0.02994839
152	0x3d7fe663	0.062475573
153	0x3d3a708c	0.04551749
154	0x3d346ca9	0.04404894
155	0xbd2aee6d	-0.041731287
156	0xbcb84a01	-0.022496225
157	0x3cf1b3b7	0.02950464
158	0x3d32ad31	0.0436222
159	0xbcaa3cce	-0.020780947
160	0x3d07dfdd	0.033172477
161	0x3cae0c8c	0.021246217
162	0x3d3d190d	0.04616647
163	0xbb91db3f	-0.004451185
164	0xba07e272	-0.0005183584
165	0xbd0afd36	-0.033932887
166	0xbd6ed78a	-0.058311023
167	0xbb7da9b4	-0.0038705887
168	0x3c2bf279	0.010494822
169	0xbd2200f3	-0.039551686
170	0x3c938310	0.018006831
171	0xbd664ee0	-0.056227565
172	0xbda27b14	-0.079336315
173	0x3d8741fb	0.06604382
174	0xbd3eb32c	-0.04655759
175	0x3ba75205	0.005106213
176	0xbcaf7745	-0.021419177
177	0x3cc7ea36	0.024403673
178	0x3bec23e8	0.007206429
179	0xbc9a6e0f	-0.018851308
180	0xbd462fa5	-0.04838528
181	0xbd3a766c	-0.045523092
182	0xbc83c02b	-0.016082844
183	0x3cce6bbe	0.02519786
184	0xbc2b3008	-0.010448463
185	0xbd531642	-0.0515349
186	0x3c8ab899	0.016933726
187	0xbd81fc8f	-0.06347
188	0xbd8fb5c9	-0.07017095
189	0x3ccc8af4	0.024968602
190	0xbd499007	-0.04920962
191	0x3bcb2d79	0.006200489
192	0xbd2616a7	-0.040548947
193	0x3d2ae8df	0.04172599
194	0xbd5ad053	-0.05342133
195	0xbd62df7f	-0.055388924
196	0x3d42b528	0.047536045
197	0x3c63e47d	0.013909456
198	0xbd22e97f	-0.03977346
199	0x3d0175aa	0.031606354
200	0xbd9fd86d	-0.07804952
201	0x3c52ef4c	0.012874436
202	0xbd02d2d3	-0.03193934
203	0x3d1ff18d	0.03904872
204	0x3d1f1bb5	0.038844783
205	0xbba90bd7	-0.005158882
206	0x3d5b3a1d	0.053522218
207	0x3c58a584	0.013223056
208	0xb9c9a763	-0.0003846242
209	0x3d56ddbd	0.05245756
210	0x3d0cb0ab	0.03434817
211	0xbd205bee	-0.03915017
212	0x3ca9d485	0.02073122
213	0xbd1efb39	-0.038813803
214	0x3c340f4f	0.010989978
215	0xbd5cdd9e	-0.053922288
216	0x3d081ef1	0.033232633
217	0xbd74fa22	-0.059808858
218	0xbcb3e723	-0.0219608
219	0x3ce8a7d6	0.028400343
220	0xbcc5f37b	-0.024163952
221	0x3d46f285	0.04857113
222	0x3c59d718	0.013295911
223	0x3a6fcefd	0.000914797
224	0x3cc3c398	0.023896977
225	0xbd378db9	-0.04481289
226	0x3d04eebb	0.032454234
227	0xbd8863d4	-0.06659666
228	0xbb84120f	-0.004030473
229	0xbc00e289	-0.00786651
230	0x3d4f1754	0.050559357
231	0xbc2e68af	-0.010645076
232	0x3c495d53	0.012290317
233	0xbd5eda42	-0.054407366
234	0x3d32859f	0.043584462
235	0xbd3f4047	-0.04669216
236	0x3cdd9e0a	0.027052898
237	0x399fc0b7	0.00030470427
238	0x3d0b4040	0.03399682
239	0x3d658300	0.056033134
240	0xbc668992	-0.014070885
241	0xbd4e0bbe	-0.050304167
242	0x3d5c4540	0.05377698
243	0xbd072019	-0.032989595
244	0xbd5dccad	-0.054150272
245	0x3cad4573	0.02115128
246	0xbd2d8670	-0.042364538
247	0x3cef28ca	0.029194254
248	0x3d393cb0	0.04522389
249	0xbc7b174d	-0.01532538
250	0xbc25d57c	-0.010121699
251	0xbc36c853	-0.011156159
252	0xbce11cfd	-0.027479643
253	0xbd3b55fb	-0.045736294
254	0xbc7ef131	-0.015560434
255	0x3d87c4d4	0.06629339

fc2.weight f4 [128, 256]
0	0x3d19fd9b	0.037595373
1	0x3c8defd0	0.017326266
2	0xbd37c7ec	-0.044868395
3	0x3cc49838	0.023998365
4	0xbbebd39e	-0.0071968576
5	0xbcf10455	-0.029421011
6	0x3cc70f92	0.024299417
7	0xbd086faf	-0.033309635
8	0x3bbde3ee	0.0057949936
9	0xbc91da0c	-0.017804168
10	0xbd5efea5	-0.054442067
11	0x3d0528d6	0.032509647
12	0x3b59d8b5	0.003324074
13	0x3d1d7d80	0.038449764
14	0xbc97cc53	-0.018530047
15	0x3b8a3a7e	0.0042183986
16	0xbd0ba2c9	-0.03409079
17	0x3d2367ec	0.03989403
18	0xbd016378	-0.031589
19	0x3c396a78	0.011316888
20	0x3d6b0059	0.05737338
21	0xbd6460f8	-0.05575654
22	0xbcfcdd27	-0.030867172
23	0x3cfc8935	0.030827144
24	0xbc3c5370	-0.011494502
25	0xbcdf4a62	-0.027257148
26	0xbd7df4ac	-0.062000915
27	0x3d6b94b2	0.057514854
28	0x3ce88a05	0.028386125
29	0xbb2cc7e0	-0.0026364252
30	0x3c741ff8	0.0149002
31	0x3d3101d1	0.043214623
32	0x3d6ad96e	0.057336263
33	0xbd01fa90	-0.031733096
34	0xbd2050b6	-0.039139472
35	0xbd42021b	-0.04736529
36	0xbd45a3d6	-0.04825195
37	0x3d0c3c9a	0.03423748
38	0xbd6a25a7	-0.057164814
39	0x3d4c4f2c	0.04988019
40	0x3d6250c3	0.0552528
41	0xbd487f8a	-0.048949756
42	0x3d4e6ac3	0.050394785
43	0x3d333dba	0.04376004
44	0xbd78a897	-0.060707655
45	0xbcacda36	-0.021100145
46	0x3d09e383	0.033664238
47	0xbc81398e	-0.015774515
48	0xbca87d98	-0.0205677
49	0xbc4cf7e9	-0.012510278
50	0x3d31bc63	0.04339255
51	0xbd38b620	-0.045095563
52	0xbca684d6	-0.020327013
53	0xbca6c464	-0.020357318
54	0x3c66aabd	0.014078793
55	0xbd0e927b	-0.034807663
56	0xbd08ebc1	-0.033427957
57	0xbc790ac4	-0.015200321
58	0x3c1b740f	0.00948812
59	0x3cc35142	0.023842458
60	0xbd1dc5c6	-0.03851869
61	0xbd7cbff7	-0.06170651
62	0xbd4f4b92	-0.05060918
63	0x3d28222b	0.04104821
64	0x3c8234a9	0.015894251
65	0xbccb553e	-0.02482092
66	0xbc5e2b50	-0.013560131
67	0xbd539b89	-0.051662
68	0xbd50d9b8	-0.050988883
69	0x3aafbc8b	0.0013407631
70	0xbd29101e	-0.041275136
71	0xbc1d3a2d	-0.00959639
72	0xbd1f5163	-0.038895976
73	0x3d02b166	0.03190746
74	0x3cee6851	0.029102476
75	0xbb030a6c	-0.0019995226
76	0xbb042a33	-0.0020166754
77	0x3ca73aa0	0.020413697
78	0x3cdec72c	0.027194582
79	0x3c90d6ee	0.017680611
80	0xbcba13f0	-0.022714585
81	0x3c39c8ba	0.011339361
82	0x3d3b3c67	0.0457119
83	0x3cd06f4c	0.025443695
84	0xbd77eef6	-0.060530625
85	0x3b9f475a	0.0048608007
86	0xbd68503c	-0.056717142
87	0x3d33ef9e	0.04392969
88	0x3cb83df4	0.022490479
89	0xbcd79bf6	-0.026319485
90	0x3d705bbf	0.058681246
91	0x3d0f409e	0.034973733
92	0x3cf5c830	0.030002683
93	0x3d206709	0.039160762
94	0x3ca2559e	0.019816216
95	0xbca2cef7	-0.01987408
96	0xbccad5a0	-0.024760067
97	0xbd6ee410	-0.058322966
98	0x3cc4e238	0.02403365
99	0x3cd7fd4c	0.026365899
100	0x3c4dc46a	0.012559036
101	0xbcf6677c	-0.030078642
102	0xbd2e3a3c	-0.042536005
103	0xbd4ec8db	-0.05048452
104	0xbbd95ac8	-0.0066331364
105	0xbbc9db93	-0.0061602085
106	0xbd4baf19	-0.049727533
107	0x3cf90870	0.030399531
108	0x3cea5b59	0.028608011
109	0x3cd24fdf	0.025672851
110	0xbce7a94a	-0.028278966
111	0x3c38480e	0.011247648
112	0x3d5149e9	0.051095877
113	0xbc1d4423	-0.009598765
114	0x3c59fb64	0.013304565
115	0x3ce6d1c8	0.028176203
116	0xbc037ef9	-0.008025878
117	0x3d6f56e1	0.058432464
118	0x3d108905	0.035286922
119	0xbbb26b7a	-0.005444941
120	0xbcbb7ff2	-0.022888158
121	0x3b4b9656	0.003106495
122	0x3d630283	0.055422317
123	0x3cb8c8ba	0.022556651
124	0xbd66c999	-0.056344602
125	0xbd51fcd7	-0.051266517
126	0xbd6996fa	-0.057028748
127	0x3c6389ca	0.013887832
128	0xbcc1ec5d	-0.023672277
129	0xbcb7de94	-0.022445
130	0xbc5d60f0	-0.013511881
131	0x3c856105	0.016281614
132	0xbcb6d189	-0.022316711
133	0x3d3b2747	0.045691755
134	0xbd374953	-0.04474766
135	0xbd14a1c0	-0.03628707
136	0xbd31a644	-0.043371454
137	0xbd2d3637	-0.04228803
138	0xba8532d8	-0.0010162247
139	0xbd70cdf0	-0.058790147
140	0x3b503147	0.0031767653
141	0xbd5a1ef6	-0.053252183
142	0xbcc9da9e	-0.024640378
143	0x3c963c8c	0.018339418
144	0x3d640ee9	0.055678282
145	0xbc6e7e19	-0.014556431
146	0xbd31b446	-0.043384813
147	0xbd3f7b53	-0.04674847
148	0xbd0e83b1	-0.03479356
149	0xbcc9a912	-0.024616752
150	0xbd2c473a	-0.042060114
151	0x3c78aa71	0.015177355
152	0x3d4ffa00	0.050775528
153	0xbd142b81	-0.0361743
154	0x3c3a2a99	0.011362695
155	0x3d79e708	0.061011344
156	0xbd23cc7d	-0.039989937
157	0x3d5b388d	0.053520728
158	0x3c9a8b11	0.01886514
159	0xbd5859cf	-0.052820023
160	0x3d1093ba	0.035297133
161	0xbb1e417c	-0.0024147918
162	0x3b075264	0.0020648474
163	0xbcba87c2	-0.022769812
164	0x3d364551	0.0444997
165	0x3b34f6a0	0.002761282
166	0x3d430f60	0.047622085
167	0x3c553dec	0.013015252
168	0xbd367c65	-0.044552226
169	0x3cf2b2a4	0.029626198
170	0xbb770700	-0.0037693381
171	0xbd339e1e	-0.043851964
172	0xbaca6f57	-0.0015444559
173	0xbd33461f	-0.043768045
174	0x3c86e170	0.016464919
175	0x3cf6a745	0.030109057
176	0x3c1ee678	0.009698503
177	0x3d736b68	0.059428602
178	0xbbd06c27	-0.006360549
179	0xbd0bd7ed	-0.03414147
180	0x3d2c4685	0.04205944
181	0x3d6af1ea	0.057359613
182	0xbd1dee82	-0.038557537
183	0xbba14377	-0.0049213725
184	0xbd5b4e6c	-0.053541586
185	0x3c812050	0.015762478
186	0x3c37a829	0.011209526
187	0xbc3226bb	-0.010873492
188	0xbd187e50	-0.037229836
189	0x3d7d4eae	0.061842613
190	0x3a868b31	0.0010264871
191	0xbd0801a7	-0.0332047
192	0x3ce77c86	0.02825762
193	0xbd2f5bf1	-0.04281229
194	0xbc766440	-0.01503855
195	0xbcfea1df	-0.031083046
196	0xbd507794	-0.05089529
197	0xbb7f4d52	-0.0038955999
198	0x3ca7dc6b	0.020490846
199	0xbd0b42e4	-0.03399934
200	0xbd3a7685	-0.045523185
201	0x3d518866	0.05115547
202	0xbcc361f9	-0.023850428
203	0x3d22cdd5	0.039747078
204	0xbc6dcd48	-0.014514275
205	0xbd5d487b	-0.0540242
206	0x3a574132	0.0008211314
207	0xbd78a49b	-0.060703855
208	0xbc0c2ff1	-0.008556352
209	0x3c68b9ac	0.014204424
210	0xba4fcd0c	-0.00079269777
211	0xbd6227e0	-0.05521381
212	0x3c8555ff	0.016276358
213	0x3d0c5538	0.03426096
214	0x3c1f39b9	0.009718352
215	0x3d71a72a	0.05899731
216	0xbd774af1	-0.060374204
217	0x3d3817f9	0.044944737
218	0xbd555737	-0.052085128
219	0x3d275822	0.040855534
220	0xbcabfd7d	-0.020994896
221	0xbc90e86b	-0.01768895
222	0x3c9d8f77	0.019233448
223	0x3c32717b	0.010891314
224	0x3a2b6504	0.0006538185
225	0xbd04366a	-0.032278456
226	0x3d36fad4	0.044672802
227	0x3d026c76	0.031841718
228	0xbccfcf4b	-0.0253674
229	0xbd51afc4	-0.051193014
230	0x3d41a5b2	0.04727716
231	0xbd214f01	-0.039381985
232	0xbcf5762e	-0.029963579
233	0x3b9feee0	0.004880771
234	0xbc317569	-0.010831215
235	0xbcc05a5b	-0.023480585
236	0xbc698bd3	-0.014254528
237	0x3ce0e057	0.027450724
238	0x3d07b32a	0.03312985
239	0xbca06f92	-0.01958445
240	0xbd08991e	-0.03334915
241	0x3d2efb44	0.042720094
242	0xbd20a113	-0.039216112
243	0x3d462fcb	0.048385423
244	0xbd275f71	-0.040862504
245	0xbc02cca3	-0.0079833595
246	0x3c3f45ab	0.011674325
247	0xbd59f983	-0.05321647
248	0x3c869a77	0.016431076
249	0xbc05ef07	-0.008174664
250	0x3c8e9127	0.017403198
251	0x3d69dade	0.057093494
252	0x3d8043d8	0.0626294
253	0xbd60d645	-0.054891843
254	0xbd326140	-0.043549776
255	0x3c923fd2	0.017852698

fc2.bias f4 [128]
0	0xbb0be0d3	-0.0021343722
1	0x3ca65ab3	0.02030692
2	0x3d7144e6	0.058903597
3	0xbd08377b	-0.033256035
4	0xbd09a908	-0.033608466
5	0xbc38f444	-0.011288706
6	0xbd6398d0	-0.055565655
7	0xbd7d98c8	-0.06191328
8	0x3d8c61ab	0.06854566
9	0xbd5fd97b	-0.054650765
10	0xbc0a23a6	-0.008431351
11	0xbd247e91	-0.040159766
12	0xbcda39a8	-0.02663882
13	0x3d793b95	0.060847837
14	0xbc865daa	-0.016402084
15	0x3b43b377	0.0029861608
16	0x3c5dae97	0.013530395
17	0x3cd29d9a	0.025709916
18	0xbd64ec87	-0.055889633
19	0x3cf5c9c9	0.030003445
20	0x3d6d77f8	0.05797574
21	0xbae5d093	-0.0017533473
22	0x3d7b5a95	0.061365683
23	0xbd646fd3	-0.055770706
24	0xbc88e028	-0.016708449
25	0xbd17a15d	-0.037019122
26	0xbcb7ebcb	-0.022451302
27	0xbd2b764a	-0.041860856
28	0xbd84969f	-0.06474041
29	0xbcdcff8d	-0.026977325
30	0xbd265ea1	-0.04061759
31	0x3d09d0f1	0.033646528
32	0xbcc2f0fd	-0.023796553
33	0xbcd264e8	-0.025682881
34	0x3d24cea8	0.040236145
35	0x3d10242b	0.035190742
36	0xbd8154ac	-0.06314978
37	0xbd6be9ac	-0.057595894
38	0xbd001143	-0.031266462
39	0x3b1e55f3	0.0024160116
40	0xbbb7bb58	-0.00560705
41	0x3d15a094	0.036530092
42	0x3d158011	0.036499087
43	0xbcbb86fa	-0.02289151
44	0xbd27d972	-0.040978856
45	0x3cbcdb97	0.023053927
46	0x3d1e522b	0.03865258
47	0x3d0de575	0.034642655
48	0xbccdcfe6	-0.025123548
49	0xbd0c18a9	-0.034203205
50	0xbc9ed338	-0.019387826
51	0x3d44c00e	0.04803472
52	0xbd0570c9	-0.032578263
53	0xbcec2ecb	-0.028830906
54	0x3d9f4328	0.07776481
55	0xbbb338ea	-0.005469431
56	0x3d1a6618	0.03769502
57	0xbc24f0a1	-0.010067136
58	0xbd5e56de	-0.05428206
59	0x3d79fef9	0.061034176
60	0x3db75d17	0.08953302
61	0xbd80aa7a	-0.06282516
62	0x3d5f0e87	0.054457214
63	0x3d1e3b07	0.03863051
64	0x3d3dbe9a	0.04632435
65	0x3c65b86a	0.0140210185
66	0xbd48ce51	-0.049024884
67	0x3d2ec105	0.042664547
68	0x3d3704c4	0.04468228
69	0x3c5ca1b1	0.013466285
70	0xbd0cd7ec	-0.034385607
71	0x3abda29d	0.0014468018
72	0xbd22e33f	-0.0397675
73	0x3c64e0c0	0.0139696
74	0x3d78f88b	0.060783904
75	0x3af0a7b0	0.0018360522
76	0xbd050d46	-0.03248336
77	0xbcc54c2d	-0.024084175
78	0x3d2b22c2	0.041781195
79	0xbd149290	-0.036272585
80	0x3c10c62c	0.00883631
81	0x3d66dbe4	0.056362048
82	0x3b0c5e3f	0.002141848
83	0x3ce273a1	0.027643027
84	0x3d2ea86a	0.04264108
85	0xbb64e102	-0.0034924154
86	0xbd654fd4	-0.055984333
87	0x3d85d211	0.065342076
88	0x3d00e463	0.031467807
89	0x3c10fd09	0.008849391
90	0xbc7d6dad	-0.015468043
91	0x3d792eb8	0.06083557
92	0xbc243f2e	-0.010024829
93	0x3cca8908	0.024723545
94	0xbd59259a	-0.053014375
95	0x3d6f24d9	0.05838475
96	0x3d6a24c7	0.05716398
97	0xbd6739b8	-0.05645153
98	0xbd252195	-0.04031523
99	0xbd72fd48	-0.05932358
100	0x3d1e9ebb	0.038725596
101	0x3d03bc4c	0.032161996
102	0x3cd9aa9a	0.026570607
103	0x3cd3f433	0.02587328
104	0x3d10adbb	0.035321932
105	0x3d613468	0.05498162
106	0x3bd89b2a	0.006610294
107	0x3d0d60cb	0.034516137
108	0xbbe8790f	-0.0070945094
109	0x3d82da7f	0.06389331
110	0x3d469bb4	0.048488334
111	0x3d6f72f7	0.05845925
112	0x3d1ac980	0.03778982
113	0x3ced43a1	0.028962912
114	0xbc9d2b5c	-0.019185714
115	0x3d0a579a	0.03377495
116	0x3d2c8216	0.042116247
117	0x3d8b14f1	0.06791104
118	0x3d0ae61c	0.033910856
119	0x3d4bf1a3	0.04979099
120	0xba8ab1f9	-0.0010581604
121	0xbc892ff1	-0.016746493
122	0xbd0e1563	-0.034688365
123	0x3d4c1a10	0.049829543
124	0xbcd5d0ff	-0.026100634
125	0x3d7ec25e	0.06219708
126	0x3d213797	0.039359655
127	0x3c73a8ce	0.014871789

fc3.weight f4 [32, 128]
0	0x3ce3c060	0.027801692
1	0xba5d055f	-0.00084312813
2	0x3d2be39b	0.04196511
3	0x3cdc19ed	0.026867831
4	0xbd20711f	-0.03917038
5	0x3d6ba57c	0.057530865
6	0xbcd759ca	-0.026287932
7	0x3d7e1170	0.06202835
8	0x3d7435a4	0.05962147
9	0x3d1c2f69	0.03813115
10	0x3d8bb340	0.068212986
11	0xbd25cb94	-0.04047735
12	0x3bd6cff8	0.0065555535
13	0xbd58e3dc	-0.05295168
14	0xbd3cdc17	-0.04610833
15	0x3d000aeb	0.031260412
16	0x3d6b3a79	0.05742881
17	0xbd98742e	-0.074440345
18	0xbda0d169	-0.07852442
19	0x3d30558e	0.04305034
20	0xbb81a0e2	-0.0039559463
21	0x3c82df0b	0.015975496
22	0xbcc8f0ee	-0.024528947
23	0xbd322306	-0.043490432
24	0xbd93c08f	-0.07214462
25	0x3d06125b	0.03273235
26	0xbb533067	-0.0032224895
27	0xbd9e0ed0	-0.07717669
28	0xbd610d98	-0.054944605
29	0xbd1cb241	-0.038255934
30	0xbda57817	-0.08079546
31	0xbc42db26	-0.011893069
32	0xbd05e9d1	-0.032693688
33	0xbd3e1d54	-0.04641469
34	0xbcaac5ce	-0.020846274
35	0x3db0b4e3	0.086282514
36	0xbd93186a	-0.07182391
37	0xbda1aeba	-0.078946546
38	0x3c04be3f	0.008101999
39	0xbd8e1540	-0.06937647
40	0xbc1f4a27	-0.009722269
41	0xbc67373d	-0.014112291
42	0xbd65619b	-0.056001287
43	0x3c21d373	0.009877074
44	0x3d14d314	0.036334112
45	0xbd60145d	-0.05470692
46	0xbcf464a9	-0.029833155
47	0x3cd961d3	0.026535904
48	0x3b8a084e	0.004212416
49	0xbd8412ef	-0.06448924
50	0xbd14de10	-0.036344588
51	0x3b6a2603	0.0035728223
52	0x3d0f6f5c	0.03501831
53	0xbcd56962	-0.026051227
54	0x3d4e0186	0.05029442
55	0x3dad4e53	0.08462205
56	0x3c534d3b	0.012896831
57	0x3ce7c221	0.02829081
58	0xbd3f9849	-0.04677609
59	0xbd4ebd2d	-0.05047338
60	0x3c96f96d	0.018429482
61	0xbcb05417	-0.021524472
62	0x3d92157c	0.07133004
63	0xbc5d3636	-0.013501694
64	0xbd1d174e	-0.038352303
65	0x3cf07426	0.029352259
66	0xbcec7b5c	-0.028867416
67	0xbdaa4fc3	-0.083159946
68	0xbcdedcac	-0.027204834
69	0xbd996708	-0.07490355
70	0xbda5eff8	-0.08102411
71	0xbc48664c	-0.012231421
72	0xbd12318c	-0.035691783
73	0xbce57dac	-0.028014027
74	0xbd687635	-0.056753356
75	0x3c53aaa4	0.012919102
76	0xbd35ba4e	-0.044367127
77	0xbd32741a	-0.043567754
78	0xbd1fb924	-0.038994923
79	0xbd8580f8	-0.065187395
80	0xbcbf225d	-0.023331815
81	0xbd56b665	-0.05242004
82	0xbd58f285	-0.05296566
83	0x3d62a2d2	0.05533106
84	0xbce65891	-0.028118404
85	0xbd004771	-0.03131813
86	0xbd8a55c6	-0.06754641
87	0xbc04af62	-0.008098455
88	0xbda1890a	-0.07887466
89	0x3cfa9f62	0.030593578
90	0xbcdadb37	-0.026715858
91	0x3d415cf3	0.047207784
92	0xbd21da66	-0.03951492
93	0xbd68b330	-0.05681151
94	0xbd1ee0ae	-0.03878849
95	0xbd693537	-0.056935515
96	0xbd8a05a1	-0.06739355
97	0x3cbbf981	0.022946121
98	0xbd7d798d	-0.061883498
99	0xb8468a52	-4.73357e-05
100	0xbcdc2bb1	-0.026876302
101	0x3d64e611	0.05588347
102	0x3d66b296	0.056322657
103	0xbd8aacc2	-0.06771232
104	0x3d44aa17	0.048013773
105	0xbd794dac	-0.06086509
106	0xbda9a3ec	-0.08283219
107	0x3d6f6d41	0.058453802
108	0xb9dce48c	-0.0004213195
109	0xbd673344	-0.056445375
110	0x3d3a4b2e	0.045481853
111	0x3d93a92a	0.0721
112	0x3d3064e0	0.043064952
113	0x3d746f89	0.05967668
114	0xbccfbdde	-0.02535909
115	0x3c08a387	0.008339769
116	0xbd9751bf	-0.07388639
117	0x3d048aa4	0.03235878
118	0x3d2b57b3	0.041831683
119	0x3d7c6649	0.061620984
120	0x3d76f683	0.060293686
121	0xbd301cf5	-0.042996366
122	0x3d09afb5	0.033614833
123	0x3d18ee7c	0.03733681
124	0x3c0901a1	0.008362205
125	0xbd8b6fa8	-0.06808406
126	0x3d494b69	0.049144182
127	0xbd61202f	-0.054962333
128	0x3d8bb0cf	0.06820833
129	0x3ca5e08c	0.020248674
130	0x3d4a2680	0.049353123
131	0xbd38a437	-0.045078482
132	0xbd5f2e5f	-0.054487582
133	0xbd43fbb7	-0.047847476
134	0xbcf91c5c	-0.03040903
135	0x3cc13356	0.02358405
136	0x3c927d6d	0.017882073
137	0xbcc165d2	-0.023608122
138	0x3ce54687	0.027987732
139	0x3d155e94	0.03646715
140	0xbd8415c7	-0.06449466
141	0xbd96275c	-0.07331726
142	0x3d2370f2	0.039902635
143	0x3d06c0f9	0.032898877
144	0x3a99399b	0.0011690141
145	0xbd0a2a53	-0.03373177
146	0xbda03d73	-0.078242205
147	0xbc533e48	-0.012893267
148	0x3d638ac2	0.05555225
149	0xbd9ebb2f	-0.07750546
150	0x3d86c1da	0.06579943
151	0xbc8de96b	-0.017323216
152	0x3cc61ab0	0.024182647
153	0xbcd8c66c	-0.026461802
154	0xbd8c1ca0	-0.06841397
155	0x3cc051e4	0.023476548
156	0xbd32023d	-0.043459166
157	0xbd838b68	-0.06423074
158	0x3d77d3a5	0.060504574
159	0xbc74a359	-0.014931523
160	0x3d48c07f	0.049011704
161	0xbdb2649f	-0.08710598
162	0xbd75fb52	-0.06005413
163	0x3da92f47	0.082609706
164	0xbc6012e3	-0.013676378
165	0xbda7c3a5	-0.08191613
166	0xbd92bc3e	-0.071648106
167	0xbca95968	-0.020672515
168	0xbd8f1175	-0.069857515
169	0x3d989d54	0.07451883
170	0x3d8be576	0.068308756
171	0xbc21efc0	-0.009883821
172	0xbdab9a7b	-0.08379074
173	0xbdb0253d	-0.08600853
174	0xbd282892	-0.041054316
175	0xbdab33c0	-0.0835948
176	0x3d3bd604	0.045858398
177	0xbb26b477	-0.0025437155
178	0x3bd3c937	0.0064631957
179	0xbbfbe1b1	-0.0076868166
180	0x3cabd134	0.02097378
181	0x3c8e3ab4	0.017361976
182	0xbc534efd	-0.01289725
183	0x3ab2179b	0.0013587357
184	0x3d0d4b4b	0.034495633
185	0x3d326679	0.043554757
186	0xbcd6f286	-0.026238691
187	0xbcc1877c	-0.023624174
188	0xbc97b3ba	-0.018518317
189	0xbd94d0c2	-0.0726638
190	0xbd1d8470	-0.03845638
191	0x3d8a8b7a	0.06764884
192	0x3db488a2	0.08815123
193	0xbd7d9cd8	-0.061917156
194	0x3d2ea7fb	0.042640667
195	0x3d001149	0.031266484
196	0xbd8cf55d	-0.06882737
197	0xbca70bf8	-0.02039145
198	0x3cc66126	0.024216246
199	0x3c119966	0.008886671
200	0xbc702a4c	-0.014658522
201	0x3da35be0	0.07976508
202	0xbc3aa3a5	-0.011391555
203	0x3c6e4424	0.014542613
204	0x3d9c4882	0.07631017
205	0x3d9e4f57	0.077299766
206	0xba0f4219	-0.00054648664
207	0x3d87c77a	0.06629844
208	0xbda89969	-0.08232386
209	0x3d1a3af3	0.037653875
210	0xbc6ed932	-0.014578151
211	0x3d9361f2	0.07196416
212	0xbd04f6ae	-0.032461815
213	0xbd326481	-0.04355288
214	0x3c354591	0.011063949
215	0xbc937b13	-0.018003022
216	0xbb96dd3a	-0.004604009
217	0xbd951aa8	-0.07280475
218	0xbc020838	-0.00793653
219	0xbc8c5a00	-0.01713276
220	0xbd657bbf	-0.056026217
221	0xbb89f8d7	-0.004210572
222	0xbcb52259	-0.022111105
223	0x3d811379	0.06302542
224	0xbda7d34c	-0.081945986
225	0x3d935682	0.071942344
226	0xbd9acfcd	-0.07559166
227	0x3db5d685	0.08878807
228	0xbdb7f199	-0.08981628
229	0xbd0a34a0	-0.033741593
230	0xbd85f500	-0.06540871
231	0x3ca82c3e	0.020528909
232	0xbd62666d	-0.055273462
233	0xbd93fcea	-0.07225974
234	0x3d3cb4ab	0.046070736
235	0x3b78d577	0.0037969032
236	0x3da0a4f0	0.07843959
237	0x3d84e8d1	0.06489719
238	0xbd6fb51d	-0.058522332
239	0x3c3af541	0.011411012
240	0xbce9fcdc	-0.028562956
241	0xbd6cdb03	-0.057826053
242	0x3c4301ef	0.0119023165
243	0x3ccf8e11	0.025336297
244	0x3d835d86	0.064143226
245	0x3cb80ef3	0.022468066
246	0xbd4ce327	-0.050021317
247	0x3aa4064f	0.0012514087
248	0x3d82e019	0.063903995
249	0xbda6266d	-0.08112798
250	0x3da3de6c	0.08001408
251	0xbd8368dc	-0.06416485
252	0x3d323260	0.043505073
253	0x3d02f1cb	0.031968873
254	0x3da8b347	0.082373194
255	0x3cb885fd	0.022524828

fc3.bias f4 [32]
0	0xbd946adc	-0.07246944
1	0x3d8f583f	0.069992535
2	0xbd774a82	-0.06037379
3	0x3dc9adcc	0.09847602
4	0xbb977c37	-0.004622962
5	0xbd206006	-0.039154075
6	0x3c68f740	0.014219105
7	0x3c7ae2ae	0.015312834
8	0x3b5919fc	0.003312706
9	0xbc216a69	-0.00985203
10	0x3c66065b	0.014039601
11	0xbd684479	-0.056705926
12	0x3e013ff9	0.1262206
13	0xbd15e5ce	-0.036596112
14	0x3e5aa9fe	0.2135391
15	0xbcd44ac1	-0.025914552
16	0x3c7a3f0e	0.0152738225
17	0x3e2a60aa	0.16638437
18	0xbd2417f3	-0.040061902
19	0x3e20f777	0.157194
20	0xbd791134	-0.06080742
21	0x3c85a96f	0.016316144
22	0x3a815ce9	0.0009869608
23	0xbca7c272	-0.020478461
24	0xbcbfcabd	-0.023412103
25	0x3cb7c604	0.022433288
26	0x3d4b1615	0.049581606
27	0xbd0cd553	-0.03438313
28	0xbd4b4c68	-0.049633414
29	0x3d598a76	0.053110562
30	0xbd1e6ee2	-0.038679965
31	0x3c5bbab2	0.013411211

fc4.weight f4 [2, 32]
0	0xbe074327	-0.1320921
1	0x3c55f95a	0.013059938
2	0x3d6ffa3d	0.058588255
3	0x3e0160a7	0.12634526
4	0x3e22446c	0.15846413
5	0x3dfb7b5b	0.122793876
6	0xbc171a33	-0.009222555
7	0xbe0ee41c	-0.13954204
8	0xbdf4cfe8	-0.119537175
9	0xbdea7f72	-0.114500895
10	0xbd84a2ce	-0.06476365
11	0xbde01685	-0.10941795
12	0x3e999f17	0.30004188
13	0x3d9e8f6b	0.077421986
14	0x3eedd526	0.46451682
15	0xbe403f13	-0.18774061
16	0xbe968798	-0.29400325
17	0x3ed29b55	0.41134134
18	0xbe0eec2f	-0.13957284
19	0x3df2ab40	0.118490696
20	0x3e009d2f	0.12559961
21	0xbd8b9ecc	-0.068173975
22	0xbd88fd13	-0.06688895
23	0xbe95328f	-0.29140136
24	0xbe037d4d	-0.12840767
25	0xbd29f092	-0.04148919
26	0xbe1fef27	-0.15618573
27	0xbe0fc076	-0.14038262
28	0xbe0955ce	-0.13411638
29	0xbef7063a	-0.48246938
30	0xbd465c84	-0.048428074
31	0xbef8f390	-0.48623323
32	0xbc876e35	-0.016532043
33	0xbc3188d8	-0.010835849
34	0x3d914ab5	0.07094327
35	0xbe8fafbe	-0.28063768
36	0x3dfc3904	0.12315562
37	0x3e344965	0.17606123
38	0x3c97e686	0.01854254
39	0x3e0d2fda	0.13787785
40	0x3d41a364	0.047274962
41	0xbe43b571	-0.19112183
42	0xbde28bd4	-0.11061826
43	0xbe17ca34	-0.14823228
44	0xbe9a053b	-0.30082116
45	0x3e4ad309	0.19807066
46	0xbebcee71	-0.36900666
47	0x3e9a9745	0.30193534
48	0x3e14f804	0.14547735
49	0xbe669414	-0.22517425
50	0x3df0281f	0.117264025
51	0xbe30f68e	-0.17281553
52	0x3d45491f	0.048165437
53	0xbd994988	-0.07484728
54	0x3e883ecd	0.26610413
55	0x3eb0e01b	0.3454598
56	0x3d9baf78	0.076018274
57	0x3e325d71	0.17418458
58	0x3d4a3053	0.04936249
59	0xbe4eeb0a	-0.20206848
60	0xbe1ec8f8	-0.15506351
61	0x3f11575e	0.56773937
62	0x3e99c8f9	0.30036142
63	0x3eecd68f	0.46257445

fc4.bias f4 [2]
0	0x3e25d93c	0.1619615
1	0xbec0a680	-0.3762703
