ligand_model/DNN_FC0002_ModelR02-RDKit2D-PCC_SFSforward4_batchsize-16_optim-adam_lr-0.005/train3.model (torch, 5711 bytes, 8 tensors)

fc1.weight f4 [32, 4]
-0.45648003 -0.18155178 -0.033967126 0.022501377 -0.5608297 0.06308574 0.23321345 -0.0016471049
0.29648972 0.7300473 0.16499598 0.39449137 0.17102994 0.7887901 0.008909175 -0.16323152
0.50865084 -0.5255711 -0.23736852 -0.35415494 0.2517901 0.6000647 0.031153157 -0.09112969
-0.1417145 -0.5496759 0.28914496 0.37444076 -0.6292721 -0.25007993 0.38458353 0.047157865
0.4691319 0.5174213 0.11462444 0.61173004 -0.6946702 -0.023303151 0.40532374 -0.06504862
-0.5188691 -0.3718059 0.07743364 -0.13655174 -0.5551444 -0.27158 0.2554731 -0.0030159634
-0.7641937 -0.1346938 -0.13149449 -0.28836155 0.10087517 0.7916399 -0.38956073 -0.33638015
-0.68428516 -0.06696716 0.10503586 -0.63062245 -0.46323404 -0.11434488 0.29680923 -0.09975171
0.10916706 0.6350504 -0.28781414 0.69153905 0.6691606 -0.0032862204 -0.27034262 -0.110017054
-0.6331633 -0.13109367 -0.014504583 0.37012622 0.17689343 0.5864081 0.051285457 -0.21937431
0.6157379 -0.42272797 0.1909219 -0.09047987 0.3651877 -0.055628262 -0.3405437 0.8346025
-0.008790801 -0.29903927 0.28844935 -0.16640233 -0.6178249 -0.0759641 -0.11267492 -0.15172966
0.044564135 0.51866245 -0.22533448 0.4864263 0.15678763 0.66534925 -0.219934 -0.22097294
-0.40241224 -0.007136691 0.2509427 -0.28605196 0.5324106 0.54179114 0.037788276 0.9178316
-0.10031419 0.34866917 -0.24056028 0.07520864 0.23214863 0.74292654 -0.00500445 0.9291363
0.049511608 0.52349764 0.03985305 0.5680364 -0.43444362 -0.15753184 0.296866 -0.0230573
00000000: c0b7 e9be b6e8 39be 1d21 0bbd cf54 b83c
00000010: 8992 0fbf 1933 813d 82cf 6e3e abe3 d7ba
00000020: 80cd 973e 61e4 3a3f b5f4 283e c6fa c93e
00000030: 7922 2f3e 26ee 493f caf7 113c 2a26 27be
00000040: f136 023f d48b 06bf bc10 73be cc53 b5be
00000050: a2ea 803e d79d 193f e834 ff3c 34a2 babd
00000060: 9b1d 11be 8fb7 0cbf cf0a 943e b3b6 bf3e
00000070: fa17 21bf 7a0a 80be 22e8 c43e 9b28 413d
00000080: 0e32 f03e b975 043f 38c0 ea3d 579a 1c3f
00000090: e8d5 31bf 40e6 bebc 9886 cf3e 3638 85bd
000000a0: 9bd4 04bf 585d bebe 8795 9e3d 38d4 0bbe
000000b0: f21d 0ebf 890c 8bbe 5fcd 823e 78a7 45bb
000000c0: 33a2 43bf 2ced 09be 7ea6 06be 20a4 93be
000000d0: a497 ce3d eaa8 4a3f 8174 c7be 053a acbe
000000e0: 502d 2fbf 1426 89bd 0a1d d73d 7970 21bf
000000f0: 032d edbe a62d eabd 61f7 973e a04a ccbd
00000100: fb92 df3d aa92 223f 605c 93be b408 313f
00000110: 1c4e 2b3f a15d 57bb 596a 8abe 9f50 e1bd
00000120: fd16 22bf 6b3d 06be a1a4 6dbc 2f81 bd3e
00000130: 8d23 353e d71e 163f b310 523d a9a3 60be
00000140: 00a1 1d3f cd6f d8be 0881 433e 834d b9bd
00000150: e2f9 ba3e 76da 63bd be5b aebe 82a8 553f
00000160: 4b07 10bc ad1b 99be a2af 933e 5f65 2abe
00000170: c629 1ebf 1193 9bbd 1cc2 e6bd 055f 1bbe
00000180: e288 363d 10c7 043f 15be 66be de0c f93e
00000190: f08c 203e 5454 2a3f 6136 61be bb46 62be
000001a0: fa08 cebe e7da e9bb 907b 803e 6775 92be
000001b0: 104c 083f d3b2 0a3f e1c7 1a3d 03f7 6a3f
000001c0: 8771 cdbd c484 b23e 6f55 76be fd06 9a3d
000001d0: 5fb8 6d3e 6f30 3e3f 5ffc a3bb e0db 6d3f
000001e0: afcc 4a3d f103 063f f43c 233d d56a 113f
000001f0: 656f debe 0750 21be d2fe 973e aae2 bcbc

fc1.bias f4 [32]
-0.33419588 0.16488287 -0.3659185 -0.2398672 -0.47741303 0.20072284 -0.7685169 -0.32704842
-0.63525116 0.020739466 -0.60182774 -0.40090036 -0.34041572 -0.096530184 -0.1904562 -0.17103043
-0.188168 0.27272937 -0.19306089 0.10524074 -0.6659035 0.17945418 0.15889789 -0.21981606
-0.07430185 -0.004813701 0.042050738 -0.75197136 0.07139124 0.16170967 0.046259537 -0.029480174
00000000: b91b abbe 0ed7 283e ab59 bbbe bf9f 75be
00000010: 7b6f f4be 4a8a 4d3e 86bd 44bf e472 a7be
00000020: d29f 22bf d0e5 a93c 6211 1abf d042 cdbe
00000030: f84a aebe 9eb1 c5bd f306 43be 9a22 2fbe
00000040: 1daf 40be 2fa3 8b3e c1b1 45be 7588 d73d
00000050: a778 2abf d6c2 373e 21b6 223e 7617 61be
00000060: 912b 98bd 40bc 9dbb 653d 2c3d 3281 40bf
00000070: 9235 923d 3897 253e a47a 3d3d 6880 f1bc

fc2.weight f4 [16, 32]
0.22163726 0.04473632 -0.08586247 0.03231934 -0.23075654 -0.06734165 0.12669252 0.08067842
-0.45140556 0.095749855 0.30362976 0.2825142 0.27439478 -0.43831462 0.225295 0.06401863
-0.5164579 -0.3336823 0.050079826 -0.12784825 0.26602876 -0.4057372 0.034883615 0.41204888
-0.49050957 -0.55420285 0.15886651 -0.014458319 -0.025928948 -0.32250378 -0.07515648 -0.0668919
-0.0748244 -0.024295928 -0.26964545 -0.16545913 0.26480824 -0.05626878 -0.61439764 -0.115089074
-0.19950587 -0.13699038 -0.36435977 -0.44112492 -0.15920874 -0.115066245 -0.22558688 -0.024557726
0.050517492 0.20635158 -0.117043495 0.043531846 0.31227913 0.3340813 -0.0446419 -0.33361912
-0.07263213 -0.16958492 -0.060184494 -0.36815482 -0.16474652 -0.118952624 -0.025758265 -0.21961816
0.16720828 0.04582715 -0.33657146 -0.46284166 0.10735872 -0.45509258 0.4326786 0.15562935
-0.41286415 0.31415796 0.6062837 0.06492476 0.29106686 -0.3966811 0.16771775 0.11507255
-0.35630915 -0.4856205 0.2356992 -0.44617864 0.4820086 -0.18126562 0.0034650231 0.057555817
-0.19016695 -0.43986237 -0.011242202 0.027753437 0.2143935 -0.45995343 -0.44087237 0.015867889
-0.1879243 -0.028819906 0.060871467 -0.0030261676 -0.0043113176 0.07601557 -0.2292583 -0.18182899
0.22993834 -0.28956923 -0.20081504 -0.17444654 -0.4019653 0.21860984 -0.37617904 -0.19528499
0.22412178 0.11672428 -0.10960244 0.12206234 -0.16028942 0.15574744 0.1037796 -0.11620333
0.055254508 0.2322654 -0.13440104 0.20554538 0.057063013 -0.062227182 -0.14636935 0.07308144
-0.02035177 -0.2008318 0.16691561 0.024659721 -0.3703701 0.20418164 0.026423926 -0.35737303
0.25558233 -0.18571305 -0.074338235 -0.37414023 -0.12814328 -0.046736646 -0.27765626 -0.28534484
0.20274119 -0.0039299615 -0.0072729317 0.26695573 -0.34185293 -0.12824368 -0.37154165 -0.042648863
0.0330831 -0.040455814 -0.43514404 0.5683358 0.092777036 0.10598964 0.068084136 -0.15248331
0.09147884 0.21379401 -0.43484348 -0.14711003 -0.4823556 -0.30522704 0.41534626 0.4347219
-0.55913275 -0.10643707 0.5040809 0.2769136 0.23442397 -0.36236343 0.2619478 0.07624585
-0.37975156 -0.5960577 0.24415937 -0.119392455 0.38766167 -0.35023382 0.19895379 0.30667806
-0.3358851 -0.34093896 0.21483856 -0.12877303 0.10803838 -0.33397174 -0.13366796 0.15273765
-0.11639426 -0.027285565 0.2631031 -0.07298824 -0.3559592 0.11717215 0.05630929 -0.23826236
0.30351663 -0.16250023 -0.1988581 -0.36570463 -0.18587954 0.0796816 -0.3670667 -0.41518843
0.008737836 -0.087971926 0.047985967 0.101929 -0.43281338 -0.0024183122 -0.1498937 -0.10327604
0.08547722 0.150939 -0.17755678 0.47359124 0.061847318 0.07219566 0.3661259 -0.22721907
-0.053923715 -0.087701075 0.21055509 0.13310392 -0.26303825 -0.21115893 -0.060672536 -0.22602214
0.22713049 -0.11952609 -0.12979634 -0.035302795 -0.1920313 0.13730285 -0.04672324 -0.16323358
0.38848978 0.013849497 -0.055822857 0.04682182 -0.3699374 0.1408907 -0.13003765 -0.16462128
0.31212118 0.3237918 -0.07956891 0.6280313 0.039095182 0.1948606 0.31344756 -0.10885808
00000000: e1f4 623e 6e3d 373d aad8 afbd 4961 043d
00000010: 714b 6cbe 6bea 89bd afbb 013e ba3a a53d
00000020: a11e e7be 8018 c43d 5c75 9b3e b4a5 903e
00000030: 797d 8c3e c66a e0be bcb3 663e 331c 833d
00000040: 9636 04bf 68d8 aabe 8120 4d3d a7ea 02be
00000050: ec34 883e c9bc cfbe 1fe2 0e3d 12f8 d23e
00000060: 1224 fbbe 3de0 0dbf e7ad 223e 96e2 6cbc
00000070: f268 d4bc 371f a5be a4eb 99bd 9ffe 88bd
00000080: 893d 99bd 4108 c7bc f80e 8abe 1e6e 29be
00000090: f294 873e 187a 66bd 2a49 1dbf d2b3 ebbd
000000a0: 444b 4cbe 3547 0cbe 5d8d babe 20db e1be
000000b0: 9e07 23be daa7 ebbd 3f00 67be 492d c9bc
000000c0: 6eeb 4e3d d44d 533e 80b4 efbd 734e 323d
000000d0: 0de3 9f3e b40c ab3e 6dda 36bd 20d0 aabe
000000e0: 27c0 94bd aba7 2dbe 0484 76bd ca7e bcbe
000000f0: 50b3 28be 6f9d f3bd ff02 d3bc 95e3 60be
00000100: a638 2b3e 40b5 3b3d 1853 acbe 95f9 ecbe
00000110: e3de db3d e501 e9be 0d88 dd3e 4d5d 1f3e
00000120: ee62 d3be 50d9 a03e 6935 1b3f 46f7 843d
00000130: b706 953e c919 cbbe 34be 2b3e 28ab eb3d
00000140: 276e b6be 40a3 f8be 225b 713e 8771 e4be
00000150: d5c9 f63e b29d 39be 7115 633b a6bf 6b3d
00000160: 20bb 42be a435 e1be 3631 38bc 2d5b e33c
00000170: f889 5b3e 047f ebbe 06ba e1be 60fd 813c
00000180: 3a6f 40be b917 ecbc 5c54 793d ab52 46bb
00000190: f445 8dbb 0dae 9b3d b0c2 6abe 6131 3abe
000001a0: f574 6b3e 6b42 94be 75a2 4dbe 1da2 32be
000001b0: 65ce cdbe 42db 5f3e 8a9a c0be caf8 47be
000001c0: 2e80 653e 240d ef3d 3e77 e0bd d2fb f93d
000001d0: e922 24be 427c 1f3e 668a d43d 03fc edbd
000001e0: 8d52 623d fbd6 6d3e 6da0 09be 7d7a 523e
000001f0: e8ba 693d eee1 7ebd d9e1 15be b9ab 953d
00000200: c1b8 a6bc daa6 4dbe edeb 2a3e 2f03 ca3c
00000210: 26a1 bdbe fe14 513e fd76 d83c 99f9 b6be
00000220: b0db 823e 902b 3ebe a53e 98bd 4f8f bfbe
00000230: fe37 03be ed6e 3fbd f628 8ebe b818 92be
00000240: 639b 4f3e e8c6 80bb c651 eebb 6cae 883e
00000250: 5907 afbe 5052 03be b53a bebe 93b0 2ebd
00000260: 2582 073d ffb4 25bd 33cb debe 747e 113f
00000270: e301 be3d 1911 d93d b26f 8b3d 9624 1cbe
00000280: 4259 bb3d d1ec 5a3e cea3 debe 03a4 16be
00000290: 50f7 f6be b846 9cbe 44a8 d43e de93 de3e
000002a0: 5323 0fbf aefb d9bd 720b 013f 9fc7 8d3e
000002b0: d60c 703e b387 b9be 061e 863e c926 9c3d
000002c0: cc6e c2be 3d97 18bf ea04 7a3e 0884 f4bd
000002d0: 977b c63e d951 b3be 8bba 4b3e e804 9d3e
000002e0: 22f9 abbe 8d8f aebe a4fe 5b3e 14dd 03be
000002f0: 3a43 dd3d 58fe aabe 41e0 08be 4267 1c3e
00000300: 1d60 eebd fa85 dfbc 73b5 863e dc7a 95bd
00000310: 4940 b6be f4f7 ef3d 92a4 663d 0cfb 73be
00000320: 8866 9b3e 7666 26be 75a1 4bbe a33d bbbe
00000330: 3557 3ebe 1b30 a33d 2bf0 bbbe 9493 d4be
00000340: 2429 0f3c a02a b4bd ef8c 443d 27c0 d03d
00000350: b799 ddbe 8c7c 1ebb bc7d 19be 6382 d3bd
00000360: ae0e af3d c18f 1a3e 72d1 35be 8d7a f23e
00000370: 9d53 7d3d 51db 933d db74 bb3e 1eac 68be
00000380: 1ddf 5cbd 9f9c b3bd c19b 573e 654c 083e
00000390: f3ac 86be 0c3a 58be c483 78bd 5972 67be
000003a0: e594 683e 18ca f4bd 55e9 04be aa99 10bd
000003b0: daa3 44be 1e99 0c3e de60 3fbd b426 27be
000003c0: 22e8 c63e 00e9 623c 82a6 64bd 3dc8 3f3d
000003d0: 6f68 bdbe a745 103e 9728 05be 7b92 28be
000003e0: 59ce 9f3e 0ac8 a53e 06f5 a2bd a9c6 203f
000003f0: 4522 203d 8a89 473e 337c a03e fcf0 debd

fc2.bias f4 [16]
0.029546909 0.19578142 0.037876435 0.16193582 0.049732972 0.028953303 0.083442695 0.03359848
0.25018942 0.09832691 0.22004066 0.2396283 -0.025343826 0.13103786 -0.094039455 -0.05620564
00000000: 5c0c f23c ed7a 483e 5224 1b3d 81d2 253e
00000010: cdb4 4b3d 7a2f ed3c 01e4 aa3d 8f9e 093d
00000020: d418 803e 9e5f c93d 5752 613e 1f61 753e
00000030: db9d cfbc ca2e 063e c297 c0bd e337 66bd

fc3.weight f4 [8, 16]
-0.49135587 -0.27383682 -0.5666328 0.03891014 0.071442194 -0.10291865 0.23672713 0.20195618
0.062285293 0.25651535 0.17163913 0.07502803 0.101892054 0.20979814 -0.3663005 0.18912369
0.05717436 -0.3247774 0.16268659 -0.673108 -0.24435435 0.32453367 -0.087768346 -0.30436218
-0.43908754 -0.53535235 -0.4400556 -0.53340113 0.05174223 -0.0037185925 0.21745284 -0.45681024
-0.15891145 0.016257828 -0.16127178 0.045135986 -0.22375464 -0.010806234 -0.12812023 0.039285652
0.053071246 -0.055911403 0.08749968 -0.07757858 0.2291957 -0.16011508 -0.26429054 -0.15906201
-0.57446635 0.06457652 -0.38908187 -0.055972993 0.40155342 -0.36902845 0.0825758 0.07314751
-0.053444605 -0.19335724 0.29506734 0.22939013 0.1833686 -0.23124522 -0.32869062 0.39174676
-0.38655755 -0.1803482 -0.5134877 0.12035359 0.010407131 -0.36647537 -0.004751476 0.081588715
0.13086559 0.26722515 0.23319477 0.044540934 0.19384298 0.2081744 -0.40338713 0.09631632
-0.15391321 0.15941934 -0.11319615 0.016673904 0.08092339 -0.2490991 0.28877103 -0.16350918
0.04281829 0.18308388 -0.46736872 -0.056967735 0.16297616 0.115092106 -0.54849714 0.30442515
0.16384456 -0.00832305 -0.058923844 -0.2244002 -0.15374509 0.14414051 -0.11281519 -0.020866314
-0.36255163 0.0010743833 -0.12485838 -0.08468265 -0.40140355 -0.127252 0.14483556 -0.05914127
0.11949349 -0.7365936 0.19184631 -0.75925815 -0.035671443 -0.6155958 -0.38158044 -0.31209043
-0.0066365637 -0.3158259 -0.50618756 -0.32528108 -0.116549596 -0.57034874 0.30144042 -0.16662298
00000000: ff92 fbbe 5734 8cbe d90e 11bf 3d60 1f3d
00000010: 4950 923d 03c7 d2bd 9968 723e 9acd 4e3e
00000020: dd1e 7f3d fb55 833e 2bc2 2f3e 4ca8 993d
00000030: c8ac d03d 53d5 563e bd8b bbbe a4a9 413e
00000040: a92f 6a3d 3949 a6be 5097 263e ce50 2cbf
00000050: 0738 7abe 4729 a63e e4bf b3bd 5cd5 9bbe
00000060: 15d0 e0be da0c 09bf f84e e1be fa8c 08bf
00000070: a9ef 533d a1b3 73bb f5ab 5e3e 08e3 e9be
00000080: afb9 22be 232f 853c 6e24 25be 83e0 383d
00000090: f01f 65be a10c 31bc f331 03be fee9 203d
000000a0: 3c61 593d 5b03 65bd 0833 b33d 85e1 9ebd
000000b0: 47b2 6a3e 35f5 23be 1751 87be 27e1 22be
000000c0: 3a10 13bf b240 843d bd35 c7be f043 65bd
000000d0: 6998 cd3e 4cf1 bcbe 801d a93d 5dce 953d
000000e0: bbe8 5abd 71ff 45be 1113 973e 3fe5 6a3e
000000f0: fac4 3b3e 8ccb 6cbe 234a a8be 0893 c83e
00000100: dfea c5be 33ad 38be ee73 03bf f17b f63d
00000110: ac82 2a3c a9a2 bbbe 45b2 9bbb fc17 a73d
00000120: a101 063e bcd1 883e 9cca 6e3e 8e70 363d
00000130: c67e 463e ab2b 553e c288 cebe 7e41 c53d
00000140: 6d9b 1dbe d33e 233e 62d3 e7bd b697 883c
00000150: 2abb a53d d613 7fbe ccd9 933e f36e 27be
00000160: 3b62 2f3d 577a 3b3e f44a efbe 0057 69bd
00000170: 39e3 263e 69b5 eb3d 4f6a 0cbf 9ddd 9b3e
00000180: dec6 273e 675d 08bc 215a 71bd 2bc9 65be
00000190: 5a6f 1dbe 9299 133e a60b e7bd d5ef aabc
000001a0: 5ea0 b9be 52d2 8c3a c0b5 ffbd 196e adbd
000001b0: c484 cdbe 594e 02be c64f 143e 1e3e 72bd
000001c0: 01b9 f43d 6691 3cbf 5c73 443e be5e 42bf
000001d0: 381c 12bd b097 1dbf 835e c3be 51ca 9fbe
000001e0: 8877 d9bb efb3 a1be 8295 01bf 3e8b a6be
000001f0: 8eb1 eebd 6002 12bf 6656 9a3e 379f 2abe

fc3.bias f4 [8]
0.27110755 0.37158406 -0.24269338 0.3806832 0.36806294 0.19305716 0.10171791 0.34290874
00000000: 9cce 8a3e 4440 be3e 9d84 78be e9e8 c23e
00000010: bf72 bc3e c7b0 453e 7b51 d03d bc91 af3e

fc4.weight f4 [2, 8]
-0.26378757 0.21868941 0.11377565 0.040274825 -0.37772748 -0.08660331 0.08108691 0.57184386
0.17868619 -0.37874842 0.10856451 0.39419007 0.03268138 0.0931073 -0.118111156 -0.07914669
00000000: 2a0f 87be 1ef0 5f3e 3503 e93d 37f7 243d
00000010: 7f65 c1be 145d b1bd e510 a63d 5c64 123f
00000020: 83f9 363e 50eb c1be 1257 de3d 48d3 c93e
00000030: e9dc 053d 0aaf be3d 43e4 f1bd a917 a2bd

fc4.bias f4 [2]
-0.11016892 0.055235866
00000000: 3ea0 e1bd 013f 623d
