ligand_model/DNN_FC0002_ModelR02-RDKit2D-PCC_SFSforward4_batchsize-16_optim-adam_lr-0.005/train2.model (torch, 5711 bytes, 8 tensors)

fc1.weight f4 [32, 4]
00000000: ba37 54bf 928f 9cbe 49cb 9d3e c81b 5fbc
00000010: 4ca6 46bf 2126 b8bd 38ba d43e 1b26 5d3d
00000020: 4eae 073f 503f 56bf ff76 a3be fa2b e4bb
00000030: 5462 6c3e 241d 083f f27f 58bc 6005 723f
00000040: 0caa 9a3e 0741 993e 9987 11be 6256 403f
00000050: b40d 7f3e 3b9c 073f 19c1 2bbc 5540 353f
00000060: b2da 39bf f6b3 5fbe 7c74 573e 2761 853d
00000070: 8ec4 86bd 942e 81be eee5 513e 39a2 943e
00000080: be91 1abf 93f4 1bbe 39a4 dabd 2808 4a3d
00000090: 6edb 803e cf91 243f 164b 4e3e ae63 523f
000000a0: 8271 8c3e 7a8e 153f b86d 043d 5e7f 423e
000000b0: b820 59bf 84df 16be c49c 56bd ab76 6bbe
000000c0: cc0c 9c3e cdca 263f 34ef a03e ebec 9e3e
000000d0: fd42 d03e 5cb3 16bf 6d8f 49be 39bd 00bd
000000e0: 2c24 b83d c505 d53e 8fb0 c4bd 63ec 893e
000000f0: 9bb5 e23e 9203 ccbd c2fd 22be e1d0 ac3e
00000100: 871a 13bf 8c58 bbbe 1826 383e a01f 3e3e
00000110: 6f9b 1dbf 69e7 03bf 35e6 b5bc ee6c 263e
00000120: 0876 973e ec7e 233f d61e 2ebe d3a8 f13e
00000130: da34 f83e 7d37 23bf 36ae 78be 6634 183e
00000140: d324 c7be 0b3d 353f 2f88 a93e 8a64 eebc
00000150: b509 8b3e edf7 043f def8 fb3d 1fdb 5a3f
00000160: 9b6e 47bf 4e74 39be fad8 31be 3643 353d
00000170: 13f9 7bbf 0de8 75be 0b78 913e 6a75 2a3e
00000180: 852d e83e 97c4 1cbf 3960 af3e af77 d5bc
00000190: 79d2 503e 9af1 003f 6dc8 b7bd 5a7c 873f
000001a0: 46c2 ce3e 0b9f 213f e26b 43be 58c0 bd3e
000001b0: 43b6 2ebf ecae debe 05f0 d63e c404 4fbe
000001c0: c14d 123f d8d6 1abf a1d6 8ebe 544a ae3c
000001d0: 4cf3 35bf 9680 07be 9e72 3fbe dd37 f43e
000001e0: fcd1 8f3e a712 b93e b468 b8bd 1205 34be
000001f0: e1b0 003f 3e37 a0bd 8951 a1be 18df a73e
-0.8289753 -0.30578285 0.30819157 -0.013617463 -0.775975 -0.089916475 0.41548324 0.05399142
0.5300034 -0.8369036 -0.31926724 -0.00696325 0.23084384 0.53169465 -0.013214098 0.9453945
0.3020786 0.29932424 -0.14211883 0.7513181 0.24907571 0.52972764 -0.01048305 0.7080129
-0.7259933 -0.21845993 0.21040529 0.06512671 -0.065804586 -0.2523085 0.20497867 0.29030016
-0.60378635 -0.15230016 -0.10675854 0.049324185 0.25167412 0.64284986 0.2014583 0.8218335
0.2743035 0.58420527 0.0323312 0.18993899 -0.8481555 -0.14733702 -0.052395597 -0.22994487
0.30478513 0.651532 0.31432498 0.3104013 0.40676108 -0.5886743 -0.19683619 -0.031430457
0.08991274 0.41605964 -0.096039884 0.2693816 0.4427918 -0.099616185 -0.15917113 0.33753112
-0.5746235 -0.36590993 0.17983282 0.18566751 -0.615653 -0.5152498 -0.022204498 0.16252491
0.29582238 0.6386554 -0.1700395 0.47199115 0.48477823 -0.63756543 -0.24285206 0.14863738
-0.38895282 0.7079627 0.33111712 -0.029100675 0.27155843 0.51940805 0.12303327 0.854906
-0.77903146 -0.18110773 -0.17367926 0.04425355 -0.9842693 -0.24014302 0.28411898 0.16646352
0.4534723 -0.6123747 0.342531 -0.026058046 0.20392789 0.50368655 -0.08973775 1.0584824
0.40382594 0.63133305 -0.19084123 0.3706081 -0.6824686 -0.4349283 0.41979995 -0.20216662
0.57149893 -0.60484076 -0.27898124 0.021275677 -0.71074367 -0.13232645 -0.18696067 0.4769887
0.28089893 0.36147043 -0.090043455 -0.17580059 0.50269896 -0.078230366 -0.3150752 0.32787395

fc1.bias f4 [32]
00000000: 8ba6 06be 45b2 d6bd 2b5a c9be 50eb e4be
00000010: dd36 763c 02ec fbbd 9bdf d9bd e40f d7be
00000020: 2f1f b2be 06bb 49bd 2df9 0cbf d422 a1be
00000030: 5b6e ccbe f454 b7be 3908 62be 266a 803a
00000040: 41b0 893b 7b29 65bf b646 7fbd f303 c0be
00000050: 41c6 1cbf 7091 0b3e cae1 c6be 0483 54be
00000060: a6ce 5bbe 22b8 9fbe 5483 0bbd 51b2 0abf
00000070: 685c 36be ca7b 7dbe 0be1 c73d 4787 6fbd
-0.13149469 -0.10483221 -0.39326605 -0.4471078 0.015027729 -0.12300874 -0.106383525 -0.4200431
-0.34789416 -0.049250625 -0.5506771 -0.31471884 -0.39927945 -0.35807002 -0.22073449 0.000979726
0.0042019193 -0.8951642 -0.062323295 -0.37503013 -0.6124001 0.13629699 -0.38844138 -0.20753103
-0.21465549 -0.3119517 -0.03406079 -0.5417834 -0.17808688 -0.24754253 0.097597204 -0.05847862

fc2.weight f4 [16, 32]
00000000: af73 c5be f9d7 05bf 5fb2 0dbf 4506 983e
00000010: c436 8ebc 808c 043e 06ba 70be ab56 9abe
00000020: 44e0 a9be dff1 153d cbad db3e 7a29 e4be
00000030: 2c29 313e eb76 1abf be71 9c3d 7d83 3c3d
00000040: 907d 4cbe 4a12 b7bd fd5f 143e fce2 08bf
00000050: ceae 0ebe ff8c 16bd e971 7abe e1b1 0fbf
00000060: 6136 f1be f56a 343e 0213 0a3e 6ba7 dfbd
00000070: 4601 8cbe a8c4 e0be 7a8c bb3e ce3f 02bb
00000080: 8019 c83e 5027 713e f3f7 e5ba d20c fabe
00000090: d269 0ebf e919 a8be b12f b13e 7682 633e
000000a0: 87e1 0e3f 52b9 33bf d945 8fbe ba7e e73e
000000b0: dd10 a4bd 49fb 0d3b fde0 b4bd fe80 eebe
000000c0: 420d 263e b5ab a53f 92e1 a3be 7b09 80be
000000d0: 2c28 81be 3114 eebd fe8b a93e 47fd 203e
000000e0: 2a79 683e 1c70 53be d46a 18be ad5e e93e
000000f0: 3242 c8be aed5 f13d f4d4 bbbe 8d0a 99be
00000100: 1778 a53e d2b7 e43d 4657 0dbe 73c8 bbbe
00000110: 3d6b 30be b77d a7be f20b edbd c986 a73d
00000120: 6c44 c93e 0048 2fbe 0916 103c e85c d33e
00000130: f1c3 c4bd 0a15 983d eeb3 28bf 9840 87be
00000140: d220 1cbe 79b6 693f ded8 f9be 9296 c33d
00000150: 136d 02bd ccfe 08bf ae50 d23e de5d 013f
00000160: 77bd afbe 5a5f 0dbe 6ce4 10bf 7abe df3e
00000170: 37a9 f2bc e69b 83bd 32f5 9bbe ff74 12bf
00000180: 45d9 9bbe 5a8a d5be d2df fcbe d857 293f
00000190: 1665 df3d 77ea a33e 46e4 9ebe fdc4 b1be
000001a0: 653d 73bd a736 293e 7247 b33e 2559 b2be
000001b0: 5fef 8a3e 3cb0 cbbe f65c 053e 141f a93d
000001c0: 8829 71bd 220b 5ebe e9a2 513e d9df dfbe
000001d0: b616 25be 46d7 c3bd 3adc c9be 757b 0cbf
000001e0: 6985 cabe f485 6a3e 814b a83c ddc2 8bbe
000001f0: dc33 a1be e53e 92bd 86e1 8e3e 69ba a2bd
00000200: 0cca 903e 4280 b03e e82b b1be 43ac 48be
00000210: ee01 40be 4fd9 fbbb 3aa3 903e 134c bcbe
00000220: 0cab 463e 533e 8abd c881 9bbd 21f4 b23d
00000230: 106f dd3d bc30 cdbe a050 3abd 8e45 e5be
00000240: 20ce 903e 9f17 ed3e 9195 b3be 8d86 b7be
00000250: 1de7 f2be 59bd 26be cd7d a23e 3432 bf3c
00000260: 4c79 55be 339d 39be 639a 69be d085 debe
00000270: 0888 cbbe 1eb4 b83e 61a1 043e 30e4 0cbf
00000280: a115 443e 4f5d 0b3e 40cf aebe 0d03 b2be
00000290: 32f0 7ebe fbbf edbd bdc4 3e3e d58d 0c3e
000002a0: 4138 643e 71a3 09bf c155 5cbe d1a9 8c3d
000002b0: 38c2 1cbe f415 05bf b947 f7bd c5f1 87be
000002c0: f374 143e 9288 ae3e 3b98 acbe a2d7 9ebe
000002d0: 3a00 a0be 7b66 5cbe d568 8c3e c041 963e
000002e0: 85e7 10be db98 a7bc 1a1c 81be 14f6 98be
000002f0: 83b2 643c da0c bc3e 26ff 5bbe ef94 7ebe
00000300: b2ff c4be 514c e8be 32cc c8be 48b3 b63e
00000310: 446c 023e 1104 703e c597 e4be 73f8 50be
00000320: 0943 2cbe 72c2 803d 6078 033f 03e6 f0be
00000330: c92d 7f3e 5d8d bfbe 9b00 613d 84e8 293d
00000340: 0de4 2ebe 154d 04be fb55 133e 7923 3bbf
00000350: 1c5d 72be 18bd 923d 86c2 c4be 358d f9be
00000360: 5c83 23bf 1711 c5bd a39d a0bc 539d b7be
00000370: 4949 65be 7d06 b4be 7be0 833b f0b7 1b3d
00000380: a67b 773d d509 893e e944 92be 066f 1cbf
00000390: 977f 823d 50dc 03be 91cf 9a3c ec72 c3ba
000003a0: ad90 983e c211 f8be 3591 fcbe 3a80 ea3d
000003b0: 9c4a b7be 0009 ffbe b2a5 b3be 8966 a1be
000003c0: 4204 f73d 0c10 233f 3457 54be 5439 e5bd
000003d0: bc5c d4be fc47 8ebe e944 d93e f19a 1cbe
000003e0: 9758 e7be e7c9 24bf 88f6 cdbe 4485 dc3d
000003f0: cb1f e3be e148 e13d de42 77be d15d c6be
-0.38564822 -0.52282673 -0.553503 0.29692283 -0.017360099 0.12944221 -0.23508462 -0.30144247
-0.33178914 0.03660762 0.4290603 -0.44562894 0.17300862 -0.60337704 0.07638882 0.046023834
-0.19969773 -0.08939035 0.14489742 -0.5347135 -0.1393387 -0.036755558 -0.24457516 -0.56130797
-0.471118 0.17618926 0.13483813 -0.10920604 -0.27344722 -0.43900037 0.36630613 -0.0019874456
0.39081955 0.23550153 -0.0017545208 -0.48837906 -0.5563022 -0.32832268 0.34606698 0.22217736
0.5581288 -0.7020465 -0.27982977 0.45213872 -0.08011029 0.002166467 -0.088319756 -0.46582788
0.16215995 1.2943026 -0.32008034 -0.25007233 -0.2522596 -0.11624945 0.33114618 0.15721618
0.2270247 -0.20648235 -0.14884502 0.45580044 -0.39113003 0.11808334 -0.36685908 -0.29890862
0.32318184 0.111678734 -0.13802823 -0.36676368 -0.17228408 -0.327131 -0.11574544 0.08180005
0.39310014 -0.1711731 0.008794316 0.4128182 -0.09607685 0.07425888 -0.6589955 -0.2641647
-0.15246895 0.91294056 -0.4879827 0.095502034 -0.031842303 -0.5351379 0.4107718 0.50533855
-0.34324238 -0.13805905 -0.56598544 0.4370001 -0.029621704 -0.0642622 -0.30460507 -0.5720977
-0.304392 -0.41707116 -0.4938951 0.66149664 0.109079525 0.3201482 -0.31033534 -0.34720603
-0.059384722 0.16524754 0.35015446 -0.34833637 0.2713575 -0.39782894 0.13023743 0.08257881
-0.058877498 -0.21683934 0.20472302 -0.4372547 -0.16121945 -0.095625445 -0.39425832 -0.5487588
-0.3955491 0.22902662 0.020543816 -0.27297106 -0.31484878 -0.071409024 0.27906436 -0.07945711
0.2827915 0.34472853 -0.3460381 -0.19596963 -0.18750736 -0.0076858173 0.28249532 -0.3677679
0.19401187 -0.06750169 -0.07593113 0.0873797 0.10812199 -0.40076244 -0.045487046 -0.4477963
0.2828226 0.46307084 -0.35075048 -0.35844842 -0.4744195 -0.16283168 0.31736603 0.023339368
-0.20847052 -0.18126373 -0.228128 -0.43461466 -0.3975222 0.36074919 0.12952186 -0.55035686
0.19148876 0.13609813 -0.34142494 -0.34767953 -0.24896315 -0.11608883 0.18629737 0.1372598
0.22287084 -0.53765017 -0.21517088 0.068683274 -0.15308464 -0.5198662 -0.12074227 -0.26551643
0.14497738 0.3408857 -0.33709893 -0.3102389 -0.31250173 -0.21523468 0.2742373 0.29347038
-0.14150818 -0.02045863 -0.25216752 -0.29875243 0.013958576 0.36728555 -0.2148405 -0.24861501
-0.3847633 -0.45370725 -0.3921829 0.35683656 0.12736613 0.23439051 -0.4464704 -0.20407276
-0.16822447 0.062870875 0.5135555 -0.47050485 0.2491981 -0.3741254 0.054932218 0.04148151
-0.17079182 -0.1292003 0.14388268 -0.73101 -0.23668331 0.07164973 -0.3842966 -0.48740545
-0.63872313 -0.096224 -0.019606417 -0.35862216 -0.22391237 -0.351612 0.004024563 0.038017213
0.060420655 0.26765314 -0.285682 -0.6110691 0.06371992 -0.12877011 0.018897804 -0.0014911569
0.2979788 -0.48451048 -0.49329534 0.114502385 -0.3579911 -0.49811554 -0.35087353 -0.3152354
0.12061359 0.6369636 -0.2073639 -0.11192575 -0.41477 -0.27789295 0.42435387 -0.1529348
-0.45184776 -0.6437058 -0.4022715 0.10767606 -0.44360194 0.11000229 -0.24146602 -0.3874345

fc2.bias f4 [16]
00000000: 44b0 743e 59c6 35bd 3706 82bd ed10 fb3d
00000010: cf4e f43c ed71 16bd 44e7 653e 9f3c 653e
00000020: 7874 5c3e 0af2 753d c4c3 663b b426 123e
00000030: 26b4 853d e2e0 6c3e 9a1c 513e 6cf6 6bbd
0.23895365 -0.044378612 -0.06348842 0.12259088 0.029822735 -0.03672974 0.22451502 0.22386406
0.21528804 0.06004528 0.00352119 0.14272577 0.06528501 0.23132661 0.20421067 -0.057608053

fc3.weight f4 [8, 16]
00000000: 3771 eebd cd3b f0bd 9b48 d0be 63f3 0c3d
00000010: 7d1e e0bd ff33 813e 4206 66be c9f4 273e
00000020: 9035 6e3c ed78 e13d 5a99 893d 5260 7fbe
00000030: 4ea9 a9be 0fcb 1fbe 1e09 03be 5592 c5be
00000040: d533 40be c9f0 53bc 47d9 1d3e f30d fdbd
00000050: 39b7 25bf 548d 7bbe a853 89be c572 cd3e
00000060: 7f98 153e 9c16 26be 0b91 2bbe 95a4 bebe
00000070: d21d b6be ee8d 30be 4c62 ef3d e92d 3fbe
00000080: 7d5e bebe 8a68 773e ee97 373d 2e66 86be
00000090: 6494 943d d64f 303e 2d0d 0ebf 4b6b 103e
000000a0: c1cc d23e 6785 843e 43f9 ee3d 1c0d 21bf
000000b0: 2fd5 56bf a0b1 933e f339 27bf b6b9 7cbf
000000c0: 8df0 78bd 1eea d7be 6e7f 58be 3b51 7c3e
000000d0: b0e0 00bf a009 b6be a28c c43d bdd4 d1be
000000e0: be00 22be 04a9 38bc 3535 4cbf f7de 5abe
000000f0: 488d 34be 4193 a5be 791d 6b3e 2fc9 ecbd
00000100: c325 b83e 2eef d1be ee15 a8be 75a6 fc3d
00000110: c5c5 e1be 5836 16bf c714 7a3e bfb2 d3be
00000120: a498 8ebe 0359 0b3d 1e82 053d ce37 da3e
00000130: 8161 473e 092b 27bf 1fce 833e 7069 5fbd
00000140: dfea 1f3e 17da ecbe 750e e23d 7143 033d
00000150: 361f 553e 8e55 5dbd 87ae 6fbe 30d9 da3c
00000160: b0a4 0b3e a7ce 65be 21d8 8bbd e14c 1ebe
00000170: 786b 83be 9527 babd 2f43 a6be e7d0 79be
00000180: c35a 703d b7b7 09be 57b9 b2bd ded6 02bf
00000190: c22b 35be 52bd a93c 05c6 1b3e b441 43be
000001a0: 9508 e9bd b15a 2abe 9485 95be 8178 99be
000001b0: e493 c3bc c423 b13c 854c a43d ceea 23be
000001c0: 3b4d fc3c c4cf 87be db33 9dbe e29b 8b3e
000001d0: cddb 4abe fbdb b5bd 14bb a63d ff7d f5bd
000001e0: ea1b 12bd 31e3 6e3e 9c02 4f3c 64c3 313d
000001f0: 9b32 323e 8f4c a2be 80f5 6cbe 9079 953e
-0.11642688 -0.11730156 -0.40680394 0.0344118 -0.10943315 0.25234982 -0.22463325 0.16401972
0.0145391375 0.11009393 0.067187026 -0.24939087 -0.33136982 -0.15604804 -0.12796447 -0.38588205
-0.18769772 -0.012935826 0.15414916 -0.12356176 -0.647327 -0.24565631 -0.26821637 0.40126625
0.14608954 -0.16219562 -0.16754548 -0.3723494 -0.35569626 -0.17241642 0.116886705 -0.18669857
-0.37181464 0.24160972 0.044822626 -0.26249832 0.07254866 0.17217955 -0.55488855 0.14103429
0.4117184 0.25883028 0.11668637 -0.6291063 -0.8391904 0.28846455 -0.653228 -0.9872087
-0.060776282 -0.42170805 -0.2114236 0.24640362 -0.50342846 -0.35554218 0.09597136 -0.4098262
-0.15820596 -0.011270765 -0.7976869 -0.21374117 -0.1763202 -0.32338908 0.22960462 -0.1156181
0.3596631 -0.41002792 -0.3282923 0.12336437 -0.440962 -0.5867667 0.24421988 -0.4134731
-0.2785083 0.034020435 0.032594793 0.426207 0.19470789 -0.6530004 0.25743195 -0.054543912
0.1561694 -0.4626014 0.11037914 0.03204674 0.20812687 -0.05403667 -0.2340642 0.026714891
0.13637042 -0.22442113 -0.06828333 -0.15459014 -0.2566793 -0.09089581 -0.32473132 -0.24396096
0.058680307 -0.13448988 -0.08726757 -0.5110911 -0.17692474 0.020720158 0.15212257 -0.19068033
-0.1137859 -0.16636159 -0.29203475 -0.2997475 -0.02387423 0.0216235 0.080224074 -0.1600754
0.030798545 -0.265257 -0.30703625 0.27267367 -0.1981041 -0.088798486 0.08141151 -0.119869225
-0.035671152 0.23328854 0.0126348995 0.04339923 0.17402117 -0.31699035 -0.23140526 0.29194307

fc3.bias f4 [8]
00000000: b572 1cbd b24a 15be d5c5 933e 704b 193f
00000010: b457 3b3f 5586 babe b7c1 01be 9bf6 833e
-0.03819533 -0.14579275 0.2886187 0.59880733 0.731807 -0.36430612 -0.12671553 0.25774083

fc4.weight f4 [2, 8]
00000000: d49b f13d 2071 843e ec68 3bbd 5042 16be
00000010: 9a8d b7be 7408 e0bd 3549 623e db27 acbe
00000020: e9ce 7d3d e299 9e3d cc6b cdbe 125f b63e
00000030: b334 043f b7a3 83be 8043 493e 59da 77bc
0.117973 0.25867558 -0.04575436 -0.14673734 -0.3585022 -0.10939112 0.22098239 -0.33624157
0.061964903 0.077441946 -0.40121305 0.35619408 0.5164291 -0.25710842 0.19654655 -0.015127742

fc4.bias f4 [2]
00000000: eefd f53d d7f5 f9bd
0.12011324 -0.12205093
