ligand_model/DNN_FC0002_ModelR02-RDKit2D-PCC_SFSforward4_batchsize-16_optim-adam_lr-0.005/train5.model (torch, 5711 bytes, 8 tensors)

fc1.weight f4 [32, 4]
0.38314754 0.38099 -0.639282 -0.56974393 -0.40407535 0.60982364 -0.016342988 0.0855837
0.16471948 0.5737555 0.13307822 0.6240852 -0.798171 -0.110315524 -0.13592921 -0.016647525
0.3486272 -0.4539224 -0.23227622 -0.4014641 0.5641964 -0.61733794 0.40879568 0.046632104
-0.38360843 -0.15330255 0.22061807 0.08957537 -0.71755785 -0.16829291 0.08894421 -0.18027541
-0.7576914 0.018241595 -0.3240995 -0.2720632 0.22143263 0.4339228 -0.79854184 -0.385561
0.6718549 -0.43283972 0.2633262 -0.005417483 0.33652934 0.68193614 -0.020579 0.2641049
-0.48409954 -0.4984997 0.2984242 -0.13581218 0.16644655 0.48967275 0.0013085816 0.58456993
-0.022081396 -0.4303422 -0.047244813 -0.17626955 -0.14333041 -0.039803676 -0.11090136 0.71734625
0.55715203 -0.3251516 -0.34929657 0.44115186 0.2386631 0.57595825 0.16174854 0.45756426
0.25958768 0.74430037 0.22258621 0.31023288 0.03495351 0.6143881 -0.37827563 -0.41949362
0.5157831 0.027603593 -0.41828927 0.4580054 0.28100535 0.19961174 -0.31482306 -0.3528521
-0.6356595 0.06008293 -0.3164076 -0.02028095 -0.7457721 -0.02260871 -0.5464052 -0.72065103
0.034856785 0.8273692 0.14811264 0.20053858 0.3107067 0.6280641 0.18652241 0.07925918
-0.048110735 -0.49879006 0.3708547 0.11392053 0.1545101 0.87067956 0.20116417 0.23889352
-0.67545325 -0.21210605 0.016353942 -0.2614298 0.118415326 0.3277484 -0.39318484 -0.29524997
0.07822811 -0.42171186 0.0103867045 0.17391779 -0.6638643 -0.15420042 0.020746607 0.10489275
00000000: ea2b c43e 1f11 c33e fca7 23bf bdda 11bf
00000010: f7e2 cebe 671d 1c3f bbe1 85bc 8246 af3d
00000020: 39ac 283e a4e1 123f a845 083e 0cc4 1f3f
00000030: ef54 4cbf 1bed e1bd 0731 0bbe 6460 88bc
00000040: 447f b23e 8468 e8be d1d9 6dbe b48c cdbe
00000050: 2d6f 103f dc09 1ebf ab4d d13e 4e01 3f3d
00000060: 5368 c4be 58fb 1cbe b4e9 613e 4b73 b73d
00000070: dfb1 37bf fa54 2cbe 6228 b63d 1e9a 38be
00000080: 10f8 41bf 666f 953c 5ff0 a5be de4b 8bbe
00000090: 3cbf 623e 212b de3e 3d6d 4cbf 4068 c5be
000000a0: affe 2b3f 2b9d ddbe b1d2 863e 2485 b1bb
000000b0: 934d ac3e 5e93 2e3f 4a95 a8bc c238 873e
000000c0: e5db f7be 5a3b ffbe 0fcb 983e 5912 0bbe
000000d0: f770 2a3e 63b6 fa3e b684 ab3a 60a6 153f
000000e0: 0be4 b4bc d055 dcbe c783 41bd 0180 34be
000000f0: 35c5 12be 2e09 23bd 4120 e3bd 01a4 373f
00000100: 84a1 0e3f 457a a6be 00d7 b2be a8de e13e
00000110: 1a64 743e 0072 133f 69a1 253e dd45 ea3e
00000120: ade8 843e 788a 3e3f a4ed 633e d8d6 9e3e
00000130: 692b 0f3d 8a48 1d3f 58ad c1be dec7 d6be
00000140: 5c0a 043f ee20 e23c 032a d6be af7f ea3e
00000150: efdf 8f3e 0567 4c3e 7d30 a1be 08a9 b4be
00000160: 95ba 22bf 8519 763d 2d00 a2be 3c24 a6bc
00000170: ecea 3ebf e735 b9bc 36e1 0bbf 967c 38bf
00000180: fdc5 0e3d 78ce 533f d7aa 173e fc59 4d3e
00000190: f314 9f3e cfc8 203f bbff 3e3e a352 a23d
000001a0: c30f 45bd 6961 ffbe abe0 bd3e 2b4f e93d
000001b0: e537 1e3e dbe4 5e3f fbfd 4d3e 81a0 743e
000001c0: 81ea 2cbf 5432 59be b4f8 853c 20da 85be
000001d0: bc83 f23d a3ce a73e 864f c9be 012b 97be
000001e0: 0f36 a03d 9eea d7be ff2c 2a3c 8117 323e
000001f0: 03f3 29bf b7e6 1dbe caf4 a93c 03d2 d63d

fc1.bias f4 [32]
-0.0450991 -0.5019761 -0.2596951 -0.20809114 -0.48984376 -0.50893706 0.18702386 -0.25159642
-0.099371806 -0.054819677 -0.39192322 0.21396469 -0.7570591 0.079590745 -0.09590426 -0.47316936
0.09647757 -0.43030593 -0.29215 -0.14902541 0.21684976 0.0016363584 -0.10383487 -0.17828736
-0.06981127 -0.47788772 -0.512637 -0.16603942 -0.15845144 0.006171718 0.30270204 -0.030704288
00000000: d5b9 38bd 8181 00bf c2f6 84be d815 55be
00000010: cdcc fabe b349 02bf 2f83 3f3e 3fd1 80be
00000020: 7283 cbbd 998a 60bd 29aa c8be 8f19 5b3e
00000030: a0ce 41bf 7900 a33d 7469 c4bd 4143 f2be
00000040: 0896 c53d 0f51 dcbe af94 95be 1e9a 18be
00000050: dd0d 5e3e 147b d63a 60a7 d4bd f690 36be
00000060: 36f9 8ebd b3ad f4be 2e3c 03bf 3d06 2abe
00000070: 1841 22be 1f3c ca3b c3fb 9a3e 8f87 fbbc

fc2.weight f4 [16, 32]
0.11780689 -0.15147558 -0.09080584 -0.29719195 0.002398037 -0.27509436 0.010240971 -0.2857663
-0.09794287 0.25694278 -0.2797645 -0.15535538 -0.19045177 0.103384614 0.15342364 0.28901497
-0.18871567 0.36980563 0.31463805 0.14731938 -0.014377126 -0.039723843 -0.3164087 -0.18629998
0.105900675 0.41974145 -0.33882803 0.055376053 -0.37957814 -0.1465021 0.13851501 -0.11115184
0.22496757 0.024171898 0.13397056 -0.21650413 -0.27720815 -0.25669512 -0.05101014 -0.24471833
-0.25193822 -0.1783724 -0.38734332 0.08136165 -0.29378366 0.25893903 0.23118383 0.2111895
0.12262928 0.40847966 0.42989203 0.36789855 0.11105521 0.049439047 -0.23673554 -0.16661909
0.0040593413 0.40697047 -0.039466023 0.017264731 -0.1813192 0.24316707 0.12937807 -0.2271782
-0.4019373 -0.107875556 -0.13125794 0.36511526 -0.2063811 -0.46823114 0.014784815 0.068201065
0.10054732 -0.386462 0.08691617 -0.24000514 0.45166755 -0.3219006 0.06456397 -0.0491739
-0.1864862 -0.36373624 -0.37628108 -0.102465756 -0.2996154 -0.017999692 0.19804955 0.22448538
-0.18273544 -0.1257341 -0.103970535 -0.23433813 0.08483772 0.027217265 -0.0009129598 0.16893396
0.12097051 -0.0022923218 0.22353922 -0.14140253 -0.15101472 -0.38252413 0.0008851461 -0.09820568
-0.085548885 0.20231953 -0.34035453 0.05632902 -0.1880791 0.053659767 -0.22070959 0.009245322
0.077344336 0.39729887 0.3641818 0.34027076 0.019852262 0.21187006 -0.04534168 -0.09743825
0.14827523 0.23456557 -0.21361434 -0.04889233 -0.20461684 0.25719792 -0.19491829 -0.15622403
-0.23932563 -0.31639734 -0.15506694 0.1821288 -0.2932441 0.048525415 0.10409756 0.13116135
0.3137633 -0.29336062 0.16617353 -0.22871542 0.23632662 -0.29439133 -0.15519278 -0.14847824
-0.3110582 -0.1649921 -0.19798706 -0.6396913 -0.43249273 -0.20731114 0.29107088 0.017298212
-0.03368073 -0.20755059 0.4074135 -0.16518229 0.1433361 -0.1623792 0.03479578 0.24630381
-0.20572492 -0.084183656 -0.09965407 -0.109899774 -0.20718318 -0.114587955 -0.19862853 -0.014386359
-0.19956943 -0.22793399 0.0013966468 -0.0018351981 -0.2124246 -0.05116426 -0.10959408 0.06040489
0.002734727 -0.10778854 -0.15082835 0.0037090972 -0.0755018 -0.13385586 -0.07192126 -0.14136648
-0.21804903 -0.19603284 -0.13263364 -0.0859028 0.05112494 -0.060109496 -0.16018844 -0.20545575
-0.17251296 0.034978263 0.07721076 -0.17705554 -0.32522032 -0.28625667 0.17507048 0.034772996
-0.028850826 0.55040896 -0.1265472 -0.052351832 -0.04564045 -0.021380968 -0.16550681 0.078518905
0.049920835 -0.110497326 0.33303908 -0.07414982 0.066489 -0.1385794 -0.44911927 -0.16327524
0.2962333 0.20228744 -0.4332763 0.21051556 -0.22431935 0.037417624 -0.37936145 -0.15083842
-0.20790015 -0.18950161 -0.08327601 0.33897793 -0.053103745 0.13696867 0.08040174 0.20263354
0.23328997 -0.08753237 0.23639028 -0.11426562 0.35231712 -0.32700798 -0.00030982736 -0.046948552
-0.10893057 -0.082514405 -0.25337583 -0.40391994 -0.23258315 -0.48116404 -0.0051862723 0.12292261
-0.12723915 -0.18371046 0.12944795 -0.2482137 0.121659696 -0.0288071 0.17870846 0.11116575
00000000: bd44 f13d 6a1c 1bbe 6af8 b9bd 8b29 98be
00000010: 6228 1d3b 2bd9 8cbe bfc9 273c f64f 92be
00000020: 4596 c8bd 018e 833e 4b3d 8fbe 7b15 1fbe
00000030: ca05 43be 50bb d33d 161b 1d3e c5f9 933e
00000040: ae3e 41be 2a57 bd3e 3d18 a13e e4da 163e
00000050: 098e 6bbc 78b5 22bd 5200 a2be 6cc5 3ebe
00000060: 74e2 d83d 5ae8 d63e de7a adbe 00d2 623d
00000070: 1158 c2be a604 16be e1d6 0d3e 93a3 e3bd
00000080: e65d 663e 2504 c63c 942f 093e 42b3 5dbe
00000090: 3aee 8dbe 8b6d 83be 02f0 50bd 7197 7abe
000000a0: 0cfe 80be 41a7 36be dd51 c6be f0a0 a63d
000000b0: d06a 96be a893 843e 74bb 6c3e 0f42 583e
000000c0: 0f25 fb3d 3f24 d13e cf1a dc3e 335d bc3e
000000d0: ea70 e33d 9980 4a3d cd6a 72be 329e 2abe
000000e0: 3904 853b 6f5e d03e 20a7 21bd c46e 8d3c
000000f0: beab 39be ca00 793e af7b 043e 67a1 68be
00000100: baca cdbe dced dcbd 7b68 06be 63f0 ba3e
00000110: 9155 53be febb efbe 023c 723c 00ad 8b3d
00000120: c1eb cd3d 59de c5be 1b01 b23d e8c3 75be
00000130: f840 e73e 28d0 a4be 1d3a 843d 926a 49bd
00000140: 3df6 3ebe a33b babe eaa7 c0be 91d9 d1bd
00000150: 3167 99be 1774 93bc 80cd 4a3e 7fdf 653e
00000160: 001f 3bbe 71c0 00be 81ee d4bd 56f6 6fbe
00000170: 66bf ad3d bef6 de3c b253 6fba 06fd 2c3e
00000180: 63bf f73d c73a 16bb 77e7 643e d3cb 10be
00000190: 9aa3 1abe 34da c3be 2609 683a 0f20 c9bd
000001a0: 4134 afbd da2c 4f3e f342 aebe 42b9 663d
000001b0: cf97 40be 58ca 5b3d b201 62be b179 173c
000001c0: b566 9e3d c26a cb3e 0976 ba3e f837 ae3e
000001d0: 36a1 a23c 77f4 583e 33b8 39bd b58d c7bd
000001e0: 76d5 173e f531 703e b8bd 5abe 5343 48bd
000001f0: 1487 51be 72af 833e a998 47be 31f9 1fbe
00000200: c711 75be d5fe a1be dec9 1ebe f97f 3a3e
00000210: 1724 96be 96c2 463d 1a31 d53d 294f 063e
00000220: 95a5 a03e 5d33 96be 6529 2a3e 6034 6abe
00000230: 9bff 713e 76ba 96be dbea 1ebe ae0a 18be
00000240: 0543 9fbe b0f3 28be 1fbd 4abe cfc2 23bf
00000250: b06f ddbe 5f49 54be 3e07 953e fbb4 8d3c
00000260: cef4 09bd 2488 54be 8198 d03e 8c25 29be
00000270: b3c6 123e bc46 26be 0586 0e3d 1137 7c3e
00000280: 8ea9 52be 7b68 acbd 6f17 ccbd 2213 e1bd
00000290: d427 54be 17ad eabd 4765 4bbe c3b4 6bbc
000002a0: ee5b 4cbe 8767 69be b10f b73a 088b f0ba
000002b0: d685 59be 9d91 51bd dc72 e0bd 1e6b 773d
000002c0: 1b39 333b 3dc0 dcbd bf72 1abe 5314 733b
000002d0: b0a0 9abd 8311 09be 744b 93bd 60c2 10be
000002e0: 3f48 5fbe d5bc 48be 1dd1 07be cfed afbd
000002f0: 6368 513d 6035 76bd 7008 24be fe62 52be
00000300: 3da7 30be 5e45 0f3d ad20 9e3d 0c4e 35be
00000310: 4783 a6be 3c90 92be ad45 333e 216e 0e3d
00000320: 9158 ecbc 9ae7 0c3f 9795 01be e06e 56bd
00000330: 7bf1 3abd 2427 afbc 9e7a 29be 85ce a03d
00000340: ca79 4c3d 6c4c e2bd 1984 aa3e dcdb 97bd
00000350: 632b 883d c2e7 0dbe f6f2 e5be a031 27be
00000360: e4ab 973e 7024 4f3e 64d6 ddbe 6491 573e
00000370: f9b3 65be 3943 193d aa3b c2be 6375 1abe
00000380: c7e3 54be b60c 42be 9d8c aabd 848e ad3e
00000390: 5083 59bd 8441 0c3e aba9 a43d 2b7f 4f3e
000003a0: 91e3 6e3e 2c44 b3bd 4b10 723e 1804 eabd
000003b0: e962 b43e 976d a7be 5370 a2b9 204d 40bd
000003c0: fe16 dfbd 50fd a8bd 7aba 81be 98ce cebe
000003d0: 472a 6ebe 225b f6be 9bf1 a9bb d9be fb3d
000003e0: fb4a 02be 981e 3cbe 018e 043e bb2b 7ebe
000003f0: b828 f93d defc ebbc 5aff 363e deaa e33d

fc2.bias f4 [16]
0.15102667 0.1400084 0.12072262 0.22007926 0.17325239 -0.039233983 0.07034106 -0.047554754
0.096086584 0.122766376 -0.20373124 -0.011390919 0.25490585 -0.3529751 0.094976954 0.13973758
00000000: bca6 1a3e 5d5e 0f3e 6c3d f73d 755c 613e
00000010: 1369 313e d0b3 20bd f90e 903d c6c8 42bd
00000020: 0bc9 c43d f06c fb3d ec9e 50be faa0 3abc
00000030: 0583 823e 27b9 b4be 4783 c23d 5e17 0f3e

fc3.weight f4 [8, 16]
-0.12270788 -0.15036823 0.20059295 -0.26679128 0.24442707 -0.0634998 -0.14801152 0.25095093
0.042386793 -0.5708203 0.02299588 -0.33506307 -0.29285482 0.10576458 0.35065606 -0.27418342
0.011687993 -0.08535597 0.035202187 -0.09573772 -0.0108253 0.25019524 0.21166751 -0.18057537
0.032618675 -0.1483213 -0.21847703 -0.23701729 -0.2966609 -0.14526305 -0.055682227 0.19721623
-0.145506 -0.3568014 -0.02781315 0.06017491 -0.38832185 0.18832919 0.037726656 -0.34963852
0.13708672 -0.11816181 0.12730467 0.1007065 0.30570066 0.2959875 -0.27116132 0.27055195
0.13658816 -0.047915794 -0.23032947 -0.46658015 0.08958846 0.11918336 0.1127357 -0.062113106
0.20129004 0.3859273 0.040559143 0.12132352 0.1185219 -0.02912014 -0.20765845 0.09178216
0.14084391 -0.0038304655 -0.26550007 0.049377423 -0.14508933 -0.07549623 0.3642034 -0.31984735
0.30645454 0.28002888 -0.04183284 0.31017876 0.23836361 0.09229423 -0.25723696 0.289921
0.016658131 -0.16655764 -0.28097817 0.07185492 -0.2003744 0.156633 0.29317224 -0.13908269
0.0023171771 0.32132614 0.06338558 0.28997514 0.21434817 0.25778717 -0.12566245 -0.20377089
-0.21253516 -0.05567913 -0.20061918 -0.23272645 -0.19434577 0.12185865 0.099155985 0.1205128
-0.023433315 -0.16145507 0.032419115 -0.18850349 0.09916451 -0.15338014 -0.040962953 -0.050870344
0.2677022 0.3348022 -0.3075983 0.3264641 -0.3605217 -0.13196129 -0.031939737 -0.32165328
0.22160567 0.09465043 -0.10294623 -0.0003132291 0.14467125 -0.1438946 -0.3456366 0.31402317
00000000: 454e fbbd 21fa 19be 3d68 4d3e de98 88be
00000010: 174b 7a3e 2f0c 82bd 5590 17be a47c 803e
00000020: c69d 2d3d 4721 12bf db61 bc3c 638d abbe
00000030: 11f1 95be 1a9b d83d 3189 b33e c561 8cbe
00000040: ff7e 3f3c 1ccf aebd 2b30 103d 2312 c4bd
00000050: 995c 31bc 9719 803e 5ebf 583e c0e8 38be
00000060: 299b 053d 8ae1 17be 71b8 5fbe a9b4 72be
00000070: f0e3 97be d6bf 14be 0c13 64bd 0df3 493e
00000080: 86ff 14be acae b6be 67d8 e3bc f779 763d
00000090: 1fd2 c6be 5ed9 403e 4487 1a3d d203 b3be
000000a0: 7660 0c3e d2fe f1bd 285c 023e 363f ce3d
000000b0: cc84 9c3e ac8b 973e a8d5 8abe c985 8a3e
000000c0: c4dd 0b3e 5a43 44bd 7ddb 6bbe 98e3 eebe
000000d0: 287a b73d 6816 f43d fae1 e63d 506a 7ebd
000000e0: fa1e 4e3e 4398 c53e 5821 263d 7778 f83d
000000f0: 9cbb f23d 5c8d eebc 6ba4 54be 49f8 bb3d
00000100: 6339 103e 8c08 7bbb a0ef 87be fb3f 4a3d
00000110: 4c92 14be c49d 9abd de78 ba3e 08c3 a3be
00000120: 9ce7 9c3e f25f 8f3e e958 2bbd c0cf 9e3e
00000130: 9715 743e c204 bd3d 90b4 83be 8670 943e
00000140: a276 883c 168e 2abe 5fdc 8fbe ac28 933d
00000150: f22e 4dbe 6764 203e ac1a 963e b16b 0ebe
00000160: c8db 173b dc84 a43e 4dd0 813d 9f77 943e
00000170: 167e 5b3e aefc 833e a8ad 00be 51a9 50be
00000180: d1a2 59be cd0f 64bd 1d6f 4dbe d84f 6ebe
00000190: 9402 47be 0791 f93d 4b12 cb3d 6acf f63d
000001a0: 39f7 bfbc 7a54 25be e8c9 043d 0f07 41be
000001b0: c316 cb3d af0f 1dbe c5c8 27bd 6c5d 50bd
000001c0: 4310 893e 326b ab3e 867d 9dbe 4d26 a73e
000001d0: 4d96 b8be dc20 07be 3ed3 02bd bdaf a4be
000001e0: 99ec 623e 16d8 c13d 79d5 d2bd e638 a4b9
000001f0: b324 143e 1b59 13be 48f7 b0be a5c7 a03e

fc3.bias f4 [8]
0.17862652 -0.3050521 0.039280027 -0.26585642 0.26263043 0.2151941 -0.123291835 0.4495541
00000000: dfe9 363e ca2f 9cbe 18e4 203d 551e 88be
00000010: 7f77 863e d85b 5c3e 6e80 fcbd f42b e63e

fc4.weight f4 [2, 8]
0.33677906 0.19923821 -0.24084233 -0.38743234 -0.03341551 -0.34275663 -0.12996876 -0.24955688
-0.28690797 0.27483004 0.011809668 0.33166203 0.35996965 0.124584936 -0.27539527 0.4877474
00000000: 4e6e ac3e 1a05 4c3e 5f9f 76be 885d c6be
00000010: b4de 08bd cc7d afbe 8816 05be d78b 7fbe
00000020: 9ae5 92be 86b6 8c3e 567d 413c 9bcf a93e
00000030: f14d b83e 6326 ff3d 9c00 8dbe 07ba f93e

fc4.bias f4 [2]
-0.046518996 -0.10080864
00000000: b48a 3ebd c374 cebd
