ligand_model/DNN_FC0002_ModelR02-RDKit2D-PCC_SFSforward4_batchsize-16_optim-adam_lr-0.005/train1.model (torch, 5711 bytes, 8 tensors)

fc1.weight f4 [32, 4]
00000000: 41a6 43be 477f bebe 22cf 9a3e e252 cebd
00000010: 2f59 a33e 121c 343f 8083 883e ebe7 e73e
00000020: 6796 0cbe c79a 07bf fd18 bc3e 913b 2c3d
00000030: 1bf0 2ebe 94f3 053e e2ed 2bbe 1212 793b
00000040: 633c d63d 5163 133f 7099 95be 6514 03be
00000050: 7d33 11bf 37f0 c73a 148a 8b3e de48 13bf
00000060: 9e47 8d3e 6807 09bf f501 253f a6f2 57bd
00000070: 4675 233e 0f0b 223f 5909 5e3e 6443 1c3f
00000080: 4bce 1c3e d7b3 0b3f 8aa2 d93d 7dd6 723e
00000090: c941 8b3e b1ae 5e3f 76d7 0c3e 24ce 8fbe
000000a0: 886f cd3e 5a3d c6be 2b4e ba3e 078c 7bbe
000000b0: f06d 26bf 73f7 a4bd 6603 80be 3187 413e
000000c0: 7d76 84be d047 2ebd 03cb d83e b1c3 e8bd
000000d0: ce93 c43e a209 51bf c992 1bbe 4d8b 21bd
000000e0: 5562 bb3e 9815 743b aace cc3d 0c82 ec3d
000000f0: e820 0c3f 6752 36bf c359 edbe 835c edbe
00000100: 2690 dc3e d5b4 293f 23b4 143e 6b5f 13bf
00000110: b311 15bf 77e8 94be 5426 8ebd 10c3 1e3e
00000120: 6a7a 0e3e f96f 1e3f 38f6 0bbe 1556 8ebe
00000130: 1b5c 213f df50 a9be c47e cd3e c021 00be
00000140: 076b a53e d2e1 00bf 2bc1 9fbe ac8b 9f3e
00000150: 34dc 9d3e c24d 113f db89 553e b9f7 fb3e
00000160: 8037 3fbf c8bb 79bd 602a e93e 2ec2 2cbd
00000170: 738d 29bf a59b b7bd e394 7dbe 609e 86bd
00000180: 69c5 efbd 0ebc 5ebe c87b 9d3e d7e7 1bbf
00000190: fc23 2bbf 478c 93bd cbb8 e5be ecab a8be
000001a0: 47ed d93e ac3f 063f 988c 593d d503 4dbe
000001b0: 2a12 02bf fc5d 69bd 5436 5f3e 76f6 82be
000001c0: e8f4 10bf 64ca 2fbe 5055 a63d 8354 4dbe
000001d0: fa9f 03bf 022b b8be 18c4 9ebd ccf2 05be
000001e0: 3c68 11bf 43ad d0be 333c e33e f338 c8bd
000001f0: f057 9e3e a8ce 1b3f e7ff f4be bf11 1a3f
-0.1910639 -0.3720648 0.30236155 -0.100744024 0.3190398 0.7035533 0.26662827 0.45294127
-0.13729249 -0.52970546 0.36737815 0.042048994 -0.1708378 0.13081199 -0.16789964 0.0038005156
0.104607366 0.5757342 -0.29218626 -0.12800749 -0.5671919 0.0015254085 0.27253783 -0.5753306
0.27593702 -0.53526926 0.6445611 -0.052721642 0.15962705 0.63298124 0.21683253 0.6104033
0.1531307 0.5457129 0.10626705 0.23714633 0.27198628 0.8698531 0.13754067 -0.2808696
0.40124154 -0.38718683 0.36387762 -0.24565135 -0.650115 -0.0805501 -0.25002593 0.18899228
-0.2587165 -0.042548954 0.42342386 -0.1136545 0.38394016 -0.81655324 -0.15192713 -0.03943949
0.3659846 0.0037244316 0.100003555 0.11548242 0.5473771 -0.71219486 -0.46357545 -0.46359643
0.43078727 0.6629155 0.14521842 -0.5756747 -0.5823013 -0.29083607 -0.06940904 0.15504098
0.13913885 0.61889607 -0.13668144 -0.2780005 0.63031167 -0.33069512 0.40135777 -0.12512875
0.32308218 -0.50344574 -0.31202063 0.3116125 0.30832064 0.56759274 0.20853369 0.49212435
-0.7469406 -0.060970098 0.45540142 -0.04217737 -0.6623146 -0.08965234 -0.24763827 -0.065731764
-0.11707575 -0.21751425 0.307585 -0.60900635 -0.6685178 -0.0720449 -0.44867548 -0.32943666
0.4256384 0.52440906 0.053112596 -0.20020993 -0.50808966 -0.056974396 0.21798068 -0.2557866
-0.566237 -0.1716705 0.08121741 -0.2005177 -0.5141598 -0.35970312 -0.07752246 -0.13080901
-0.56799674 -0.40757188 0.44381866 -0.09776487 0.30926466 0.6086221 -0.47851488 0.6018333

fc1.bias f4 [32]
00000000: a4aa cebe 682d 9abe 6f3f 37bf 403f 0fbf
00000010: 2d1e 263d 012a e3bc 3f5c 823e a99e 11be
00000020: 932e 653e 2608 9cbe f4ed 14be d396 7cbd
00000030: 27a7 083d e6e5 a33d ab1f a33e 81a1 6cbe
00000040: 29e7 933e cd91 e4be 43f0 f0bd fc4b bcbe
00000050: 6614 803d 83a3 a0be a50f 103e aa11 383e
00000060: 3122 dc3e bebc 84be b7dc 403e 1c28 98bd
00000070: 085a a13d 8afd 19bf 5ae9 2c3d 38f8 a2bc
-0.40364563 -0.30112767 -0.71581167 -0.55955887 0.04055612 -0.02772999 0.25461003 -0.1422068
0.22381048 -0.30474967 -0.14543897 -0.061667275 0.033362534 0.08002834 0.31860098 -0.23108484
0.288873 -0.44642487 -0.11764576 -0.3677672 0.06253891 -0.3137475 0.14068468 0.17975488
0.42994836 -0.2592525 0.18834196 -0.07429525 0.078785 -0.60152495 0.04221473 -0.01989375

fc2.weight f4 [16, 32]
00000000: bf83 12be 4652 8d3e b145 09bd 0e5b d2bd
00000010: f982 b03e bc68 a4be 279b 62be e748 eb3d
00000020: 34d5 9c3d f3d1 bc3e cb1a 9dbe da97 2dbe
00000030: e5f4 003e 530d d8be 1082 d3bd cb94 2dbe
00000040: 4201 dc3d 9f17 e5bc d410 693e a9c8 6cbe
00000050: 9e77 2d3c 4860 913d 6b18 a4be 9731 153d
00000060: ebc3 77be b183 c33c fb44 643e 5437 21be
00000070: 1dd6 a2be c5b4 51be 3e29 a6bd 3c1d 6d3e
00000080: 37e7 7e3e 97a7 6bbe 280b 613e c423 20bd
00000090: 3094 f03d 352d 023e 53b4 23be f96e f5be
000000a0: eeab 46be 92d1 d9be 1e0f 593d 504b 293e
000000b0: 8c32 4b3e c602 7c3d 74a6 fabd afe3 bbbe
000000c0: 1ba7 70be 0bcb 883e efd8 ffbd ae4e 9c3e
000000d0: a074 dd3c 71f3 98be e342 bebd 80d6 a03e
000000e0: 0366 573d 8552 f43d 3075 a1be 7d1b 343e
000000f0: f2e5 9b3e d7a1 253f 281e e53c d3a0 97be
00000100: 6b55 22bd 67a0 9ebe db3e a43e 1d54 183e
00000110: 51bb 4bbd 6a6f 673e fbfe fdbd ded5 0fbf
00000120: 13cb bebe 522c 03bf 69cf b03e c0d9 523d
00000130: 5caf da3d 79a6 5ebd 28ec d1be 72a6 28be
00000140: 4f97 c73d d482 923e 42b8 ed3c f3af fd3e
00000150: 9c1b a43d c8e4 82be 5c52 6dbd b6d7 093d
00000160: e2d2 07bd 79bc a7bd bbc1 71be f69a 983c
00000170: 6f21 563e e9ad f83e eb42 093e 0675 703d
00000180: fb52 24bd 03ea 07be 226c 99bd dfec 473e
00000190: fa6f 5dbd 11d8 6cbc a5a4 2bbe 4dc0 0ebe
000001a0: 35d2 08be 44a2 81be 544c 40bc c39c b93d
000001b0: a8c9 f1bc 668f 3dbe f1d1 92be 28a4 6bbd
000001c0: aa79 b33c c0c3 8dbe f745 00be 399d 1abe
000001d0: 406f ffb9 d73d bebd aad5 afbd e828 e3bd
000001e0: c321 adbe fa48 bb3d d3d5 f43c 7976 d0bd
000001f0: 7aa0 3dbe 3632 95be 0655 99be 43b7 73be
00000200: 6b7f b1bd b71e 103e 5066 a3be 6736 30bd
00000210: 479c 083e 9509 5ebe f93b c6bd db51 5b3e
00000220: 45d5 a9bd b083 67bb 62fd 82be 4a81 7e3d
00000230: 6dcf 43be b6ea bcbd 984e 92bd 9d76 90bd
00000240: 28b5 943e 0471 8e3d 8f55 12bc 383b 44bd
00000250: 8680 b83d 017d ad3b e47e c2bd 48d0 a53d
00000260: 3cfe dabd 3189 65bd 9fd0 4abe 3c16 ffbd
00000270: 0050 c63d 6b6b cf3e a86c 56be 93fd 43be
00000280: aea5 813e ad76 d3be 45e2 2c3e dffe 8fbc
00000290: 72bb ccbc 29dc 883e 49b8 f9be 5196 a5be
000002a0: 20de c7bd 528c 0bbf 9490 efbd c909 2b3e
000002b0: 2b54 34bd 8613 79be cb04 bcbd b9e9 50be
000002c0: a694 ffbe f66a 3c3c 8ac5 b2be e8d5 803d
000002d0: 749a c4b8 8951 50be 6a42 0c3c 1f5c e43c
000002e0: cc99 7b3d bfdd a63e 1d0b cdbd 4cda 493e
000002f0: 2f60 813e 30f9 c03e c6f2 863e 70a6 d4be
00000300: 4cfb 6c3d 1c7b 2e3e d25f 4a3e ee1f cebd
00000310: d1ce 90be 0af9 cc3e 1b3d 5f3d b034 9cbc
00000320: 76c9 433d cc51 dfbd 07ad a43d 2ff9 563d
00000330: f5f2 b73e f93b 31be e60e 3abd eb56 e7bc
00000340: 0923 f6bd 523f 943d 4222 9bbd 7f0c eb3e
00000350: 4072 11bd 8c3a 52bd 19a5 9b3e baf0 0fbe
00000360: 42a7 67bd 7705 653e 70e0 a73d 5775 5b3e
00000370: 9f89 483e 91e0 943e 37ed 533d 046d 4bbc
00000380: f639 083b c4f2 f4be 5831 823e 7781 7a3d
00000390: bf11 1d3d 23e7 30be c97c d0be 01a1 79be
000003a0: ceab 21be 40c6 5ebe 84b8 0cbe 4ea9 c83d
000003b0: 4ab2 3e3d 5843 35be 2e7e c0bd 77ca 45bf
000003c0: 548a 11bf a411 57be fc9e 52be 12f5 1b3e
000003d0: e04c 60be fad3 5bbe 497b e83d 8aa3 5e3e
000003e0: bda0 9c3d 42cb ecbb f59e a9be bac6 00bb
000003f0: 6956 093d 408f 833d 6c45 603d 6a82 59be
-0.1430807 0.27601832 -0.03351373 -0.102712736 0.34474924 -0.32111156 -0.22129498 0.114885144
0.07657853 0.3687893 -0.30684504 -0.16952458 0.1259342 -0.42197666 -0.10327542 -0.16951291
0.107424274 -0.027965365 0.22760326 -0.23123421 0.010587601 0.07098442 -0.3204988 0.036424246
-0.2419583 0.023866506 0.22291939 -0.15743762 -0.3180398 -0.20479114 -0.08113335 0.23155683
0.24892889 -0.23013149 0.21976912 -0.03909661 0.117470145 0.12712558 -0.15986757 -0.47936228
-0.19401523 -0.42542702 0.052992932 0.16532636 0.19843501 0.061526082 -0.1223878 -0.36697146
-0.23501246 0.2671741 -0.12492549 0.30528778 0.02703315 -0.2987323 -0.092901014 0.3141365
0.05258752 0.11929802 -0.3153472 0.17588611 0.30448872 0.64700073 0.027968481 -0.29614887
-0.039632242 -0.30981752 0.32079205 0.14875837 -0.049739186 0.22601095 -0.12402149 -0.5618571
-0.37264308 -0.512395 0.3453324 0.051477194 0.106779784 -0.05435798 -0.41000485 -0.16469744
0.09745657 0.2861544 0.029018525 0.495483 0.080130786 -0.2556517 -0.057939872 0.033652984
-0.033160098 -0.08190245 -0.23609059 0.018628579 0.20911191 0.48570183 0.13404433 0.058705352
-0.0401182 -0.13272862 -0.07491328 0.19523953 -0.054061867 -0.014455811 -0.16762026 -0.13940544
-0.13361438 -0.2531911 -0.011736948 0.09063103 -0.029515103 -0.18511733 -0.28675798 -0.0575296
0.0219086 -0.27688408 -0.1252669 -0.15099038 -0.00048720278 -0.09289139 -0.08585675 -0.110917866
-0.3381482 0.091447785 0.029887116 -0.10178847 -0.18518248 -0.2913987 -0.2994768 -0.23800378
-0.08666881 0.14074217 -0.31913996 -0.043020632 0.13340865 -0.21683343 -0.096794076 0.21417944
-0.08292631 -0.0035326295 -0.2558394 0.06213502 -0.19122095 -0.09224455 -0.07143897 -0.07053874
0.2904446 0.0695515 -0.008931532 -0.047908038 0.09008889 0.0052944426 -0.09496859 0.08096367
-0.106930226 -0.05603904 -0.19806145 -0.12455413 0.096832275 0.4051164 -0.20939887 -0.191397
0.25321716 -0.4130148 0.1688319 -0.017577587 -0.024991725 0.2673047 -0.4877341 -0.32341245
-0.09759164 -0.54510987 -0.11697498 0.16702951 -0.04402558 -0.24323854 -0.09180602 -0.20401658
-0.49918097 0.011500111 -0.34916335 0.062907994 -9.3747774e-05 -0.20343603 0.008560756 0.027875958
0.06142597 0.32591054 -0.10011885 0.1971218 0.25268695 0.37690115 0.26357096 -0.41533232
0.057856843 0.1703915 0.19763115 -0.10064684 -0.28282788 0.40033752 0.054501634 -0.019068092
0.04779955 -0.109042734 0.08040815 0.052483734 0.3592755 -0.17308034 -0.045424365 -0.028239688
-0.12018401 0.0723864 -0.075748935 0.4590797 -0.035509348 -0.051325366 0.30399397 -0.14056674
-0.056555994 0.22365366 0.08197105 0.2143148 0.19583748 0.2907758 0.051739898 -0.012416128
0.00207865 -0.47841465 0.2542827 0.061158624 0.038347002 -0.17275672 -0.40720204 -0.24377824
-0.15788195 -0.21755314 -0.13742262 0.09797917 0.04655675 -0.17701471 -0.09399067 -0.7726206
-0.56851697 -0.21002823 -0.2056846 0.15230206 -0.21904325 -0.21467581 0.1135164 0.21742073
0.07647846 -0.0072263787 -0.33129087 -0.00196497 0.033529673 0.06423807 0.054753706 -0.21241155

fc2.bias f4 [16]
00000000: 3f9e 803d bf2b 9d3d 05ba 8f3d fa9c 20be
00000010: c876 c3bd 60dd a13c 1fc5 b8bd 7137 7b3e
00000020: 0d16 c9bd 1827 163c 00b5 adbe 90d7 61bd
00000030: c493 f53b 012b 5d3e 305e 7e3e 8fcd 8b3d
0.06280183 0.076743595 0.07017902 -0.15684882 -0.0954414 0.01975888 -0.09021973 0.24532868
-0.09818659 0.009164594 -0.33927155 -0.055137217 0.0074944217 0.21598436 0.24840617 0.068263166

fc3.weight f4 [8, 16]
00000000: de9a edba c27c 593e 00a9 263e 0ae9 0b3e
00000010: 1b4e 0fbe e2f6 e13d e02e 193d 6e23 b2be
00000020: 26a5 53be eb54 88be 8f9f c93d 2c13 9ebe
00000030: 46c4 48bc 853c b43c 747f 70be 7d6c 36bc
00000040: 4a4e 2abe ae93 8a3e 137b 943e 5730 74be
00000050: c136 2e3e 34ce cd3e 17c0 0e3d 6c8e b63b
00000060: fa3a a4be aaf8 30bd 9fc8 873e 95f9 1d3e
00000070: 5cc1 103e 45ff 14bc 268b bfbe d931 e93d
00000080: bffb a23e fd2f 83be 61b9 a2be 302d 03be
00000090: 0905 c83d a2ad aebe a1b0 94be 052f 91bd
000000a0: be65 a83e 1f9c b73e a855 bebd e9e8 a0be
000000b0: fc2c a5bb 1a13 d23e ea46 4d3e 1c69 a3bc
000000c0: 8c8a 0dbe 39a7 aa3e 5c12 4dbd e761 a6bd
000000d0: 3466 a93d 4ccc 4bbc 87ed 1bbe a511 bb3e
000000e0: 96ea 15be 6ca2 2ebd 653e 423e 8acf 953d
000000f0: 0ea6 9f3e 8c49 27be 8d56 44be 0bab d63d
00000100: c141 e8bc 5266 a2bd 6969 43be 3818 7fbc
00000110: 0470 82be 5a28 a5be 6940 ccbe a915 93be
00000120: 8f42 a03e 95a6 9ebe c35c 6cbe 10dc 953c
00000130: cb45 383c 5ac7 923e 4597 b1bd 7d5d babd
00000140: 17ab 13be a939 58be abfc a7be 59e7 353b
00000150: 09fe 173c 71ad a4be f80d 90bd 23e1 04be
00000160: bfce 94bd fa18 263b 01d6 cabd 31f7 8dbd
00000170: 650a e63c 907f f63c 32b4 6fbe 1f89 853e
00000180: 283f 153e 3c1e 3dbe e421 023d fdd7 18be
00000190: 68e2 ab3d e4a1 c0be 104a 06be 831c 95be
000001a0: c068 203c ca91 d23e 848c 0cbe 613c 03be
000001b0: 0e64 79be 6f3f b53e 7986 8d3d a7ae 82be
000001c0: 2f0a 07be 33a7 6d3e cf25 903e 0f4a 13be
000001d0: 8f92 303a edab 2d3e 1d58 51bc f2a7 8c3e
000001e0: 3259 37be 2e99 eabd 5c35 d93e f415 373e
000001f0: 26a5 44bd b08c b8bd 0982 0d3e 45a3 4c3e
-0.0018127819 0.21238998 0.16275406 0.13663116 -0.13994639 0.11033417 0.03739822 -0.34792656
-0.20668468 -0.26627287 0.098448865 -0.30874002 -0.0122538265 0.022001514 -0.2348612 -0.011134264
-0.16631427 0.27065796 0.29000148 -0.23846565 0.17013074 0.40196383 0.03485116 0.005571177
-0.32076246 -0.043205895 0.2652025 0.15427239 0.14136261 -0.009094064 -0.3741085 0.11386461
0.31832692 -0.2562255 -0.31782058 -0.12810206 0.097665854 -0.34116846 -0.29041007 -0.070890464
0.32890123 0.35861298 -0.092936814 -0.31427696 -0.005040763 0.41030198 0.20046583 -0.019947581
-0.13822383 0.33330706 -0.050066337 -0.08124142 0.08271447 -0.012438845 -0.15227328 0.365369
-0.14640269 -0.042635366 0.18969114 0.073149756 0.31181377 -0.1633665 -0.19173642 0.104818426
-0.028351666 -0.07929672 -0.1908318 -0.015569739 -0.25476086 -0.32257348 -0.3989289 -0.28727463
0.3130078 -0.30986467 -0.23082261 0.01829341 0.011247109 0.28667718 -0.086714305 -0.09099863
-0.14420734 -0.21115746 -0.32809958 0.0027756302 0.009276875 -0.32163575 -0.07033914 -0.12976508
-0.07265996 0.0025344477 -0.09904099 -0.06931914 0.028081128 0.030090123 -0.23408583 0.26081178
0.14574873 -0.18468565 0.031770602 -0.14926143 0.08392793 -0.37623513 -0.1311419 -0.29123315
0.009790599 0.41126853 -0.13725477 -0.12816001 -0.24354574 0.35399958 0.06910414 -0.25523874
-0.13187478 0.23208313 0.28153846 -0.1438372 0.0006735706 0.16960116 -0.0127773555 0.27471882
-0.17905119 -0.11454998 0.42423522 0.17879468 -0.04800906 -0.09011209 0.13819136 0.19984157

fc3.bias f4 [8]
00000000: 56f8 57be 4cf7 943c b57e a13e 4c65 d73d
00000010: 29e4 c53e c5b5 82be d482 e83e 9730 2f3c
-0.21090826 0.018184327 0.31541982 0.10517368 0.38650635 -0.25529304 0.45412314 0.010692737

fc4.weight f4 [2, 8]
00000000: 710e 4d3e 558f 523d 56bb 01bf 7992 0cbe
00000010: a145 d7be 668c c83d 9ecd f5be c652 c83c
00000020: 7988 b73d 322f 86be f917 993e 1512 cebe
00000030: 450c b5bd bfc4 78be 5055 0b3e 4a18 3bbe
0.2002504 0.051406223 -0.50676477 -0.1372775 -0.4204531 0.09792404 -0.48008436 0.024453532
0.08961577 -0.26207882 0.29901102 -0.4024817 -0.08840231 -0.24293803 0.13606763 -0.18270984

fc4.bias f4 [2]
00000000: e4c1 a9bd 4a8c 8b3d
-0.08288935 0.068138674
