ligand_model/DNN_FC0002_ModelR02-RDKit2D-PCC_SFSforward4_batchsize-16_optim-adam_lr-0.005/train4.model (torch, 5711 bytes, 8 tensors)

fc1.weight f4 [32, 4]
0	0xbebf84c3	-0.37405977
1	0x3f2e8799	0.68175656
2	0x3ee1f40b	0.44131503
3	0x3e1165c1	0.14198972
4	0x3f03eaaa	0.51529944
5	0xbe7f7689	-0.24947561
6	0x3e9c6383	0.3054467
7	0xbd5006ae	-0.05078762
8	0xbf3b01b2	-0.7304946
9	0xbd184db0	-0.037183464
10	0xbe7ce93b	-0.24698345
11	0xbb22306b	-0.0024748098
12	0x3df25ad8	0.11833733
13	0x3f2b32dc	0.6687448
14	0x3dc4787c	0.09593293
15	0x3e3f3413	0.18672208
16	0x3de82a67	0.113362126
17	0x3ecda4b1	0.40164712
18	0xba88d837	-0.0010440414
19	0x3f7e1039	0.99243504
20	0xbe66dae3	-0.22544436
21	0xbe8a3bb7	-0.26998684
22	0x3eca31bb	0.39491066
23	0xbea477f1	-0.32122758
24	0x3e9aa219	0.30201796
25	0x3f2c7ba2	0.6737615
26	0x3e82c621	0.25541785
27	0x3edf1b54	0.43575537
28	0xbf09786e	-0.53699386
29	0xbeee3631	-0.4652572
30	0x3dc87d9d	0.09789584
31	0xbd0f425b	-0.03497539
32	0x3ec4d337	0.38442394
33	0x3f045347	0.5168957
34	0xbdfcc2ae	-0.1234182
35	0x3efc1809	0.49237087
36	0xbe1abb2b	-0.15110461
37	0xbdc12879	-0.09431548
38	0x3e497f82	0.19677547
39	0xbd0655b4	-0.032796577
40	0xbf462870	-0.7740545
41	0xbd986fba	-0.07443185
42	0xbe96090a	-0.2930377
43	0xbe04164e	-0.12899134
44	0x3f0e168c	0.55503154
45	0xbedc93fa	-0.43081647
46	0xbe202beb	-0.15641753
47	0xbcde52b8	-0.027139053
48	0x3f15ee53	0.5856678
49	0x3d36a817	0.044593897
50	0xbe466c85	-0.19377334
51	0x3ea04755	0.31304422
52	0xbd9ea5f6	-0.07746498
53	0x3e60083e	0.21878144
54	0xbe802667	-0.250293
55	0xbe837811	-0.2567754
56	0xbed258cc	-0.41083372
57	0xbdead7d9	-0.11466951
58	0x3e227fde	0.1586909
59	0x3e327b4a	0.17429844
60	0x3dc31348	0.09525162
61	0xbf270b0b	-0.65251225
62	0xbe5c95b8	-0.21541488
63	0xbe62aeba	-0.22136965
64	0x3ea94ebb	0.3306788
65	0xbe94a4f9	-0.29032114
66	0xbe855c97	-0.26047203
67	0x3eb36ba4	0.3504306
68	0xbf3dfbc7	-0.74212307
69	0xbd6daf1f	-0.058028337
70	0x3e1220d2	0.14270332
71	0x3e950e7c	0.29112613
72	0x3e8c82a5	0.27443424
73	0xbea2eba8	-0.31820416
74	0x3f0ce516	0.5503706
75	0x3d478f3c	0.048720583
76	0x3e1fbda4	0.15599686
77	0x3f148b66	0.58025205
78	0xbe28c70f	-0.16482185
79	0x3f565ac8	0.8373227
80	0x3e573927	0.21017896
81	0x3f238fd4	0.6389134
82	0xbd1140f3	-0.03546233
83	0xbe663d06	-0.22484216
84	0x3edc3a30	0.43013144
85	0xbe5cdf1c	-0.21569484
86	0x3ed3280d	0.41241494
87	0x3dd2f9da	0.10301562
88	0x3e7fcd6f	0.2498071
89	0x3f1c56a5	0.6106971
90	0x3d955f04	0.072935134
91	0x3ebef303	0.37294778
92	0x3e89d9e1	0.2692404
93	0x3f53b87b	0.8270337
94	0xbee5c6b9	-0.44878176
95	0xbecc4988	-0.3989985
96	0xbf775022	-0.9660665
97	0xbe1c94ff	-0.15291212
98	0x3dde22b0	0.1084646
99	0x3d238a5c	0.03992687
100	0x3e910d26	0.28330344
101	0xbd5564a1	-0.05209792
102	0xbeb3d8df	-0.35126397
103	0xbec56033	-0.38549957
104	0x3ea291d0	0.3175187
105	0x3f1262ea	0.5718218
106	0x3e25ff7e	0.16210744
107	0x3e587033	0.2113655
108	0x3e2d3406	0.16914377
109	0x3f1ad58d	0.604821
110	0xbe7c5e3c	-0.24645323
111	0x3f1f03a7	0.6211495
112	0x3deb7408	0.114967406
113	0x3ccfb573	0.025355076
114	0xbe0e2034	-0.13879472
115	0x3f1a214f	0.60207075
116	0x3e5e8d8a	0.2173368
117	0x3f439cb8	0.7641101
118	0xbe7d23fe	-0.24720761
119	0xbe646b73	-0.22306614
120	0xbf5c5400	-0.86065674
121	0xbe1f8d5a	-0.15581265
122	0x3e105467	0.14094697
123	0xbebf12ae	-0.3731894
124	0xbeeca86c	-0.46222246
125	0xbec8f7f0	-0.3925166
126	0x3cff5f36	0.03117333
127	0x3dd26f1e	0.102751

fc1.bias f4 [32]
0	0xbf07b4fc	-0.53010535
1	0xbec2813c	-0.37989223
2	0xbe696003	-0.22790532
3	0x3dce25f7	0.10065835
4	0xbccee9b5	-0.025257925
5	0xbe73ca80	-0.23807716
6	0xbe929707	-0.2863085
7	0xbf193bd9	-0.59856945
8	0x3da7c0ad	0.08191047
9	0x3e101652	0.14071015
10	0xbe6ff81c	-0.2343449
11	0xbec28ed0	-0.37999582
12	0x3ea5a27e	0.32350534
13	0x3e2d5357	0.16926323
14	0xbd1b77a3	-0.03795589
15	0x3eb8d115	0.36097017
16	0x3d608ea8	0.054823548
17	0xbd46eb3a	-0.048564173
18	0xbdc047b8	-0.09388679
19	0xbcb15d37	-0.021650894
20	0x3d1d4566	0.03839626
21	0xbea9084c	-0.33014143
22	0x3e52169a	0.20516434
23	0x3d8f0f9f	0.06985401
24	0xbe386b08	-0.18009579
25	0xbda0c3c6	-0.07849841
26	0x3e8d5ba4	0.2760898
27	0xbed7510c	-0.4205402
28	0x3e80c4e7	0.25150225
29	0xbee9e8a2	-0.45685297
30	0xbe5c45f0	-0.21511054
31	0xbf2022cc	-0.62553096

fc2.weight f4 [16, 32]
0	0x3e81d2bf	0.253561
1	0x3dd38f95	0.103301205
2	0xbdebd4bf	-0.115151875
3	0xbe2c17a5	-0.16805895
4	0xbdeb9b80	-0.11504269
5	0x3ea678ec	0.3251413
6	0xbe475bf5	-0.19468673
7	0x3e6cf71e	0.23141143
8	0xbea3ea2b	-0.32014593
9	0x3cc58337	0.02411042
10	0x3ece8c08	0.4034121
11	0xbe3445d0	-0.17604756
12	0xbe7a2868	-0.24429476
13	0x3d86971c	0.065717906
14	0x3e4a8560	0.19777441
15	0xbd06490e	-0.032784514
16	0xbe94a962	-0.2903548
17	0x3e9db639	0.30803087
18	0x3c770255	0.01507624
19	0xbdf229cc	-0.11824378
20	0xbe771e0b	-0.24132554
21	0x3e0e7772	0.13912752
22	0x3dafed48	0.0859018
23	0xbe8efeba	-0.27928716
24	0xbdca1291	-0.098668225
25	0xbe3e6aeb	-0.18595473
26	0xbe6ed86a	-0.23324743
27	0xbec0d8b1	-0.37665322
28	0xbd814fb4	-0.0631403
29	0xbe994391	-0.29934362
30	0xbd851a85	-0.06499199
31	0x3eb31262	0.34974962
32	0xbd70896c	-0.058724806
33	0xbd9839f4	-0.07432929
34	0xbd80cda3	-0.06289222
35	0x3c37866e	0.011201484
36	0x3e6b8b0d	0.23002262
37	0xbe795a7d	-0.24350925
38	0x3e96cf6b	0.29455122
39	0xbe529a9d	-0.20566793
40	0x3de4e142	0.11175777
41	0xbe1c0e1c	-0.15239757
42	0xbe77baf4	-0.2419241
43	0xbe9cd400	-0.30630493
44	0x3e130112	0.14355877
45	0x3dd440ef	0.103639476
46	0xbc81863b	-0.015811076
47	0xbe805ac1	-0.2506924
48	0xbe496702	-0.196682
49	0xbce03336	-0.02736817
50	0xbec8d47b	-0.3922461
51	0x3d9d4b93	0.0768043
52	0xbd58ca4c	-0.0529273
53	0xbed6bb16	-0.4193961
54	0x3d1429b9	0.036172602
55	0x3e8c5400	0.27407837
56	0xbed54e55	-0.41661325
57	0xbe4c9783	-0.19979672
58	0x3d0e1fe2	0.034698375
59	0x3dfaa8e8	0.122392476
60	0xbb3090ad	-0.0026941702
61	0x3e1d6ccc	0.15373534
62	0xbf0bbc45	-0.5458415
63	0xbbf47b9a	-0.0074610235
64	0xbdadb6f5	-0.08482162
65	0xbdaf59ef	-0.08562075
66	0xbe920989	-0.285229
67	0x3cf55eb0	0.029952377
68	0x3e6045fe	0.219017
69	0xbd5a72b4	-0.053332046
70	0x3e2120fd	0.1573524
71	0xbe82148d	-0.25406304
72	0x3e757ded	0.23973818
73	0xbec06f41	-0.3758488
74	0xbe17c437	-0.14820944
75	0xbe5af21a	-0.21381417
76	0xbcd49b4d	-0.02595296
77	0x3e6a4670	0.22878432
78	0xbdaa3181	-0.08310223
79	0xbe80602d	-0.25073376
80	0xbd2accd4	-0.041699246
81	0xbe5a02b1	-0.21290089
82	0xbed279d9	-0.41108587
83	0x3e0483c0	0.12940884
84	0x3bdcdf84	0.0067405123
85	0xbe49e812	-0.19717434
86	0x3e0a5217	0.13507877
87	0xbb6051cc	-0.0034228442
88	0xbec289d6	-0.37995785
89	0xbd6e6328	-0.05820003
90	0x3dfa640f	0.12226116
91	0x3ebda720	0.3704157
92	0xb95d66c0	-0.0002111448
93	0x3ec81d7a	0.3908499
94	0xbf0d4a79	-0.5519176
95	0x3b54f122	0.003249236
96	0xbd823f4a	-0.06359728
97	0x3e72769d	0.2367806
98	0x3ec16308	0.37770867
99	0xbdd9b373	-0.1062993
100	0xbc9901c4	-0.0186776
101	0x3df785fa	0.12086101
102	0xbe6ee615	-0.23329957
103	0x3e9b5d9c	0.30344856
104	0xbd55a461	-0.052158717
105	0x3d8c4c7b	0.06850525
106	0xbe3ee33a	-0.18641368
107	0xbe882156	-0.26587933
108	0xbea9dde9	-0.33177117
109	0x3e65dc5d	0.22447343
110	0x3cf5356b	0.029932698
111	0x3e0668df	0.13125943
112	0xbda2f9c2	-0.07957794
113	0x3e81df33	0.253656
114	0xbeecfb5c	-0.46285522
115	0xbe39cf17	-0.18145405
116	0xbe64bbb5	-0.2233723
117	0x3e1a60b0	0.15075946
118	0xbe7197c5	-0.23593052
119	0xbe858a44	-0.2608205
120	0xbda263a9	-0.07929165
121	0xbf01e4e3	-0.5073988
122	0xbecec37b	-0.40383515
123	0xbd975b71	-0.07390488
124	0x3cc4c37f	0.024019001
125	0xbe96bd7a	-0.29441434
126	0x3e53308b	0.20623986
127	0x3f138729	0.57628113
128	0xbcd68467	-0.026186181
129	0xbeadc9b5	-0.33942953
130	0xbe16badd	-0.1471972
131	0x3d8f7cab	0.070062004
132	0x3e02cc4b	0.12773244
133	0xbd45b7a4	-0.048270836
134	0x3cbcd539	0.023050891
135	0xbd92fb46	-0.07176833
136	0xbcfcab2b	-0.030843338
137	0x3d918918	0.07106227
138	0xbe999ca9	-0.30002335
139	0xbe8625c9	-0.26200703
140	0x3de6d209	0.1127053
141	0x3d22b394	0.03972204
142	0x3d0bb04e	0.034103684
143	0xbeb155e8	-0.34635854
144	0xbd82d778	-0.06388754
145	0xbe4a527f	-0.19758032
146	0xbeb63577	-0.35587665
147	0x3d6bb168	0.057542235
148	0x3e143a5f	0.14475392
149	0xbe8d238c	-0.27566183
150	0x3e22d33b	0.1590089
151	0x3e1f1978	0.1553706
152	0xbe85d393	-0.2613798
153	0xbca983ee	-0.020692792
154	0x3d94cd77	0.07265752
155	0x3eecf723	0.462823
156	0xbd743cef	-0.059628423
157	0x3e9bcf14	0.30431426
158	0xbefcffd8	-0.49413943
159	0xbc49a738	-0.012307934
160	0xbdc57614	-0.09641662
161	0x3ca3d339	0.01999818
162	0x3e576d66	0.21037826
163	0xbe9f3f78	-0.3110311
164	0x3cc7b4db	0.02437823
165	0x3d77cd0e	0.06049829
166	0xbe4438c8	-0.19162285
167	0x3ed9dd1b	0.42551503
168	0xbe8e5645	-0.27800193
169	0x3db26ac7	0.087117724
170	0x3efe418d	0.49659386
171	0xbe809f8d	-0.25121728
172	0xbeaa175f	-0.33220956
173	0x3d849866	0.0647438
174	0x3d711d38	0.058865756
175	0x3cbf0500	0.023317814
176	0xbe1cad5f	-0.15300511
177	0x3e6659eb	0.22495238
178	0xbd642c62	-0.05570639
179	0xbc8416ee	-0.016124215
180	0xbe30834e	-0.17237589
181	0x3ea26ca7	0.3172352
182	0xbe788a34	-0.2427147
183	0xbed615f6	-0.4181363
184	0x3e168f2d	0.14703055
185	0xbe89325b	-0.2679623
186	0xbdab5f99	-0.08367843
187	0xbde99da0	-0.11407018
188	0x3ca2e33d	0.019883746
189	0x3d122c87	0.035686996
190	0x3dc4a47d	0.09601686
191	0x3ea1844e	0.31546253
192	0xbe045940	-0.12924671
193	0xbe51265a	-0.20424786
194	0xbc0a29c4	-0.008432809
195	0x3d9fdb8e	0.078055486
196	0x3e2a3d18	0.16624868
197	0xbea93d56	-0.33054608
198	0x3e925ec5	0.28587928
199	0x3dc420cd	0.09576569
200	0xbdf96307	-0.12177091
201	0xbe6506a8	-0.2236582
202	0xbe16bdf5	-0.147209
203	0xbddbcb02	-0.1073208
204	0xbc32b4d3	-0.01090737
205	0x3e284d67	0.16435777
206	0xbe89ba89	-0.26900128
207	0xbece5719	-0.40300825
208	0xbe222bc0	-0.15837002
209	0xbd4ef3da	-0.050525524
210	0xbe9cf19c	-0.30653083
211	0x3e3dde89	0.18541922
212	0x3c2c5302	0.0105178375
213	0xbe97dd76	-0.2966115
214	0x3d6cd296	0.057818018
215	0x3e1de570	0.15419555
216	0xbd6c1ab7	-0.057642665
217	0x39faa2e4	0.0004780508
218	0x3e5c74f1	0.21528985
219	0x3e40cc23	0.18827872
220	0x3e45fb83	0.19334225
221	0x3e5130b5	0.20428737
222	0xbe4dce47	-0.2009822
223	0x3e3a2a4c	0.18180197
224	0xbdff2f8a	-0.12460239
225	0x3ca34a2e	0.019932833
226	0x3e55c60b	0.20876329
227	0x3b98085e	0.0046396693
228	0xbd3e6c83	-0.046490204
229	0x3ea7adcf	0.32749793
230	0x3d8f11d8	0.06985825
231	0x3f0196cd	0.5062073
232	0xbe57893c	-0.21048445
233	0x3d1af660	0.037832618
234	0x3d36c3c2	0.044620283
235	0xbe248e51	-0.16069914
236	0xbec03f29	-0.37548187
237	0xbd555735	-0.05208512
238	0xbdd03c3c	-0.10167739
239	0x3df05272	0.11734475
240	0xbc5d2b76	-0.013499131
241	0xbe992a18	-0.29914927
242	0x3d301190	0.0429855
243	0xbdbba9f0	-0.091632724
244	0xbed54848	-0.4165671
245	0x3dd61dce	0.104549035
246	0xbdac5077	-0.08413785
247	0xbdadcb7d	-0.08486078
248	0xbdeb01a9	-0.11474926
249	0xbe5e8acf	-0.21732639
250	0xbe8002da	-0.25002176
251	0xbd338995	-0.04383238
252	0x3d84403c	0.06457564
253	0xbe1866aa	-0.14882913
254	0x3d16d826	0.03682723
255	0x3f0f8b5a	0.5607201

fc2.bias f4 [16]
0	0x3d148115	0.036255915
1	0x3de5647a	0.11200805
2	0x3d6de19f	0.058076497
3	0xbded09ab	-0.1157411
4	0x3e28f20f	0.16498588
5	0x3cf64e8b	0.03006675
6	0x3d16a273	0.036776017
7	0xbe5b6d98	-0.21428525
8	0x3dc30bbb	0.09523722
9	0x3e1ed291	0.15510012
10	0x3dae57a5	0.085128106
11	0x3d01531a	0.031573392
12	0xbe005470	-0.1253221
13	0x3dee34ad	0.11631141
14	0x3de86d48	0.11348969
15	0xbc1e16f7	-0.00964903

fc3.weight f4 [8, 16]
0	0xbe47ce48	-0.19512284
1	0x3e5fbb53	0.21848802
2	0x3e314b72	0.17313936
3	0xbe79ddbb	-0.2440099
4	0x3eaf8df2	0.34287983
5	0xbe998683	-0.29985437
6	0x3e64a7cf	0.22329639
7	0xbd17f53c	-0.037099108
8	0xbe1fcae5	-0.15604742
9	0xbed8f909	-0.423775
10	0xbdd86513	-0.105661534
11	0x3e3ca201	0.18421175
12	0xbe96bf82	-0.29442984
13	0x3d05f6da	0.03270612
14	0xbe07508d	-0.13214321
15	0xbe93ed7a	-0.28892118
16	0xbed7fd20	-0.42185307
17	0xbe01aa8d	-0.12662716
18	0xbd24376a	-0.04009191
19	0xbe3f866f	-0.18703626
20	0x3e2498f6	0.16073975
21	0xbe99682f	-0.29962298
22	0x3daf25c7	0.08552127
23	0xbeb7fecf	-0.3593659
24	0x3e4fa2dc	0.2027697
25	0xbe88b45d	-0.26700106
26	0xbe3add20	-0.18248415
27	0x3e214c80	0.15751839
28	0xbd067c9f	-0.03283369
29	0xbd9b402c	-0.07580599
30	0xbf053c72	-0.5204536
31	0xbe1646bb	-0.14675419
32	0xbd3e979f	-0.046531316
33	0x3e54a43f	0.2076578
34	0x3e7cdb8b	0.24693124
35	0xbeaf68cb	-0.34259638
36	0x3e9a1ab5	0.300985
37	0xbd91d689	-0.071209975
38	0xbc4e1e23	-0.012580427
39	0x3cd056c3	0.025431996
40	0xbd68c0be	-0.05682444
41	0xbe630bde	-0.22172496
42	0xbc0d8d37	-0.008639625
43	0x3e00b0df	0.12567471
44	0x3dcf24ff	0.10114478
45	0xbddb0f5f	-0.10696291
46	0xbe906e9e	-0.28209394
47	0xbe288b13	-0.16459303
48	0xbe46a0f8	-0.19397342
49	0x3e27dd0c	0.16392916
50	0x3ea90803	0.33013925
51	0x3e089afc	0.13340372
52	0x3dafc440	0.085823536
53	0xbe375a21	-0.17905475
54	0x3dd2f225	0.10300092
55	0xbe6fcec4	-0.23418719
56	0x3e2a3959	0.16623439
57	0xbea85608	-0.32878137
58	0x3d2f6502	0.042820938
59	0xbddfb604	-0.109233886
60	0xbcbacb88	-0.02280213
61	0x3e6de20c	0.23230761
62	0xbe023df1	-0.12718941
63	0xbe851e2e	-0.25999588
64	0xbea854cb	-0.32877192
65	0xbb6fd1c4	-0.0036593536
66	0x3e33a0b0	0.17541766
67	0xbe5fb394	-0.21845847
68	0x3e02e721	0.12783481
69	0xbe9d757e	-0.30753702
70	0x3e964e0e	0.29356426
71	0xbcf7a90f	-0.03023198
72	0x3e48e1e9	0.19617428
73	0xbdb43660	-0.08799434
74	0x3e8afe91	0.27147344
75	0xbd2ff8a9	-0.04296175
76	0xbdecf052	-0.11569275
77	0x3e23963d	0.1597528
78	0xbe23f528	-0.16011488
79	0xbe6a74c4	-0.22896105
80	0xbe66c2d4	-0.22535259
81	0x3df6582d	0.12028537
82	0x3dd42f99	0.10360641
83	0xbe485207	-0.19562541
84	0x3dad9ec2	0.08477546
85	0xbe817b7c	-0.25289524
86	0x3d39634f	0.045260724
87	0x3b5304fd	0.0032199018
88	0x3de0c387	0.10974794
89	0xbec2d87b	-0.38055786
90	0x3e82bc82	0.25534445
91	0xbcf2e429	-0.02964981
92	0x396d3398	0.00022621301
93	0xbec8e307	-0.39235708
94	0xbe9e01e1	-0.30860808
95	0xbeb3dcd9	-0.3512943
96	0x3e18cf0e	0.14922735
97	0xbe95c114	-0.2924887
98	0xbc6bb3c2	-0.014386119
99	0x3e938ed2	0.288199
100	0xbdac3df8	-0.08410257
101	0x3e7b73b4	0.24555856
102	0xbf06c43f	-0.526432
103	0x3e73afdd	0.23797555
104	0xbd6eb9e9	-0.058282766
105	0x3e5feb93	0.21867208
106	0xbeac2f65	-0.3362991
107	0xbeaecf30	-0.34142447
108	0xbda7c1c7	-0.08191257
109	0xbe2dcd9a	-0.16972962
110	0x3e929fac	0.28637445
111	0x3ea9e0f0	0.33179426
112	0x3d4e73b6	0.05040332
113	0x3e98a9b7	0.29816982
114	0x3df272cf	0.11838304
115	0xbd9c0c33	-0.07619514
116	0x3e5d818e	0.21631452
117	0xbee0911d	-0.43860713
118	0x3de53038	0.111908376
119	0xbe9ca1b6	-0.30592126
120	0x3e076d1c	0.13225216
121	0xbe6eae28	-0.23308623
122	0x3dfe25fd	0.124095894
123	0x3de8b6cd	0.113629915
124	0x3d5855f4	0.052816346
125	0x3d88741a	0.066627696
126	0xbe3444de	-0.17604396
127	0xbe2351de	-0.15949199

fc3.bias f4 [8]
0	0x3ec7a63f	0.38994023
1	0x3ebbf18e	0.3670773
2	0x3e23c72e	0.1599395
3	0x3e895d63	0.2682906
4	0x3e92c837	0.28668377
5	0x3ec39346	0.38198298
6	0x3e87ca7f	0.2652168
7	0x3e9ec494	0.31009352

fc4.weight f4 [2, 8]
0	0xbec76700	-0.3894577
1	0xbe16d68c	-0.1473028
2	0xbe613290	-0.21991944
3	0x3e3f354d	0.18672676
4	0xbe63fd76	-0.22264656
5	0xbd4bf57e	-0.049794666
6	0x3ea8d010	0.3297124
7	0x3c904839	0.017612563
8	0x3e5f2f8c	0.21795481
9	0x3d60e1f5	0.05490299
10	0xbd919580	-0.07108593
11	0x3ee7d4d6	0.45279568
12	0x3e30757f	0.17232321
13	0x3ef02202	0.46900946
14	0xbdf58e37	-0.11990016
15	0x3ee65df5	0.4499356

fc4.bias f4 [2]
0	0x3da21130	0.079134345
1	0xbdccbfcd	-0.099975206
