ligand_model/DNN_FC0002_ModelP16-PaDEL2D-PCC_SFSforward32_batchsize-16_optim-adam_lr-0.005/train3.model (torch, 9295 bytes, 8 tensors)

fc1.weight f4 [32, 32]
0	0x3efdbb5e	0.49557012
1	0x3e93c1ae	0.28858703
2	0x3de31b83	0.11089232
3	0xbec49e23	-0.384019
4	0xbdda7e4f	-0.10668623
5	0x3c9e2b90	0.019307882
6	0xbe851abe	-0.25996965
7	0xbd245a94	-0.040125445
8	0x3dc55e93	0.09637179
9	0x3eb555d8	0.35417056
10	0xbd95dd37	-0.07317584
11	0x3e588571	0.21144654
12	0xbe51dfb7	-0.20495497
13	0xbdaba890	-0.0838176
14	0x3c2057a8	0.009786524
15	0xbddd5936	-0.10808031
16	0xbcdfa98c	-0.027302526
17	0x3c5fd179	0.013660782
18	0x3e54df31	0.20788266
19	0xbe0bcd2f	-0.1365249
20	0x3d17561e	0.036947362
21	0x3e542a06	0.20719156
22	0x3ec32169	0.38111427
23	0xbc9c52cc	-0.01908245
24	0xbd74ef71	-0.05979866
25	0x3e16e75f	0.14736699
26	0x3e836814	0.25665343
27	0x3da7102d	0.08157382
28	0xbbd6f10e	-0.0065594977
29	0x3e70efe3	0.2352901
30	0xbe05958b	-0.13045327
31	0xbd150067	-0.036377337
32	0x3f1893e1	0.59600645
33	0x3e828888	0.2549479
34	0x3d745219	0.059648607
35	0xbe78084a	-0.24221912
36	0x3c24ebb7	0.010065964
37	0xbd6966fc	-0.05698298
38	0xbe5733d7	-0.21015869
39	0x3dc7998e	0.09746085
40	0xbdac86f6	-0.08424179
41	0x3e4840b5	0.19555934
42	0x3e21263f	0.15737246
43	0x3e88a4c0	0.26688194
44	0xbe0ee500	-0.13954544
45	0xbe4198f7	-0.18906008
46	0xbdaf4ddb	-0.085597716
47	0xbca9012a	-0.020630438
48	0xbe3355f9	-0.17513265
49	0x3e6c3de1	0.2307048
50	0x3e800f25	0.25011554
51	0xbe8b0f39	-0.2716005
52	0xbe166901	-0.14688493
53	0xbd8f8d60	-0.07009387
54	0x3e4f2c31	0.20231701
55	0x3dc5d08f	0.0965892
56	0xbd5b9f17	-0.053618517
57	0x3d660f77	0.056167092
58	0xbdcda9a5	-0.10042123
59	0xbde4a2c6	-0.11163859
60	0xbd874933	-0.066057585
61	0xbd9593fe	-0.07303618
62	0xbde2cae2	-0.11073853
63	0xbd75aa18	-0.059976667
64	0x3e44c6c6	0.19216451
65	0x3e5c62a8	0.2152201
66	0xbd977626	-0.07395582
67	0x3c1d43fa	0.009598726
68	0xbe47ec44	-0.19523722
69	0x3de7c777	0.11317342
70	0xbec0f5ac	-0.37687433
71	0xbf05ffdb	-0.5234353
72	0x3e8b3044	0.2718526
73	0xbeabca6f	-0.33552882
74	0xbddb4b61	-0.10707737
75	0x3e3c294b	0.18375127
76	0x3e34b3eb	0.17646758
77	0xbe9b08f5	-0.3028027
78	0x3e13824a	0.1440517
79	0xbd1decb3	-0.038555812
80	0xbdc20022	-0.094726816
81	0x3e67db0d	0.22642155
82	0x3e926fb6	0.28600854
83	0x3e1239bc	0.14279836
84	0xbdfdc375	-0.12390796
85	0xbd917c6f	-0.07103812
86	0xbe13135c	-0.14362854
87	0xbe293293	-0.16523199
88	0x3e89c542	0.26908308
89	0x3b607e6a	0.0034255036
90	0x3e61bcfc	0.22044748
91	0xbc04c1bc	-0.0081028305
92	0xbd6076da	-0.054800846
93	0x3bd4209c	0.006473614
94	0xbdc868bc	-0.097856015
95	0xbda090b2	-0.078400984
96	0x3e84f678	0.2596929
97	0x3d834292	0.06409182
98	0xbdbad994	-0.09123531
99	0x3e788d99	0.24272765
100	0xbeb76f5b	-0.35827145
101	0x3eac6552	0.3367105
102	0xbe599c71	-0.21251084
103	0xbe9aaf81	-0.30212024
104	0x3e4f7188	0.20258152
105	0xbf171f82	-0.5903245
106	0x3c902ab0	0.01759848
107	0x3e25d282	0.16193584
108	0x3e805fe8	0.2507317
109	0xbe836747	-0.25664732
110	0x3d4fbe3b	0.050718527
111	0xbddad573	-0.106852435
112	0x3e4aa512	0.19789532
113	0x3e296e8c	0.16546077
114	0x3ea6e8ad	0.32599393
115	0x3e0da495	0.13832314
116	0x3e1db425	0.15400751
117	0x3d99c064	0.07507399
118	0x3f057f3c	0.5214727
119	0xbd277491	-0.04088265
120	0x3d0b9f69	0.034087572
121	0x3e0e0fcb	0.13873212
122	0x3e658c33	0.22416763
123	0xbda6d41d	-0.08145926
124	0xbc1c1668	-0.009526826
125	0xbcc810f6	-0.02442215
126	0xbe4a5c55	-0.19761784
127	0x3db18695	0.086682476
128	0xbea72c31	-0.32650903
129	0xbe57c903	-0.21072774
130	0x3e78e84f	0.24307369
131	0xbda88119	-0.082277484
132	0x3e86c733	0.26323852
133	0x3dbaa296	0.09113042
134	0x3e98fbb9	0.2987955
135	0xbcb09e62	-0.021559898
136	0xbe7940b7	-0.24341093
137	0x3e0e6b76	0.1390818
138	0x3eb9f86f	0.36322352
139	0xbd9d5819	-0.07682819
140	0xbdd43e89	-0.1036349
141	0xbe1425d3	-0.14467554
142	0x3e54c370	0.20777678
143	0x3e399f04	0.18127066
144	0xbde0987c	-0.10966584
145	0xbbbb3281	-0.0057128076
146	0xbe14c106	-0.14526758
147	0x3cc06155	0.023483912
148	0x3b492a42	0.0030695354
149	0xbdfc92f3	-0.12332716
150	0xbd9a6d07	-0.075403266
151	0x3df97a42	0.12181522
152	0xbdde921e	-0.108677134
153	0xbdba51d3	-0.09097638
154	0xbde3e844	-0.111282855
155	0x3d96f483	0.07370856
156	0x3e3b6d5f	0.1830344
157	0xbdc08bdf	-0.09401678
158	0x3e4bcf83	0.19903378
159	0xbd144b08	-0.036204368
160	0x3ed23409	0.41055325
161	0x3ec62d60	0.38706493
162	0x3e3d4a84	0.18485457
163	0xbf027387	-0.5095753
164	0x3d6a1680	0.057150364
165	0xbdebe48b	-0.115182005
166	0xbe5ac7ee	-0.2136533
167	0x3d2e2a08	0.042520553
168	0x3e37989c	0.1792931
169	0x3ea2dc68	0.31808782
170	0xbdf38bd6	-0.11891906
171	0x3dd88f8b	0.10574254
172	0xbe34880f	-0.17630027
173	0xbe0b4590	-0.13600755
174	0xbd5f1801	-0.05446625
175	0xbde51328	-0.111852944
176	0x3e7b0181	0.24512292
177	0x3dd559b8	0.10417503
178	0x3c806eee	0.015677895
179	0xbe3b4690	-0.18288636
180	0x3d0f0644	0.034918085
181	0xbd44ee51	-0.04807884
182	0x3e8b503f	0.2720966
183	0x3d3dca45	0.046335477
184	0xbde97866	-0.11399917
185	0xbe7dcfa4	-0.2478624
186	0xbd49841b	-0.04919825
187	0x3e2e9131	0.17047574
188	0x3d390097	0.04516658
189	0x3e03c4c7	0.12868033
190	0xbd52d8fa	-0.051476456
191	0xbdfcf496	-0.123513386
192	0x3efcf679	0.49406794
193	0xbd804632	-0.06263389
194	0xbd3a45fb	-0.045476895
195	0xbeb4b775	-0.35296217
196	0xbe85d0ca	-0.26135856
197	0xbe4a9730	-0.19784236
198	0xbdc471dd	-0.0959203
199	0x3d6e479c	0.05817376
200	0xbe92461d	-0.28569117
201	0xbeef1041	-0.46692088
202	0xbda52af2	-0.08064832
203	0xbcd3ea9b	-0.025868705
204	0x3e12620d	0.14295216
205	0xbe4b3f47	-0.19848357
206	0x3cc36ae6	0.023854684
207	0xbdeba2ee	-0.11505686
208	0x3d8dd11f	0.06924652
209	0xbe008760	-0.12551641
210	0xbe121c99	-0.14268722
211	0x3e17ea20	0.14835405
212	0x3c993fe8	0.01870723
213	0xbe225a75	-0.15854819
214	0x3e56e170	0.20984435
215	0x3dec9620	0.115520716
216	0x3c6f801b	0.014617945
217	0xbe77c72b	-0.2419707
218	0x3da44ca6	0.08022432
219	0x3d31277e	0.043250553
220	0xbdca12d6	-0.09866874
221	0x3bf03f92	0.007331797
222	0xbd1fd133	-0.039017867
223	0x3bb8cb49	0.005639468
224	0xbe0031da	-0.12519017
225	0xbe23d3e4	-0.15998799
226	0x3daf9577	0.0857343
227	0x3b9cad0b	0.0047813705
228	0x3ee99bc5	0.45626655
229	0x3e8c535f	0.27407357
230	0x3daedd52	0.08538307
231	0x3e19abea	0.15006986
232	0xbe10fd8f	-0.14159225
233	0x3eba85f8	0.36430335
234	0x3eab1ea1	0.33421806
235	0xbde276a2	-0.11057784
236	0x3b833ade	0.0040048202
237	0xbe870fc2	-0.2637921
238	0xbd8e4887	-0.06947427
239	0x3e981367	0.29702303
240	0x3d21f5ef	0.03954118
241	0xbb2a7385	-0.0026008796
242	0xbf0066c6	-0.5015682
243	0x3e4d1098	0.20025861
244	0x3e4f34c8	0.20234978
245	0x3d3b9830	0.045799434
246	0x3ced165a	0.028941322
247	0x3e110eb1	0.1416576
248	0x3dedd82e	0.11613499
249	0xbd05db6f	-0.03267997
250	0xbdf19261	-0.11795498
251	0xbd428f7f	-0.04750013
252	0x3e2bc3a0	0.16773844
253	0x3bb00c44	0.005372556
254	0xbd5fdf12	-0.054656096
255	0x3c100a40	0.008791506

fc1.bias f4 [32]
0	0xbe41cff6	-0.18926987
1	0xbdeab41f	-0.114601366
2	0xbe0244fb	-0.12721626
3	0xbe0d7a8d	-0.1381628
4	0x3c3b4f7f	0.011432528
5	0xbde079fa	-0.10960765
6	0xbc8054f1	-0.015665503
7	0xbd4f40e5	-0.050598998
8	0xbde5a245	-0.11212591
9	0xbcf2ad14	-0.029623546
10	0x3dbe346f	0.09287345
11	0xbeecb9db	-0.46235546
12	0xbe6a0e07	-0.22856914
13	0xbe30389c	-0.17209095
14	0xbe91cf06	-0.2847826
15	0xbe613798	-0.21993864
16	0xbe9c1dd2	-0.304915
17	0xbe95083c	-0.29107845
18	0xbde2bd42	-0.11071254
19	0x3d169c8b	0.036770385
20	0xbe49aa4b	-0.19693868
21	0x3b079c17	0.0020692402
22	0xbe1a83d0	-0.15089345
23	0xbce4c1a9	-0.027924376
24	0xbdba717f	-0.09103679
25	0xbdf1065f	-0.11768793
26	0xbe0f58a6	-0.1399866
27	0xbe3a0501	-0.18165971
28	0xbe2797bb	-0.16366474
29	0xbee1d788	-0.4410975
30	0xbea65ba3	-0.32491788
31	0xbe4e9b3a	-0.20176402

fc2.weight f4 [16, 32]
0	0xbe72d284	-0.23713118
1	0x3e45b0ac	0.19305676
2	0x3e521f21	0.20519687
3	0xbe214cab	-0.15751903
4	0xbd64b3f2	-0.05583567
5	0xbe3b93a2	-0.18318036
6	0xbdc68233	-0.09692802
7	0x3e406a09	0.18790449
8	0xbd3f7f79	-0.046752427
9	0x3e2d9baa	0.16953912
10	0xbe835183	-0.25648126
11	0xbe4ab34c	-0.19794959
12	0xbec50b43	-0.38485155
13	0xbe5120de	-0.20422694
14	0xbcfca551	-0.030840548
15	0x3d2fd3df	0.042926665
16	0x3ecf420d	0.4048008
17	0x3ea76b8c	0.3269924
18	0xbe40f01c	-0.18841594
19	0xbea0ab93	-0.313809
20	0x3f0433f1	0.51641756
21	0xbd1a6e3d	-0.037702788
22	0x3e0f3a62	0.13987115
23	0xbe2d1a85	-0.16904648
24	0xbf003740	-0.50084305
25	0x3e821c3f	0.25412175
26	0xbb19af31	-0.002345037
27	0x3df0efa9	0.117644615
28	0xbe435b6a	-0.1907784
29	0xbe245b06	-0.16050348
30	0x3eba88f3	0.3643261
31	0xbbd34349	-0.00644723
32	0x3d59dd4b	0.053189557
33	0xbd87d0a6	-0.066315934
34	0x3e3b877c	0.18313402
35	0x3d4cc3fe	0.0499916
36	0xbe23151d	-0.15926023
37	0xbe448ad3	-0.19193582
38	0xbe17822b	-0.14795749
39	0xbd9fae68	-0.07796937
40	0x3d5b5a08	0.053552657
41	0x3d9952e4	0.07486513
42	0xbe4b5d88	-0.19859898
43	0xbd4fda1b	-0.05074511
44	0xbb253d0a	-0.0025213384
45	0xbe6d414e	-0.23169443
46	0xbcfeccf1	-0.031103583
47	0xbdffe8a5	-0.12495545
48	0x3dd80d22	0.1054938
49	0xbe136322	-0.14393285
50	0xbd4d6c80	-0.0501523
51	0x3d4f7583	0.050649177
52	0xbe8d05ac	-0.2754339
53	0xbdd19f6a	-0.10235484
54	0xbdd04d1c	-0.101709574
55	0x3db635ec	0.088970035
56	0x3ec8cb20	0.39217472
57	0xbdd02e87	-0.101651244
58	0xbed37b7c	-0.4130515
59	0xbde5e172	-0.11224641
60	0x3db1d27c	0.08682725
61	0xbd2f1158	-0.04274115
62	0xbe7d750c	-0.24751681
63	0xbeb55b0f	-0.35421035
64	0xbca5b67f	-0.020228622
65	0xbe43c7e5	-0.19119222
66	0x3d628847	0.055305745
67	0xbd2c7fd8	-0.04211411
68	0xbe0ea878	-0.13931453
69	0x3cfc2c5f	0.030782877
70	0x3c5565e5	0.013024782
71	0xbdbdf8f6	-0.09276001
72	0xbda5adb1	-0.0808977
73	0xbe4d2c08	-0.20036328
74	0xbd6a01cd	-0.057130624
75	0xbde0c57c	-0.10975167
76	0x3e6a7b71	0.22898652
77	0x3d9df1b7	0.07712119
78	0xbd5aba2c	-0.053400204
79	0xbdf178ac	-0.117905945
80	0xbdd9e9e8	-0.10640317
81	0xbe9ef3df	-0.31045434
82	0x3e4286ca	0.1899673
83	0xbed89337	-0.42299816
84	0xbccf77ac	-0.025325619
85	0x3d928544	0.07154325
86	0xbea2606e	-0.31714195
87	0x3e5a6e7c	0.21331209
88	0xbc38dc64	-0.011283014
89	0xbd18d5c8	-0.037313253
90	0x3eac8cc1	0.33701137
91	0xbd9cbe72	-0.07653512
92	0xbd1bb455	-0.038013775
93	0xbcc4a7fb	-0.02400588
94	0xbe03548c	-0.12825221
95	0xbe891bd9	-0.2677906
96	0x3e9d32ec	0.30702913
97	0x3e01dc78	0.12681758
98	0x3e14a444	0.14515787
99	0x3e41cb42	0.18925193
100	0xbcf0e1cd	-0.029404545
101	0x3e9f1458	0.3107021
102	0x3e12408e	0.14282438
103	0xbd943e5d	-0.07238457
104	0xbe445138	-0.19171607
105	0x3d994e70	0.07485664
106	0x3db0f453	0.08640351
107	0xbcdf4768	-0.027255729
108	0x3d863600	0.065532684
109	0x3e8de8d3	0.27716693
110	0x3d969811	0.07353223
111	0x3ed4d60e	0.4156956
112	0xbea531c9	-0.32264546
113	0xbe3ebd19	-0.18626823
114	0x3e8756b3	0.26433334
115	0x3d6951c7	0.056962755
116	0xbcb5b673	-0.022181725
117	0x3e38f467	0.18061982
118	0xbd567f44	-0.052367464
119	0x3e832857	0.25616714
120	0xbc398d28	-0.011325158
121	0x3c599199	0.013279342
122	0x3e8d4e73	0.27598915
123	0xbe815369	-0.2525895
124	0x3ec56876	0.3855626
125	0x3e2e697c	0.17032427
126	0xbec0c683	-0.37651452
127	0xbd47f980	-0.048821926
128	0x3d8ff0ad	0.07028327
129	0x3e9a9beb	0.3019708
130	0xbb7fd07b	-0.0039034176
131	0xbccbc1a8	-0.024872616
132	0xbef6293c	-0.48078334
133	0x3e631ff4	0.22180158
134	0xbe0d2e6a	-0.13787237
135	0xbe850cbb	-0.25986275
136	0xbeb4f796	-0.35345143
137	0xbeb6ad6c	-0.35679185
138	0x3d315d6a	0.043301977
139	0x3e80449b	0.25052342
140	0x3dbc3fe5	0.091918744
141	0x3e02e3d0	0.12782216
142	0x3d72d34a	0.059283532
143	0x3e9d89cd	0.30769196
144	0xbe0062dc	-0.12537712
145	0xbe8896b3	-0.26677474
146	0x3e126bb0	0.14298892
147	0x3c880095	0.01660184
148	0xbe2374ac	-0.15962476
149	0xbd36de5e	-0.04464566
150	0xbe42593e	-0.18979356
151	0xbe698489	-0.22804464
152	0xbdaee73a	-0.08540197
153	0xbdd41d21	-0.103571184
154	0x3dd2132f	0.10257565
155	0xbeaa46ac	-0.33257043
156	0xbba040eb	-0.0048905513
157	0xbea8401e	-0.32861418
158	0xbebbf020	-0.36706638
159	0xbe8c3b9e	-0.27389234
160	0xbe9eebfb	-0.31039414
161	0x3e00f2fb	0.1259269
162	0xbd99656b	-0.07490047
163	0xbe0bd40c	-0.13655108
164	0x3d9149eb	0.07094177
165	0xbe9625af	-0.29325625
166	0xbec27f73	-0.3798786
167	0x3df9012e	0.12158428
168	0x3e821f52	0.2541452
169	0x3e70bf69	0.23510517
170	0xbe06d357	-0.13166557
171	0x3de99c20	0.114067316
172	0xbe14d44c	-0.1453411
173	0xbe8d1bad	-0.27560177
174	0xbe77072e	-0.24123833
175	0x3dc54989	0.09633166
176	0x3dbb4a98	0.09145087
177	0xbd656909	-0.056008372
178	0x3d0cac14	0.034343794
179	0xbee85414	-0.45376647
180	0x3e39929e	0.18122336
181	0xbe14dc5d	-0.14537187
182	0x3e5b7f3c	0.21435255
183	0xbe79ca89	-0.24393667
184	0xbf0fa7f1	-0.56115633
185	0xbda31203	-0.0796242
186	0xbeae220a	-0.34010345
187	0x3eac4eeb	0.3365396
188	0xbe99c902	-0.3003617
189	0xbdbdab1b	-0.092611514
190	0x3ea774d9	0.32706335
191	0xbd967a13	-0.073475026
192	0xbe8e4497	-0.27786705
193	0xbdd342b1	-0.10315455
194	0xbdf7b4c0	-0.12095022
195	0xbead3f45	-0.33837333
196	0x3e0afffe	0.13574216
197	0xbedfeeda	-0.43736917
198	0xbe20ef51	-0.15716292
199	0x3ea2b40f	0.31778
200	0x3e7689db	0.24076025
201	0xbc847519	-0.016169118
202	0x3d3df1aa	0.046373047
203	0xbe0da475	-0.13832267
204	0xbde10619	-0.10987491
205	0xbecaf8ce	-0.39642948
206	0xbea71367	-0.3263199
207	0xbd0d0724	-0.034430638
208	0x3e04b24b	0.12958638
209	0x3dc05cff	0.093927376
210	0x3e09ef53	0.13470201
211	0x3c8dc296	0.0173047
212	0x3e9a98cf	0.3019471
213	0x3d66356f	0.056203302
214	0x3eb8f1bb	0.36121926
215	0xbe4898a3	-0.19589476
216	0xbe94c7fa	-0.2905882
217	0x3e3c1974	0.18369085
218	0xbb6c39da	-0.0036045224
219	0x3e2f15ea	0.17098203
220	0xbe8c8a38	-0.27449203
221	0xbe11ebe5	-0.14250143
222	0x3e4af395	0.19819482
223	0x3e48db31	0.19614865
224	0x3eb1008f	0.3457074
225	0x3e97a3d6	0.29617184
226	0xbda8e622	-0.08247019
227	0x3e9f68fe	0.3113479
228	0x3d40c224	0.047060147
229	0x3eb110bd	0.34583083
230	0x3e07efa9	0.13275017
231	0xbce22fb8	-0.027610645
232	0xbdcc9009	-0.0998841
233	0xbe27b344	-0.16376978
234	0xbe04996c	-0.12949151
235	0x3e9edb40	0.3102665
236	0x3d7f8c54	0.062389687
237	0x3dda09e9	0.106464215
238	0xbd22c897	-0.03974208
239	0x3e7b63a3	0.24549727
240	0x3d604a19	0.054758165
241	0x3cb237e2	0.021755163
242	0xbe481923	-0.19540839
243	0xbe429a4b	-0.1900417
244	0x3d3425a0	0.043981194
245	0x3db736ca	0.08945997
246	0xbe84ea30	-0.2595992
247	0x3edce614	0.43144286
248	0xbd80e9dc	-0.06294605
249	0xbd3bf036	-0.04588338
250	0x3e94c9b8	0.2906015
251	0xbe2c14a8	-0.16804755
252	0x3cd383bb	0.02581965
253	0xbdf09c2e	-0.11748539
254	0xbe50d1dc	-0.20392555
255	0x3e848b1e	0.25887388

fc2.bias f4 [16]
0	0xbd62d858	-0.055382103
1	0xbe37106f	-0.17877363
2	0xbe7bdc38	-0.24595726
3	0xbd8809b9	-0.066424794
4	0x3e9940c2	0.2993222
5	0x3cbee6fa	0.023303498
6	0x3e0e1e4e	0.13878748
7	0x3d4d079b	0.05005608
8	0x3e26b13f	0.16278552
9	0xbdd1bbee	-0.10240923
10	0xbd8ec3c2	-0.069709316
11	0xbd6573f3	-0.05601878
12	0x3d97ec15	0.07418076
13	0x3e4009a7	0.18753682
14	0x3dab5eef	0.083677165
15	0xbd3bc1e1	-0.045839194

fc3.weight f4 [8, 16]
0	0xbe2b8ad6	-0.1675218
1	0xbdea9944	-0.11455014
2	0xbe2ddef2	-0.16979578
3	0xbe50657c	-0.20351213
4	0xbc3a0a20	-0.011354953
5	0xbe587025	-0.2113653
6	0x3d8bc8af	0.06825387
7	0xbe8ac7c4	-0.27105534
8	0xbd9957dc	-0.07487461
9	0x3d10391e	0.03521072
10	0xbe4f9607	-0.20272075
11	0xbe2ad185	-0.16681488
12	0xbe843449	-0.2582114
13	0xbe76f892	-0.2411826
14	0xbd356256	-0.044283234
15	0xbd04b07b	-0.032394867
16	0x3e4e694f	0.2015736
17	0x3e50edcf	0.20403217
18	0xbd83cde2	-0.064357534
19	0xbe796dda	-0.24358311
20	0xbeda8329	-0.42678192
21	0x3e0dfeed	0.13866778
22	0xbd6a3d15	-0.05718716
23	0x3dafb132	0.08578719
24	0xbe2eef9c	-0.17083591
25	0x3ea2f007	0.3182375
26	0xbe7063e7	-0.2347561
27	0xbd09b999	-0.033624265
28	0xbe14a412	-0.14515713
29	0xbdf5d3c5	-0.120032825
30	0xbe18d362	-0.14924386
31	0x3ebd70a4	0.37
32	0xbed77efe	-0.42089075
33	0xbe2442c8	-0.160411
34	0x3dc45e2a	0.09588273
35	0x3e561934	0.20908052
36	0x3eb564bd	0.3542842
37	0xbe8081d0	-0.2509904
38	0xbeb35455	-0.35025278
39	0x3e1d1686	0.15340623
40	0x3e6687bc	0.22512716
41	0xbe1f5b0a	-0.15562072
42	0x3e0a4a4d	0.13504906
43	0x3ca4cff7	0.020118697
44	0xbe96716a	-0.29383403
45	0x3e55167f	0.20809363
46	0xbed8d1cd	-0.42347565
47	0xbe8015c0	-0.25016594
48	0xbe441691	-0.19149233
49	0xbef913eb	-0.4864801
50	0x3e11e582	0.14247707
51	0xbefc77f7	-0.49310276
52	0x3eadb244	0.33925068
53	0xbe12dabe	-0.14341256
54	0xbe66e744	-0.22549158
55	0x3c8b7a14	0.017025985
56	0x3c8f72c2	0.017510775
57	0xbe3e8334	-0.18604738
58	0xbe1ccf95	-0.15313561
59	0x3bc73dad	0.0060803504
60	0xbdac782e	-0.0842136
61	0xbe085149	-0.13312258
62	0xbe36ce7e	-0.17852208
63	0xbe06e7e7	-0.13174401
64	0x3dd73045	0.105072536
65	0x3e6f29d6	0.23355803
66	0x3e7a5537	0.2444657
67	0xbe75bc25	-0.23997553
68	0xbe931d9e	-0.28733534
69	0x3e983a35	0.29731908
70	0x3d70d7df	0.05879962
71	0x3cb49e80	0.022048235
72	0xbe834c23	-0.25644025
73	0x3e61f32b	0.22065417
74	0xbe60d2d1	-0.2195542
75	0x3e22d5a1	0.15901805
76	0xbd805e50	-0.06267989
77	0xbea76194	-0.32691634
78	0x3e8386ed	0.25688878
79	0xbe100998	-0.1406616
80	0xbe81979e	-0.25310987
81	0xbebe2a41	-0.37141612
82	0x3e4c90b9	0.19977082
83	0xbec5549a	-0.38541108
84	0xbd02492f	-0.031808075
85	0xbd769f1e	-0.06021034
86	0xbd9a56c0	-0.075360775
87	0x3e90d2eb	0.28285918
88	0x3e56ba99	0.20969619
89	0xbdac577c	-0.08415124
90	0xbedaa3e7	-0.42703173
91	0xbcb38ff5	-0.02191923
92	0xbe6b8d22	-0.23003057
93	0x3da955d6	0.08268325
94	0xbf0eabe7	-0.5573105
95	0x3d1fcddf	0.039014693
96	0xbe180b45	-0.14848049
97	0xbdf0273d	-0.11726234
98	0xbd66188d	-0.056175757
99	0xbd281b6d	-0.04104178
100	0x3ead83be	0.33889574
101	0x3d0c3030	0.034225643
102	0xbe1225bb	-0.14272206
103	0x3d7f4cc2	0.06232906
104	0x3dce0fe1	0.100616224
105	0xbbf52c65	-0.007482099
106	0x3e155f8a	0.14587227
107	0xbe1d73d9	-0.15376224
108	0xbe20b9f7	-0.1569594
109	0x3e88a979	0.26691797
110	0xbd913e98	-0.07092017
111	0xbe6b0a30	-0.22953105
112	0x3d8366a4	0.064160615
113	0xbe0b6cf2	-0.13615778
114	0xbe21df0a	-0.15807739
115	0xbed73be9	-0.42037895
116	0xbdb8ca63	-0.09022977
117	0x3e5f256b	0.21791618
118	0x3ecabdfb	0.3959807
119	0xbe91e784	-0.28496945
120	0xbdcd9584	-0.100382835
121	0x3e93e595	0.28886095
122	0xbe8c389b	-0.27386937
123	0x3d4bf4d1	0.049794022
124	0x3eb37e35	0.35057226
125	0xbebfbf62	-0.374507
126	0x3ed11d44	0.4084264
127	0x3ea7d3d7	0.32778808

fc3.bias f4 [8]
0	0xbeaafd74	-0.33396494
1	0xbc91255c	-0.01771801
2	0x3f07883b	0.52942246
3	0x3e010ec6	0.12603292
4	0x3d72fa78	0.059320897
5	0xbd872bb2	-0.06600131
6	0x3e14ab6a	0.14518514
7	0x3e161863	0.1465774

fc4.weight f4 [2, 8]
0	0xbdb13f58	-0.0865466
1	0x3df5446a	0.119759396
2	0xbece84a1	-0.40335563
3	0xbdb1a776	-0.08674519
4	0xbdbadeb6	-0.0912451
5	0x3c8859a0	0.016644299
6	0xbe9c60ac	-0.30542505
7	0x3ed7532a	0.42055637
8	0x3d869bf4	0.065727144
9	0xbe760bf5	-0.24027999
10	0x3ee89021	0.45422462
11	0x3e7939f4	0.24338514
12	0xbe97583e	-0.2955951
13	0x3e4d49e5	0.2004772
14	0x3d8ec11b	0.06970426
15	0xbe82a82f	-0.2551894

fc4.bias f4 [2]
0	0x3d8e11fc	0.06937024
1	0x3dc8d581	0.09806348
