ligand_model/DNN_FC0002_ModelP16-PaDEL2D-PCC_SFSforward32_batchsize-16_optim-adam_lr-0.005/train1.model (torch, 9295 bytes, 8 tensors)

fc1.weight f4 [32, 32]
00000000: 4d22 323e 1957 bc3e 6915 133e fdd2 7dbe
00000010: 5d60 c03d 5053 a3bd 00ad a7bd 4cc5 dfbd
00000020: 1fcb c13e 0e92 9f3d 50db 27bd 8b04 703d
00000030: a2c1 90be 9a1c 9abe 22d5 08be afa7 7f3e
00000040: b869 6f3e 3c02 e13e 373a 79be b04b 8ebe
00000050: 6129 153e 2660 163d 4083 adbd b99c 053e
00000060: 6e85 9bbd 62c0 b13d 926b 023f bbad a1bd
00000070: 9389 ca3e ed89 d73e c793 973d 78a0 733d
00000080: aa99 253f fc2a a33d dbf6 483e 5ebf d2be
00000090: a3ab 59bb 945a e23c e0eb 8bbc 63ba f63d
000000a0: 9c51 6cbd 991b 983e 6a33 22bc 004a d53d
000000b0: 4873 d6be 33f0 0dbe 21d8 5bbd 18d3 d73d
000000c0: fc07 0b3f 834d c83e 9c75 a03e a853 14bf
000000d0: d8bf 47bd dbdd b2bd 99d3 e43d 2bd7 89bd
000000e0: ea8d abbd 4a2b 8d3e 1ea3 a13e 6e3e 8e3d
000000f0: 2343 813e 68f0 fc3e 85d6 26be a1cc 553c
00000100: 80ca 283f cc76 d93e e787 c73e 1c5c 85be
00000110: 59ca 36bd d4b5 83be 2aa3 05bf e65c 253e
00000120: 3704 713e 4af0 0e3e 9613 8abd 4536 e53e
00000130: e55f 96bd 2d0b d1bd 839f b23e 94f3 84bc
00000140: 7ba5 313f aa39 0a3e 98ec fcbb 99b9 89be
00000150: d68c 4e3e 569d a5bd e389 fc3d 7f35 b73e
00000160: 3163 04be 5882 c23e 8646 323f f22a 0e3e
00000170: 562e e73c fdaa 533e 0675 b03e e017 cabd
00000180: 1b49 0c3f 54c7 843e baca 363e 8dae b8be
00000190: a183 2abd 0e30 9abe 99f1 babe 8457 2cbe
000001a0: 0117 903e ca8f 143e 1d8f b7bd f841 953d
000001b0: e384 c1be 81aa afbd a471 bb3e ea80 8d3d
000001c0: 23a7 9c3e cecc ab3d 49e9 fa3d 2b3e ecbd
000001d0: ca94 693e 2a67 243d fb20 173e 065e f5bc
000001e0: 9b14 22be 89a0 b73d bc1c e23e b274 bebd
000001f0: 8b51 b13e 659b 8a3e 6d59 89bc c7d6 cfbd
00000200: 594d 0bbe cc4c e73d 2053 03bf c53d f73d
00000210: 959a aabe e46d 9a3c cf39 d8be 0ecd b4be
00000220: c1b1 683d f8b0 7f3e 8b9f d03d 193c 0e3e
00000230: ef7f a33e 36b9 ad3e cae7 1e3d b7a8 4fbd
00000240: 90f7 693e 33ab 82bd 1f4d 593d f049 253c
00000250: d7b0 1f3e 8892 973e 68fc fd3b 31c8 3f3c
00000260: 6e31 8f3e a3a4 f03d 3bec c73e 9528 7e3e
00000270: ae96 8ebd 1f0c 06bd f2ff fc3d ec0c 06be
00000280: 004e 123f bf74 aa3e 1c85 523e a675 f0be
00000290: 781c adbd affd ce3d b4d8 c3be d7cc a5be
000002a0: abac a13e 958d f23c 3f0d d6be e2b4 923e
000002b0: a809 08be 7b4d aebe 2e02 a63e 3f8b f33c
000002c0: adac bf3e 506b 893e a531 b63e 8340 49bc
000002d0: b05d 0f3e b9bd 78bd 899b eb3d 1958 cc3d
000002e0: 5db9 42be 4380 353e 4560 9d3e f6b5 e43d
000002f0: 6359 d43d 5301 733d 7ce7 79be d2cd 2dbd
00000300: c8ae 483d 75bd cdbc a9f2 27bf f511 68be
00000310: c431 1cbe 2278 2e3e ef42 9ebe 4713 a2bd
00000320: 2a48 b4bc d045 ad3d ba3e 8ebd f02a f93d
00000330: 43c9 e23d 4940 c73d 8af2 cc3c bec2 bbbc
00000340: b0af 1b3e d672 2e3e 163b e43e 5aef d2bd
00000350: 93ad 953d 6bd1 a53e 24af 683d b31f a33d
00000360: cd0d 923e 9ab4 183e c730 b13a f761 093e
00000370: def0 fb3d 808b ec3e 44f7 55be 6f41 d9bc
00000380: ebfe ad3d 4b02 073f e292 093d ac7a 343f
00000390: abec 113f 7765 d2bd 0f55 203f 786a 0cbe
000003a0: 3998 b3be 7473 92be 8fba 283e 2fa5 753e
000003b0: f9ff c8bd 50ad cc3e 6ef2 883e b3ce e93e
000003c0: 2c81 1d3e f9b3 1dbd f14d adbe 59a6 dcbd
000003d0: 2298 d2bd 749f cabb e7ed a2bb 3a70 e6bd
000003e0: de4b 763c 022a af3d 281b 3b3b d192 9e3b
000003f0: c89f f03c 4db3 bd3d fb72 32bb 3cfa 47be
0.17395897 0.367852 0.14363636 -0.24787517 0.0939338 -0.07974875 -0.08187294 -0.10926303
0.37850282 0.077915296 -0.040980637 0.058598083 -0.2827273 -0.30099946 -0.13362554 0.2496631
0.23380172 0.43947017 -0.24338613 -0.2779212 0.14566566 0.036712788 -0.084722996 0.13048066
-0.07593809 0.08679272 0.5094539 -0.078944646 0.39558086 0.42097417 0.07401233 0.059479207
0.646876 0.07967183 0.19625418 -0.41161627 -0.0033213876 0.027631082 -0.017080247 0.12047269
-0.057695016 0.29708555 -0.009899953 0.10414505 -0.41884828 -0.1386116 -0.053672913 0.1053831
0.5430906 0.39121637 0.3133973 -0.5794015 -0.04876694 -0.08733722 0.111731716 -0.06730493
-0.08376677 0.2757209 0.3156976 0.06945501 0.25246534 0.49402165 -0.1629277 0.013049276
0.6593399 0.42473447 0.38970873 -0.26046836 -0.044626568 -0.2572466 -0.52202094 0.16148719
0.23536764 0.1395885 -0.06742017 0.44767967 -0.07342509 -0.1020721 0.34887323 -0.016229428
0.6939313 0.1349856 -0.007718634 -0.26899412 0.20170912 -0.0808665 0.12330987 0.35783002
-0.12928464 0.3799007 0.6963886 0.1388357 0.028220337 0.20670696 0.34464282 -0.09867835
0.5479905 0.25933325 0.17850772 -0.36070672 -0.041629437 -0.30114788 -0.3651245 -0.1683026
0.2814255 0.14507976 -0.089628436 0.07287973 -0.37796697 -0.08577443 0.36610138 0.06909354
0.30596265 0.08388673 0.12251527 -0.11535295 0.22810665 0.040137447 0.14758675 -0.02995206
-0.15828173 0.089661665 0.44162548 -0.092996016 0.34632525 0.27071682 -0.016766274 -0.101483874
-0.13603725 0.11293945 -0.51298714 0.120723285 -0.33321062 0.018851228 -0.42231604 -0.35312694
0.056810144 0.24969852 0.101866804 0.13890113 0.31933543 0.33930367 0.03879527 -0.05069801
0.22848344 -0.0638031 0.053052064 0.010088429 0.15594803 0.29603982 0.0077510364 0.011705444
0.279674 0.11750152 0.39047417 0.24820168 -0.069623336 -0.032726403 0.12353505 -0.13090867
0.5715027 0.33292195 0.2055859 -0.4696476 -0.084526956 0.1010698 -0.3825127 -0.32382843
0.31577048 0.029608527 -0.4180698 0.28653628 -0.13284934 -0.34043488 0.32423538 0.029729484
0.3743643 0.26839685 0.3558475 -0.012283447 0.14000583 -0.06072781 0.11504275 0.09977741
-0.19016023 0.17724709 0.3073751 0.11167519 0.10368612 0.059327435 -0.2440471 -0.042432614
0.04899481 -0.025114754 -0.65604645 -0.226631 -0.15253359 0.17038015 -0.3091044 -0.07913833
-0.022007067 0.08460581 -0.06945558 0.12166393 0.11073544 0.09729058 0.025017995 -0.022920009
0.15203738 0.17035994 0.4457633 -0.10299559 0.07308497 0.32386336 0.056807652 0.079650305
0.28526154 0.14912644 0.0013518565 0.13416277 0.12301801 0.4620018 -0.20895106 -0.026520459
0.08495887 0.52737874 0.033587344 0.7049968 0.5700175 -0.10273259 0.6262979 -0.1371249
-0.35077074 -0.2860371 0.16477416 0.23988794 -0.09814448 0.39975977 0.2674746 0.4566551
0.15381306 -0.038501713 -0.33848527 -0.10773916 -0.10282923 -0.006183559 -0.004972208 -0.11251874
0.015032737 0.08552934 0.0028550122 0.004839279 0.029373065 0.092627145 -0.0027229178 -0.1952905

fc1.bias f4 [32]
00000000: 2c1f 06be 433a 8bbe aa2c fcbe d48c c1be
00000010: 578a 86be 7d56 033e ff33 c2bd 4c6d 26bf
00000020: b030 51be c12b debd 5620 f7be 7053 38be
00000030: 62ee e0be 2347 c4bc b767 b4be fb2a d2be
00000040: 7229 a0bd fc44 c1bd c844 b0be dba3 0fbf
00000050: d07f 3fbe 5f78 fbbe 4445 06be d3bc 1fbe
00000060: c116 babe 1759 43be d0a0 a5be d386 26bf
00000070: 6cc6 bdbc 6739 b5be 1e60 8dbe 5eef a1bd
-0.13097829 -0.27192888 -0.49252826 -0.37802756 -0.2627742 0.12825961 -0.09482574 -0.65010524
-0.20428729 -0.10848189 -0.48266858 -0.18000579 -0.43931872 -0.023959702 -0.35235378 -0.41048416
-0.07820405 -0.09436986 -0.34427476 -0.561094 -0.187011 -0.49115273 -0.1311236 -0.15599374
-0.36345485 -0.19076954 -0.32349253 -0.65049475 -0.023165904 -0.35395357 -0.27612394 -0.07906984

fc2.weight f4 [16, 32]
00000000: 2f13 5e3e ba70 c03e 80d0 823e 8d25 0e3e
00000010: d7c3 8aba e58b 6e3e ab6d fabc 1e8d d1be
00000020: 3066 033f ccb2 6e3d e307 94be 78c4 26bd
00000030: a1f1 29be 801f 0f3e 4702 65be 973b 4fbe
00000040: fed8 c7bd f904 a63d dcc2 493e 0c1a 99be
00000050: 96ee 12be 2d56 b6be 7ad4 623e 9496 cd3e
00000060: 3d40 153d 98eb a93d 6716 0a3e ff9f 97be
00000070: 05b1 683e 4d62 6dbd 5ea8 c0be 620b 533e
00000080: 44fe 1f3e a94f 5abb 651f d8be 2795 853d
00000090: b368 b43d 36dd c8be 35f2 603e c792 4e3e
000000a0: 1ce9 19be ea8e 94bd 3b1b 8e3e 3eb9 1f3e
000000b0: c12e 713e e4db 00be 4a2d 1a3e 5c3b 6dbe
000000c0: 04dd 87bd c39c ffbe d0b1 e4be e530 c93e
000000d0: 7b78 66bd aac4 4a3d 97bd 82be bf20 7dbe
000000e0: 1585 933e 0dc0 04bf 88ee a3be 7c0c 5e3e
000000f0: efa4 cf3d 68a9 203e 99c2 0a3f 93f2 1dbe
00000100: fa7a df3d 72ce af3e 1ea5 f53e 58a7 fb3c
00000110: 9f7e a7be 265d c1bb 4daf 89bd bfd6 fbbe
00000120: e81b 6e3d 1e08 4e3e 22de 9dbe aec0 b6bd
00000130: d602 9fbe d9a3 ed3d 058c b8bd bfdf 88be
00000140: 9e3f 183e 4b6e d8bd de5b d43d c1e9 543d
00000150: 6489 2dbe c8e9 80be 7f5e fd3d 53f3 213e
00000160: 8dd0 043e 154f a43e 02a5 adbd ab16 90be
00000170: e25d 1fbd 06d1 29be a28a 39be 88fe 6b3e
00000180: c9f9 4a3e 2ca5 af3e d2f0 df3e 69cf 8d3e
00000190: eb46 06be 4529 6b3e 5328 6dbd 5357 f1be
000001a0: 1642 8ebd 2760 6f3d b1b0 d1be a9e6 e1bd
000001b0: 52d9 73be fef6 f83d e7c9 c3bd 996a 33be
000001c0: d04f 193e c4f5 fd3d 992c 153f 5ea2 b7bd
000001d0: 9145 9cbe 2de9 03bf 6ed0 1d3e af00 ca3e
000001e0: 7b34 82be 1075 db3d 1caf a53d 7e6a bdbe
000001f0: 3516 04bd fa04 07bf 0685 abbe 5609 a33e
00000200: b8cc 1dbd 0cd4 f73e be41 a93e 212c 7b3d
00000210: e3df f4bd 1355 003e 9332 9cbd a88c 25bf
00000220: 6d71 173e 4e08 673d 54dd a5be 4009 f4bd
00000230: ff2b 8cbe 7187 8b3d 9dca 0abe eae4 8abc
00000240: f22b ed3d b62b f6b9 3b64 9f3e 50a8 f1bd
00000250: 2e55 4cbe 964a a9be 888d ce3e 3196 d33e
00000260: 3234 94bd 576e c2bb 2028 05bd f865 fcbe
00000270: f1b5 f03d 3903 09bf 6481 c8be 8a0c 6d3e
00000280: 2908 533e 4c93 c2bb deb7 f83e fbca e83d
00000290: 29ce 3fbe 230d f33e 9a4d 15be bb8f b5be
000002a0: 6773 293e fbbe ba3c 1b08 96bd 5abe 04be
000002b0: ef26 ef3b 160d 0c3b 0a55 7abe a26e 74bd
000002c0: d54d d13d 3e49 6abc 092f b93e 8818 8ebd
000002d0: 0753 91bd f3e0 28be cc97 653e 26da 913e
000002e0: 0489 4ebe 8123 563e 9af7 d6bd 9b31 a0bd
000002f0: 4af5 c0bd af2d a0be 458f eabd 5574 b33d
00000300: f27c edbd 1b1c 633e 0d82 7c3e c5f3 113e
00000310: 0302 a0bd c146 57bd a8c7 ce3d a48f d0be
00000320: 2de2 a2bd a1b9 17bf 1fd8 c6be aebc 36be
00000330: 0fa9 03bf 7072 b53e aaa8 dcbe fe80 843c
00000340: 278a c03c ca08 cc3d ecfb 0bbe a2ec ed3c
00000350: 25db acbe 3777 3bbe 39c7 553b 2c29 fbbd
00000360: 4fe1 20be 5ae8 09bd 312f 1fbe 5c61 e8be
00000370: 6d4c bf3d c7be dfbe 9736 4dbe 908d f03e
00000380: 9ff1 883e 1aad 26be 9a8c 733e 414b 403d
00000390: c648 3cbe 36b6 9b3e f32b 16bd bcae 29bf
000003a0: 04d6 f03e 42a1 fd3d 9f30 17bf 9ba3 3bbe
000003b0: 0b4c 2ebd 4ac5 153d fe1f 36be 47c9 fcbd
000003c0: bb56 e53d 0ba0 88bd d349 4b3e a601 39be
000003d0: 66ea 0ebd 240e 01be b785 23bd e3e3 c93e
000003e0: f803 d7bd a3a0 823d f990 1cbd f4d7 ecbe
000003f0: 75bc 8c3d a47f d8be f39b 8ebe 1788 d73d
0.21687005 0.37586004 0.25549698 0.13881512 -0.0010586929 0.23295553 -0.030569872 -0.40927976
0.513278 0.058275983 -0.28912267 -0.04071471 -0.1659608 0.1397686 -0.2236415 -0.20237575
-0.09758185 0.08106417 0.19703239 -0.29902685 -0.14348826 -0.35612622 0.22151366 0.40153944
0.036438216 0.08296889 0.13485108 -0.29614255 0.22723778 -0.057955075 -0.37628454 0.20609811
0.15624338 -0.0033311641 -0.42211452 0.06522589 0.08809032 -0.3923127 0.21967395 0.20173179
-0.1503033 -0.07253821 0.2775515 0.15598008 0.23552991 -0.12583882 0.15056339 -0.23167175
-0.06633952 -0.49924287 -0.4466691 0.39295116 -0.056267243 0.04950396 -0.2553527 -0.24719523
0.2881247 -0.51855546 -0.32017922 0.2168445 0.101388805 0.15689623 0.5420318 -0.15424566
0.10912128 0.34337193 0.47977537 0.030719444 -0.32713792 -0.0059009967 -0.06722889 -0.49187276
0.058132082 0.20120284 -0.30833536 -0.089234695 -0.3105685 0.11603517 -0.090110816 -0.26733205
0.14868018 -0.10567912 0.10369085 0.051980738 -0.16946942 -0.2517836 0.12371539 0.15815477
0.12970181 0.32091585 -0.08478738 -0.28142294 -0.038907893 -0.16583642 -0.1811929 0.23046315
0.19821848 0.34305704 0.4373842 0.27697304 -0.1311299 0.22964962 -0.057899784 -0.47136936
-0.06946199 0.058441307 -0.40955117 -0.11030323 -0.2381337 0.12156485 -0.09559994 -0.17521133
0.14971852 0.12400392 0.58271176 -0.08966516 -0.30521825 -0.51527673 0.15411541 0.39453647
-0.25430664 0.10715687 0.0809004 -0.3699531 -0.03224774 -0.5274197 -0.33499926 0.3184306
-0.038525313 0.48403966 0.3305797 0.06132138 -0.119567655 0.12532453 -0.07626834 -0.6466775
0.14789362 0.056404404 -0.32395422 -0.11915827 -0.27377316 0.06812943 -0.13553853 -0.016954858
0.115806475 -0.00046953344 0.31131157 -0.11799681 -0.19954368 -0.33064717 0.40342355 0.41325524
-0.07236518 -0.0059335637 -0.03250897 -0.49296546 0.117534526 -0.5352054 -0.39161217 0.23149315
0.20608582 -0.0059379693 0.4857778 0.113668405 -0.18730988 0.4747096 -0.14580384 -0.3546122
0.16547929 0.022796145 -0.07325765 -0.12963238 0.0072983424 0.0021370105 -0.24446502 -0.05967582
0.102199234 -0.014299689 0.36168697 -0.06938273 -0.07095914 -0.16492061 0.22421187 0.28486747
-0.20169455 0.20911981 -0.10496445 -0.078219615 -0.09421785 -0.31284854 -0.11453108 0.08762423
-0.11596097 0.2217869 0.24658985 0.14253147 -0.07812884 -0.05255771 0.10096675 -0.4073459
-0.07953296 -0.5926762 -0.38836762 -0.17845413 -0.5142984 0.3543887 -0.4309743 0.01617479
0.023503376 0.09962614 -0.1367032 0.0290435 -0.33760944 -0.18307196 0.0032619967 -0.12263712
-0.15710948 -0.033668853 -0.15545346 -0.4538678 0.09340749 -0.4370024 -0.20040356 0.46983004
0.26746842 -0.1627697 0.23784104 0.046946768 -0.18387136 0.30412453 -0.036663007 -0.6628225
0.4703828 0.12384273 -0.59058565 -0.1832413 -0.04255299 0.036565103 -0.17785642 -0.12343078
0.11198183 -0.06671151 0.1985238 -0.18067035 -0.03489151 -0.1260305 -0.039922442 0.39431676
-0.10498804 0.06378295 -0.038224194 -0.4625851 0.06871883 -0.42284882 -0.27853355 0.10524004

fc2.bias f4 [16]
00000000: 141e aa3e b97f c63d 403e b83d f392 953e
00000010: 49f1 843e bd97 f63c a668 333e 94d1 9abc
00000020: ceae e03d dcbb 893d 36aa 20be 2497 f53e
00000030: 29da 483d 6fe0 523d 999a 343e 5cb9 eb3d
0.33226073 0.0969233 0.08996248 0.29213676 0.25965336 0.030101651 0.17520389 -0.018898763
0.10970841 0.067252845 -0.1568993 0.47966874 0.04903618 0.051483568 0.176371 0.11509964

fc3.weight f4 [8, 16]
00000000: a9eb f9be a95f 8c3e 8f1c 8cbe de8c 0fbf
00000010: 04be 98be 55e8 d5bd f164 eabd e414 97be
00000020: f7a6 c0be f21d b63e f5ad c4bd b17d a3be
00000030: 3291 93be b6ad c03e 610f 903e 8cd1 d53e
00000040: 5afc 99bd 597c 5eba 9a28 f4bb 27a7 323e
00000050: c6ab 19be d3fc 243e 9bb1 82bd 43a7 97be
00000060: 2fe0 0c3e dc7f 36be 8064 f23c 0367 0c3d
00000070: a8ee 473e 6d99 0abe d430 8bbd cc0e 47bd
00000080: aea2 123e cbba 57be 56e3 193e e670 003e
00000090: f12f 303e dcdb 0abe 1b7c 0d3e 33ea 383d
000000a0: 57ef a13d dc08 91be 6ba3 19bd 8e41 ae3d
000000b0: ec76 98be ed84 91be 9214 25bf 0899 72be
000000c0: 660d 1e3e 5a1a 9dbe 929d 06be e1f0 183e
000000d0: 58c1 5abe 1a30 2f3e 19f1 2abe d2cf 9bbe
000000e0: cebb 89bc 7d22 3abe f85e e93d 3316 f3bd
000000f0: 24af bdbd 3d89 c1be 4e11 0fbf 2777 d1be
00000100: 4af8 e3bd dbc6 d4be a52f 20be 1ad8 17bf
00000110: e902 9bbd 276a c9bd cad6 bb3d 1a9e 83be
00000120: a6a2 963e 43a2 f23c 120a 0fbe 96c3 f63b
00000130: 86a7 c63d dd95 2fbe 45c5 4d3d b3b0 47be
00000140: 2d29 a2be a4d0 cf3d d5a5 17bf 76b7 b0be
00000150: 8793 abbe 8022 bb3d 4d0e 2cbe 517d e3bd
00000160: 509c 16be 21f9 733d fe9c 50bd 6562 cbbe
00000170: 65bf 113d 38a1 f73e 3c80 893e 3234 903e
00000180: 763c a3be bfef a0be 142e 713b d584 563e
00000190: 012c 81bd 5a85 de3d f98a a83e 7cf6 3a3e
000001a0: 2a62 163e 8bbf 04bf 383e 96bb 7284 843e
000001b0: a32d 8d3e b185 1bbf d9f4 0cbf ad03 d3be
000001c0: a306 a73e 0bb8 a8be 4a03 d43d d9ce 893e
000001d0: 2c1e a93e 1bea 0c3e 8bfd 943d 0da0 603e
000001e0: 5d60 1e3e 4760 09be 981d 82bd e4fc 6d3e
000001f0: 8d94 073e 4580 b2be 5187 81be 82e3 9ebe
-0.48812607 0.27416733 -0.27365538 -0.5607432 -0.2983247 -0.104447044 -0.11445034 -0.29508126
-0.37627384 0.3556972 -0.09603492 -0.31931832 -0.28821713 0.3763253 0.28136733 0.41761434
-0.07518835 -0.0008487157 -0.007451129 0.17446576 -0.15006933 0.1611207 -0.06381532 -0.29619798
0.13757394 -0.17822212 0.029588938 0.034277927 0.19524634 -0.1353509 -0.067964226 -0.048598096
0.1431987 -0.2106735 0.15028128 0.12543067 0.17205788 -0.13560432 0.13816874 0.045145225
0.079069786 -0.28327072 -0.037509363 0.08508597 -0.2977823 -0.28421727 -0.6448451 -0.2369119
0.15434799 -0.30684167 -0.13146046 0.14935638 -0.21362817 0.17108193 -0.16693534 -0.30431992
-0.016813185 -0.18177219 0.11395067 -0.118694685 -0.09261921 -0.37800017 -0.5588578 -0.4091122
-0.11131342 -0.41557965 -0.15643175 -0.5931412 -0.075689144 -0.098347 0.09171827 -0.2570656
0.29420966 0.029618388 -0.13968685 0.00753064 0.09699921 -0.17147012 0.05023696 -0.19500999
-0.3167204 0.10147217 -0.59237415 -0.3451497 -0.33510992 0.0913744 -0.1680233 -0.111078866
-0.14708066 0.05956376 -0.05093097 -0.39723507 0.03558292 0.48365188 0.26855648 0.28164822
-0.31882066 -0.31432912 0.0036801146 0.20949109 -0.06307221 0.108652785 0.32918528 0.18258089
0.14685884 -0.5185477 -0.004585054 0.25882298 0.2757388 -0.6075087 -0.5506111 -0.41213742
0.3262225 -0.32952914 0.1035219 0.26915625 0.33030832 0.13761179 0.07274922 0.21936055
0.15466447 -0.13415633 -0.06353301 0.23241001 0.13240261 -0.34863487 -0.2529855 -0.3103295

fc3.bias f4 [8]
00000000: dd47 1c3f 5056 d4bb c791 993e 99ef 8e3e
00000010: 8fec a9be 208a ec3e 1aa7 4f3e dbe6 cb3e
0.61047155 -0.006480016 0.29994032 0.27917174 -0.33188292 0.4619913 0.20278588 0.39824566

fc4.weight f4 [2, 8]
00000000: 5f46 213f 7adb 08be 6868 e43b 9588 62be
00000010: 9869 19be 552e 073f 225d 913c 3275 2dbe
00000020: 5886 aebe b006 21bd f5b3 123e ac71 b2bd
00000030: f1d3 63be 2128 333c 7458 4d3e 42fa 613e
0.62998 -0.13364974 0.006970454 -0.22122414 -0.14981687 0.5280507 0.017744604 -0.16939238
-0.3408687 -0.03931302 0.1432646 -0.087130874 -0.22248818 0.01093486 0.20053273 0.22068122

fc4.bias f4 [2]
00000000: 05d2 8cbe 74f1 9f3e
-0.27503982 0.31238902
