ligand_model/DNN_FC0002_ModelP16-PaDEL2D-PCC_SFSforward32_batchsize-16_optim-adam_lr-0.005/train4.model (torch, 9295 bytes, 8 tensors)

fc1.weight f4 [32, 32]
0	0x3ed9d380	0.42544174
1	0x3ec4c69b	0.38432774
2	0x3e249f70	0.16076446
3	0xbf1f589f	-0.622446
4	0x3db6c10d	0.0892354
5	0xbde82dcc	-0.1133686
6	0xbd760d61	-0.060071353
7	0x3d9c0b14	0.076193005
8	0x3ec064cd	0.37576905
9	0x3eb4586d	0.35223714
10	0x3d4c3e50	0.049864113
11	0x3e251901	0.1612282
12	0xbe91e9dc	-0.28498733
13	0xbda5eeb2	-0.08102168
14	0xbb866fb2	-0.0041026706
15	0x3e6e9adc	0.23301262
16	0xbdbf2290	-0.09332764
17	0x3f43ffd3	0.7656223
18	0x3e2e94c4	0.17048937
19	0xbd9f1529	-0.07767708
20	0xbdabe615	-0.08393494
21	0xbd823ad8	-0.0635888
22	0x3e0eb22b	0.13935153
23	0x3e238f6d	0.15972681
24	0x3e0aab93	0.13542013
25	0xbc71ca2d	-0.014757675
26	0x3ed3d3ce	0.41372532
27	0xbe298622	-0.16555074
28	0x3d234f58	0.03987059
29	0x3ea262c9	0.31715992
30	0x3e9c868c	0.305714
31	0xbe378b2b	-0.17924182
32	0x3f23e57c	0.6402204
33	0x3e857122	0.26062876
34	0x3e01d771	0.1267984
35	0xbe8213e6	-0.25405806
36	0x3d02a6da	0.031897403
37	0xbe336121	-0.1751752
38	0xbe293455	-0.1652387
39	0xbe16b2be	-0.14716622
40	0x3e086bcd	0.13322373
41	0x3eb7f363	0.35927877
42	0xbe46b75f	-0.19405888
43	0x3d53a973	0.05167527
44	0xbec64590	-0.38724947
45	0x3e27029e	0.16309592
46	0xbdd85896	-0.105637714
47	0xbae5f624	-0.0017544669
48	0xbd17b5b7	-0.03703853
49	0x3f1e48be	0.61829746
50	0xbdc9f65b	-0.09861442
51	0x3e976fe6	0.2957756
52	0x3d210479	0.039310906
53	0xbe3458b8	-0.17611969
54	0x3dc0fec3	0.09423592
55	0x3931d750	0.00016960246
56	0xbd956af7	-0.072957925
57	0xbb8ec102	-0.0043565044
58	0x3dfa6ca6	0.12227754
59	0xbd997f8d	-0.074950315
60	0xbd78d458	-0.06074938
61	0x3e8a4c99	0.27011564
62	0x3cab770e	0.020930793
63	0xbd34d49e	-0.04414808
64	0xbec7197f	-0.3888664
65	0xbe8e96a5	-0.27849308
66	0x3de19738	0.11015171
67	0xbe4434c4	-0.19160753
68	0x3ee79f9d	0.45238963
69	0x3de4acd2	0.11165775
70	0x3df9716c	0.12179837
71	0x3dc3482f	0.09535252
72	0xbd0a07af	-0.033698734
73	0x3e6b34b0	0.22969317
74	0x3e8c51b9	0.274061
75	0x3c559f70	0.013038501
76	0x3dc04675	0.093884386
77	0x3ded565a	0.11588736
78	0xbf125eba	-0.5717579
79	0x3ee673d2	0.4501024
80	0x3cac2488	0.021013513
81	0xbe073d6d	-0.13207026
82	0xbf03bb76	-0.5145792
83	0xbeba30f9	-0.36365488
84	0x3d8bd05d	0.068268515
85	0x3dbc012a	0.091799095
86	0xbe24a701	-0.16079332
87	0x3ec71169	0.3888047
88	0x3d86af7b	0.06576439
89	0xbcae4bdf	-0.021276413
90	0x3ea7a111	0.3274007
91	0xbde0f4e3	-0.109842084
92	0x3e11b952	0.1423085
93	0x3e9f9c2d	0.3117384
94	0x3e251936	0.16122898
95	0x3dd42fea	0.103607014
96	0xbecbe6ac	-0.39824426
97	0x3e78d7cb	0.24301068
98	0xbe3859a0	-0.18002939
99	0x3ea6870c	0.32524908
100	0x3e922182	0.2854119
101	0xbde23b3d	-0.11046455
102	0x3e19f41a	0.15034524
103	0x3e5cc6e7	0.2156025
104	0x3de92357	0.11383694
105	0x3d51ffb0	0.051269233
106	0xbd499e1e	-0.049223058
107	0x3e01e331	0.12684323
108	0x3dc5a24a	0.09650095
109	0x3e5cfce9	0.21580853
110	0x3eaae271	0.33375886
111	0x3ea47cf4	0.32126582
112	0xbde75b55	-0.11296717
113	0xbe4b7e4b	-0.19872396
114	0x3d88a174	0.0667142
115	0xbd1b65b2	-0.03793878
116	0xbe4e2ca4	-0.20134217
117	0xbd8228dc	-0.063554496
118	0xbd13ab8d	-0.036052275
119	0x3f16bd44	0.58882546
120	0x3e04cc3d	0.12968536
121	0x3d2095dc	0.039205417
122	0x3ed252f2	0.41078907
123	0xbdf404e9	-0.11914999
124	0x3e44b7ee	0.19210789
125	0x3e23a374	0.15980321
126	0xbc9a36b3	-0.01882491
127	0xbe2f9b46	-0.17149076
128	0x3f2fa85c	0.6861627
129	0x3dab3a77	0.08360761
130	0x3da96360	0.082709074
131	0xbe3950f5	-0.18097289
132	0xbcecce3f	-0.02890694
133	0xbd57c678	-0.05267951
134	0xbe87c4ae	-0.26517242
135	0x3d3069d6	0.043069683
136	0x3da7b457	0.08188694
137	0x3e7389a8	0.2378298
138	0xbd1a3718	-0.037650198
139	0x3e73e60e	0.23818228
140	0xbe5afc8a	-0.21385399
141	0x3dd41830	0.10356176
142	0x3bb5d74d	0.0055493475
143	0xbd6b054b	-0.057378095
144	0x3d8b0027	0.067871384
145	0x3f09d145	0.53834945
146	0xbdb577b3	-0.088607214
147	0xbdceed06	-0.101038024
148	0x3d1c8108	0.03820899
149	0xbdf9b9aa	-0.12193616
150	0x3d986dfc	0.07442853
151	0xbd9d60f5	-0.07684509
152	0xbe1b6279	-0.15174283
153	0xbe90b082	-0.28259665
154	0xbdf6dcdf	-0.120538466
155	0x3d6cfce4	0.057858363
156	0xbe3640d0	-0.17798162
157	0x3e18db33	0.14927368
158	0xbdeeefeb	-0.116668545
159	0xbd540675	-0.05176397
160	0xbec91c61	-0.39279464
161	0xbe28ea8f	-0.16495727
162	0x3e45f020	0.19329882
163	0xbe8daa3f	-0.2766895
164	0x3ede28db	0.43390545
165	0x3da0ada3	0.078456186
166	0x3e95c227	0.2924969
167	0x3e0190ae	0.12652847
168	0xbe2ab8e1	-0.16672088
169	0xbe226f63	-0.15862803
170	0x3dc3fd36	0.095697805
171	0x3ce19861	0.02753848
172	0xbd62d68a	-0.05538038
173	0x3e18ef82	0.14935115
174	0x3e90a6cd	0.2825226
175	0x3e62a8ed	0.22134753
176	0xbe23b74a	-0.15987888
177	0xbd8b3854	-0.06797853
178	0xbf0876e2	-0.533064
179	0xbe6651eb	-0.22492187
180	0x3e18ec76	0.14933953
181	0x3c2abdb9	0.01042121
182	0xbe12593b	-0.14291851
183	0x3e8bd1db	0.27308545
184	0x3de45a09	0.11149985
185	0xbc4f5e2a	-0.012656728
186	0x3bace4a9	0.005276282
187	0x3e7afb0f	0.24509834
188	0x3e148abb	0.14506046
189	0x3cafbad5	0.021451393
190	0x3daaf0ed	0.08346734
191	0x3d7a79c5	0.061151285
192	0x3e839b24	0.257043
193	0x3e47d374	0.19514257
194	0xbd472f7c	-0.04862927
195	0x3c2f08b6	0.010683229
196	0xbdfa9c7b	-0.122368775
197	0x3e07acf5	0.13249572
198	0x3b9a0b88	0.0047010817
199	0xbe455ada	-0.19272938
200	0x3eb86154	0.36011755
201	0xbe36cfc2	-0.17852691
202	0xbe702ccc	-0.23454589
203	0xbca55f27	-0.020186974
204	0xbdca6ed4	-0.0988442
205	0xbea30c98	-0.31845546
206	0x3d2002c5	0.03906514
207	0x3de4f9f8	0.1118049
208	0x3e88d6c7	0.26726362
209	0x3e125615	0.1429065
210	0x3e3ece84	0.18633467
211	0xbe107f2e	-0.14111015
212	0x3de98853	0.11402955
213	0x3c8d8da9	0.017279463
214	0xbd90f3f9	-0.07077784
215	0xbd9db005	-0.07699589
216	0xbe46e9af	-0.1942508
217	0xbe901437	-0.28140423
218	0xbdaf5967	-0.08561974
219	0x3e37fa4a	0.17966571
220	0xbd17ea1c	-0.0370885
221	0x3e61ae4a	0.22039142
222	0x3e3d665c	0.18496078
223	0x3d2dd105	0.042435665
224	0x3f34f32a	0.7068354
225	0x3e0598f5	0.1304663
226	0x3e0dd85a	0.13852063
227	0xbebb9d87	-0.3664362
228	0x3dd6209f	0.10455441
229	0x3ca40ecd	0.020026589
230	0xbe0e8df7	-0.13921343
231	0x3e7eecd7	0.24895035
232	0xbc885eaf	-0.016646711
233	0x3e801701	0.2501755
234	0xbd4ca615	-0.049963076
235	0x3da68557	0.08130901
236	0xbe613ae2	-0.21995118
237	0xbd871a92	-0.06596865
238	0xbe13aea8	-0.14422095
239	0x3c61f08a	0.013790259
240	0x3e8bdda3	0.27317533
241	0xbcb930bb	-0.022606244
242	0x3e793f2d	0.24340506
243	0x3cb1fe02	0.021727566
244	0xbe3b2470	-0.18275619
245	0xbd70e9f0	-0.05881685
246	0x3d8d932d	0.06912837
247	0xbda5c78e	-0.08094703
248	0x3d79cf14	0.0609885
249	0xbd81af44	-0.063322574
250	0xbce735b2	-0.028223846
251	0xbd2d8445	-0.04236247
252	0xbcd372fd	-0.025811667
253	0xbda190da	-0.07888956
254	0x3dabf782	0.08396818
255	0xbde9806c	-0.11401448

fc1.bias f4 [32]
0	0xbeb479b3	-0.352491
1	0xbe377b47	-0.1791812
2	0xbe0fa74b	-0.14028661
3	0xbec10025	-0.37695423
4	0xbe2a168b	-0.16610162
5	0xbd8b13d2	-0.0679089
6	0x3d889f6a	0.06671031
7	0xbda1f928	-0.07908851
8	0xbdf9dbab	-0.122001015
9	0xbe00b302	-0.12568286
10	0xbe855fbd	-0.26049605
11	0xbeb534b5	-0.35391775
12	0xbe56ed8a	-0.20989051
13	0x3c4119f4	0.011785973
14	0xbe7c97af	-0.24667238
15	0xbdd53382	-0.10410215
16	0xbc60d513	-0.013722676
17	0xbdb0761b	-0.08616277
18	0xbe72446a	-0.2365891
19	0xbda661ee	-0.08124147
20	0x3dbfbf6b	0.09362682
21	0xbd71081a	-0.058845617
22	0xbdb0dbcf	-0.08635675
23	0xbe90434d	-0.28176346
24	0xbebb3529	-0.36563995
25	0xbc95eea5	-0.018302271
26	0xbd513a07	-0.05108073
27	0xba8dbb87	-0.0010813334
28	0xbe0a4109	-0.13501371
29	0xbe5f5a86	-0.21811876
30	0xbe4a95cb	-0.19783704
31	0xbd532da5	-0.051557202

fc2.weight f4 [16, 32]
0	0x3e94d1a7	0.29066202
1	0x3d88af84	0.06674102
2	0x3d84b3fe	0.06479643
3	0xbe76be5f	-0.24096058
4	0x3e697378	0.22797954
5	0xbdc3113a	-0.0952477
6	0x3e635d8d	0.22203656
7	0x3d62da3b	0.055383902
8	0x3e37248c	0.17885035
9	0x3e982951	0.29719022
10	0xbe827d2b	-0.2548612
11	0xbda0dae2	-0.078542486
12	0x3d5a8591	0.053350035
13	0xbd363eec	-0.0444936
14	0xbe44d97c	-0.19223589
15	0x3d439fad	0.0477597
16	0x3cbf9337	0.023385627
17	0xbe33a0bf	-0.17541789
18	0x3e0d7c3c	0.13816923
19	0x3dcfaae3	0.10140016
20	0xbe61bea1	-0.22045375
21	0xbcf12969	-0.029438691
22	0x3b6e2ce6	0.003634268
23	0xbeb3a023	-0.35083112
24	0xbe3cbf7d	-0.18432422
25	0x3e4e033e	0.20118424
26	0xbd21f075	-0.03953596
27	0x3df35611	0.1188165
28	0xbe024224	-0.12720543
29	0xbdabc323	-0.08386829
30	0x3de8cc1a	0.11367054
31	0x3dd11a84	0.102101356
32	0xbd20844e	-0.039188676
33	0xbe3745b2	-0.1789768
34	0x3db5846a	0.088631466
35	0xbe5f6db9	-0.218192
36	0xbdf1d024	-0.11807278
37	0xbe0cae93	-0.1373847
38	0xbda38c1e	-0.079857096
39	0xbdb7cbd3	-0.08974423
40	0xbe6ca116	-0.23108324
41	0xbe851474	-0.25992167
42	0xbe9ee76a	-0.3103593
43	0xbdf66a6e	-0.120320186
44	0xbc848663	-0.016177362
45	0xbd6c8ee4	-0.05775346
46	0xbdc89ecd	-0.09795914
47	0x3dbdee9f	0.09274029
48	0xbe539369	-0.20661701
49	0x3d651ae1	0.055933837
50	0xbe65e990	-0.22452378
51	0xbe14e666	-0.14541015
52	0xbe6d3959	-0.23166408
53	0xbe04d897	-0.12973247
54	0xbdb1a35e	-0.08673738
55	0x3df28f17	0.118436985
56	0xbe48d27b	-0.19611542
57	0xbe449e66	-0.19201049
58	0xbe1cbd3d	-0.15306564
59	0xbddfe976	-0.10933201
60	0xbe5f752b	-0.2182204
61	0x3d309f41	0.043120626
62	0xbe4733aa	-0.19453302
63	0xbe8119a2	-0.2521487
64	0xbe5e3b40	-0.2170229
65	0xbc629554	-0.013829548
66	0xbe8f34d5	-0.27969995
67	0x3ece02da	0.4023655
68	0xbd1e2f5c	-0.038619384
69	0x3d590f58	0.05299315
70	0xbd53d49e	-0.05171644
71	0xbda9e850	-0.08296263
72	0xbe6f4b27	-0.23368512
73	0xbd62f45e	-0.055408828
74	0xbe8a9f96	-0.2707488
75	0x3d34e9cb	0.044168275
76	0x3e6a3965	0.22873457
77	0xbdf82223	-0.12115886
78	0xbdd2a3cd	-0.10285149
79	0xbe99c05c	-0.3002957
80	0xbdd766af	-0.10517632
81	0xbdef5d6b	-0.1168774
82	0xbd6673cc	-0.056262776
83	0xbe8a9b16	-0.27071446
84	0xbdac8160	-0.08423114
85	0xbdc56a2d	-0.09639392
86	0xbe8130d1	-0.25232556
87	0x3d9170dc	0.07101604
88	0xbd8a78fa	-0.06761356
89	0xbdb82a26	-0.08992414
90	0x3d044f26	0.032302044
91	0x3d704eec	0.058669016
92	0xbe0050c8	-0.12530816
93	0x3dca192a	0.09868081
94	0x3ecb19c0	0.39668083
95	0xbe050cad	-0.12993117
96	0x3e455f5b	0.19274656
97	0x3e499e9d	0.19689412
98	0x3d97eff6	0.07418816
99	0xbea2cd13	-0.31797084
100	0xb9b6a45e	-0.00034836208
101	0xbcb9cd49	-0.022680895
102	0x3de14f98	0.110015094
103	0x3e11176f	0.14169095
104	0x3e857e6e	0.2607302
105	0x3e7a4aa7	0.2444254
106	0xbe7d4cd0	-0.24736333
107	0xbe035fd5	-0.12829526
108	0x3dd78eca	0.10525282
109	0x3dca5021	0.098785646
110	0xbe70690f	-0.23477577
111	0x3dffbd5c	0.12487289
112	0x3c49c208	0.012314327
113	0xbe5625bb	-0.2091283
114	0x3dc730cf	0.097261064
115	0x3e6c8c0d	0.231003
116	0xbe44675c	-0.19180053
117	0xbd105450	-0.035236657
118	0xbd8e245b	-0.06940528
119	0xbe3461da	-0.17615452
120	0xbec63504	-0.38712323
121	0x3e6b57db	0.22982733
122	0x3e0a3846	0.13498029
123	0x3e095c2e	0.1341407
124	0xbdeb5c64	-0.114922315
125	0xbe1c6988	-0.15274632
126	0xbe2f08cb	-0.17093198
127	0xbdd8ec29	-0.10591919
128	0xbd01084f	-0.031502064
129	0xbe2832b4	-0.16425592
130	0x3e9fe3a0	0.31228352
131	0x3d461cc3	0.048367273
132	0xbe37c62f	-0.17946695
133	0x3ea4e9ae	0.32209533
134	0xbe66741b	-0.22505228
135	0xbca1c221	-0.019745888
136	0xbe1ccce9	-0.15312542
137	0xbe8edb56	-0.27901715
138	0x3e9e44bf	0.30911824
139	0x3ea39c0a	0.31954986
140	0xbe8b533a	-0.27211934
141	0xbe6dad06	-0.23210534
142	0x3eb80c75	0.35947004
143	0xbdf0aeae	-0.117520675
144	0x3e03bff9	0.128662
145	0x3ce96f84	0.028495558
146	0xbec4a2d2	-0.38405472
147	0xbe081435	-0.13288958
148	0x3d8ac579	0.06775946
149	0xbd3985ca	-0.045293607
150	0xbe6f7fb6	-0.23388562
151	0x3e870bfa	0.26376325
152	0xbb6ad0da	-0.0035830052
153	0xbe4691dc	-0.19391578
154	0x3dfbf161	0.12301899
155	0xbcfc6951	-0.030811938
156	0x3e92325e	0.28554052
157	0xbd890226	-0.06689863
158	0x3e3cad4c	0.18425483
159	0xbe547ad5	-0.20749982
160	0x3ed6c628	0.41948056
161	0x3e02e7fb	0.12783806
162	0xbd2868d9	-0.041115616
163	0xbe57ca00	-0.2107315
164	0x3e5545c6	0.20827398
165	0xbdcc412b	-0.09973367
166	0xbd72d504	-0.05928518
167	0x3da34bcc	0.079734415
168	0x3e2cbb61	0.16868354
169	0x3de29c6f	0.110649936
170	0xbe770070	-0.2412126
171	0xbd33a121	-0.043854836
172	0x3ea31dd9	0.3185871
173	0x3b08aaad	0.0020853684
174	0xbe4c3f16	-0.1994594
175	0x3e015202	0.1262894
176	0xbe20dcb7	-0.15709196
177	0xbe2fed69	-0.17180409
178	0x3e624558	0.22096765
179	0x3e0e5ed3	0.1390336
180	0xbee8ac3f	-0.45443913
181	0x3defc208	0.117069304
182	0x3e58dcea	0.21178022
183	0xbe3bf0d6	-0.1835359
184	0xbe93754a	-0.28800422
185	0x3e45ae76	0.19304833
186	0xbdab949b	-0.083779536
187	0x3e2e5024	0.17022759
188	0x3c979090	0.01850155
189	0xbe55e105	-0.2088662
190	0xbdf6195f	-0.12016558
191	0xbd2fa1a4	-0.042878762
192	0x3db7c252	0.089726105
193	0xbd06dbef	-0.03292459
194	0x3d8e1cb8	0.069390714
195	0x3d1521fe	0.03640937
196	0x3c02d82f	0.0079861125
197	0xbcd29f26	-0.025710654
198	0x3e474aad	0.1946208
199	0x3dd9f95c	0.10643265
200	0x3d39ee18	0.04539308
201	0x3c92ec16	0.01793484
202	0xbe0c73e7	-0.13716088
203	0xbe52161f	-0.20516251
204	0x3dba484c	0.09095821
205	0xbdbc29f9	-0.09187693
206	0xbe3698ad	-0.17831679
207	0x3cb094fd	0.021555418
208	0xbe0dca89	-0.13846792
209	0xbe936c5d	-0.28793612
210	0x3e35b4f6	0.17744812
211	0xbe0282c9	-0.12745203
212	0xbdc512b5	-0.09622709
213	0x3e89fdea	0.26951534
214	0x3d11ea89	0.03562406
215	0xbe9bbbdb	-0.3041676
216	0xbe12d2ed	-0.14338274
217	0x3d3a017b	0.045411568
218	0xbe2dd56d	-0.16975947
219	0xbce50814	-0.027957954
220	0xbdcc1450	-0.09964812
221	0xbcfedbca	-0.031110663
222	0xbe55dc1c	-0.20884746
223	0x3df47f7a	0.11938377
224	0x3e8669d3	0.26252612
225	0x3e9bbc4c	0.30417097
226	0x3dfd5643	0.12369969
227	0xbe108afb	-0.14115517
228	0x3e48a51d	0.19594236
229	0x3e084741	0.13308431
230	0xbd9764e3	-0.073922895
231	0x3e0cb551	0.13741042
232	0x3e862276	0.26198167
233	0x3e050b79	0.12992658
234	0xbe265c2f	-0.16246103
235	0x3bf22db9	0.0073907045
236	0x3e5f0cd1	0.21782233
237	0x3ce416b9	0.027842866
238	0xbe678b13	-0.22611646
239	0x3dda12ea	0.10648139
240	0xbd3b2085	-0.04568531
241	0x3c8d3074	0.017235018
242	0x3e5effe5	0.21777304
243	0x3e5f527a	0.21808806
244	0x3dda645e	0.10663675
245	0x3da894fd	0.08231542
246	0x3e3dde7e	0.18541905
247	0xbdd6aaa1	-0.10481764
248	0xbea4fcba	-0.32224065
249	0x3a00ccd3	0.00049133337
250	0x3d872a08	0.06599814
251	0xbdf16fee	-0.11788927
252	0xbba133d0	-0.0049195066
253	0x3d42b766	0.047538184
254	0x3d9a1d25	0.0752509
255	0x3df4ebee	0.119590625

fc2.bias f4 [16]
0	0x3e488df2	0.19585398
1	0xbe1935e0	-0.14961958
2	0xbdc00298	-0.09375495
3	0x3e197c1d	0.14988752
4	0x3c9b2e81	0.018943073
5	0x3e401db5	0.18761332
6	0x3d8dc48d	0.06922255
7	0xbe00b177	-0.12567697
8	0xbd57cdfd	-0.05268668
9	0xbb2980ae	-0.0025864053
10	0x3aea8b37	0.0017894272
11	0x3e359618	0.17733037
12	0x3b3d17a6	0.0028853207
13	0xbd36335c	-0.044482574
14	0x3e7be034	0.24597245
15	0x3e8ee5bf	0.27909657

fc3.weight f4 [8, 16]
0	0x3e8ddbcb	0.2770675
1	0xbd8588ee	-0.06520258
2	0xbd8517d2	-0.06498684
3	0x3e45d6d0	0.19320226
4	0xbe95ece8	-0.29282308
5	0x3d1d5488	0.038410693
6	0x3d77a423	0.060459267
7	0x3e0fc841	0.14041235
8	0xbe5bc15a	-0.21460477
9	0xbe229cbb	-0.158801
10	0xbecb239e	-0.3967561
11	0x3d105117	0.035233583
12	0xbec163b1	-0.3777137
13	0xbe34ad82	-0.17644313
14	0x3d9f4e3d	0.07778595
15	0x3e52e80c	0.20596331
16	0xbd8584c5	-0.065194644
17	0x3e1ca7a1	0.1529832
18	0xbc5a817f	-0.013336538
19	0xbeb8add3	-0.36070117
20	0xbcb9f89a	-0.02270155
21	0xbd9a9647	-0.075481944
22	0xbd62c626	-0.05536475
23	0xbe6cef4d	-0.23138161
24	0x3ea1021c	0.31446922
25	0x3e9410eb	0.28919157
26	0x3e96fdb2	0.2949043
27	0xbe870335	-0.26369634
28	0x3ec3a882	0.382145
29	0x3dc110b1	0.09427012
30	0xbe502311	-0.20325877
31	0xbbb077de	-0.005385383
32	0xbe2be256	-0.16785559
33	0x3e9f439b	0.31106266
34	0xbd560189	-0.052247558
35	0x3d955c80	0.072930336
36	0xbd674185	-0.05645897
37	0xbe1b8008	-0.15185559
38	0xbd640418	-0.055667967
39	0xbed8c118	-0.4233482
40	0xbe135933	-0.14389496
41	0xbe6ded9b	-0.2323517
42	0xbb04e084	-0.0020275423
43	0xbb9a2e64	-0.004705237
44	0x3eacd123	0.3375331
45	0xbea9621f	-0.33082673
46	0xbe2eb8d8	-0.170627
47	0xbe42e5c5	-0.19032963
48	0x3e941e45	0.28929344
49	0xbd16ca73	-0.036814164
50	0xbe78b2e2	-0.24286988
51	0x3df7e9fe	0.12105177
52	0xbecc1c72	-0.39865452
53	0x3df71595	0.12064663
54	0xbc921b12	-0.017835174
55	0xbdf830c0	-0.12118673
56	0xbebac812	-0.36480767
57	0xbdb084e7	-0.08619099
58	0xbec54933	-0.3853241
59	0x3e9dd49d	0.30826274
60	0xbea2a430	-0.3176589
61	0xbdeb673d	-0.114943005
62	0x3e8417d3	0.25799426
63	0x3d8bf201	0.06833268
64	0x3db2ae78	0.087246835
65	0xbe8c9392	-0.27456337
66	0x3be332d7	0.006933551
67	0x3e65e99e	0.22452399
68	0xbed38222	-0.4131022
69	0x3ea7abb7	0.32748196
70	0x3dc192f8	0.0945186
71	0x3dc56b9f	0.09639668
72	0xbe2c15f8	-0.16805255
73	0xbdf3e1f6	-0.11908333
74	0xbd37f508	-0.044911414
75	0x3e3b841e	0.18312117
76	0xbea83e2e	-0.3285994
77	0xbe66a564	-0.22524029
78	0x3e940a2b	0.28914008
79	0x3cb64eec	0.02225443
80	0xbdbb1ef5	-0.09136764
81	0xbd19ed43	-0.037579786
82	0xbe0f1c9a	-0.13975754
83	0xbd98483b	-0.07435652
84	0x3e8884ab	0.26663718
85	0xbda8c5a2	-0.082408205
86	0xbcf625f3	-0.030047392
87	0xbde65213	-0.11246123
88	0xbea062a2	-0.3132525
89	0xbed0ebe7	-0.4080498
90	0xbd6e567c	-0.058187947
91	0xbde388a4	-0.111100465
92	0x3d9df25f	0.07712244
93	0x3e3466f4	0.17617399
94	0x3a0190b0	0.00049425196
95	0xbe25a913	-0.16177778
96	0xbe3afa59	-0.18259563
97	0xbd30990b	-0.043114703
98	0x3e8aac19	0.27084425
99	0xbecf7132	-0.4051605
100	0x3edd4e6b	0.4322389
101	0xbe0d53ba	-0.1380147
102	0x3df15ca5	0.11785249
103	0xbe8e02b1	-0.27736428
104	0x3e814186	0.25245303
105	0x3ec6427c	0.387226
106	0x3e8d1aa3	0.27559385
107	0xbe7fe237	-0.24988638
108	0x3e937202	0.2879792
109	0x3ecb0804	0.39654553
110	0xbdedd4c5	-0.11612848
111	0x3d7e1d4b	0.062039655
112	0x3cc1b1ae	0.023644295
113	0xbdf0d73a	-0.11759801
114	0x3ea84fa8	0.32873273
115	0x3d84022f	0.06445729
116	0xbd876c3e	-0.066124424
117	0xbe9cca5f	-0.30623147
118	0xbd1a4d50	-0.037671387
119	0xbc0db41a	-0.008648897
120	0xbd540a9b	-0.051767927
121	0x3e34c17c	0.17651933
122	0xbee4c8ba	-0.44684392
123	0xbd4d604e	-0.05014067
124	0xbe1344c3	-0.143817
125	0xbdf2c90c	-0.11854753
126	0xbe629289	-0.22126211
127	0xbe48fa91	-0.19626833

fc3.bias f4 [8]
0	0x3e8531c6	0.26014537
1	0x3e4a7696	0.197718
2	0xbe147aab	-0.14499919
3	0x3ebee5ce	0.37284702
4	0x3ec5e6f2	0.3865276
5	0xbe056e57	-0.13030373
6	0x3e3f7339	0.18696298
7	0xbe3237bf	-0.17404078

fc4.weight f4 [2, 8]
0	0xbea1f60b	-0.31633028
1	0xbe200cdb	-0.15629904
2	0x3d50bba9	0.050960217
3	0xbea39e4c	-0.31956708
4	0xbe07a749	-0.13247408
5	0x3e90ebaa	0.28304797
6	0x3f0090eb	0.5022113
7	0x3d851494	0.064980656
8	0x3e80381d	0.2504281
9	0xbf00c93f	-0.5030708
10	0xbe785e45	-0.24254711
11	0x3d8313ac	0.064002365
12	0x3e42150c	0.18953341
13	0xbd90d01a	-0.07070942
14	0xbc6191ed	-0.013767702
15	0xbcdf8411	-0.027284654

fc4.bias f4 [2]
0	0x3da7e604	0.08198169
1	0x3ea7b0d9	0.32752112
