ligand_model/DNN_FC0002_ModelP16-PaDEL2D-PCC_SFSforward32_batchsize-16_optim-adam_lr-0.005/train5.model (torch, 9295 bytes, 8 tensors)

fc1.weight f4 [32, 32]
00000000: 6a6e 393e 77f2 013e 51ea e2bd 7d1f 563e
00000010: 7f1b 2cbe a6ab 203e ef68 89be 5fcf 86be
00000020: da5e 443e bc1e f0be a551 6bbe 4f44 8ebd
00000030: c10f 3e3e 3bfc 30be 66c4 6c3d cc76 de3d
00000040: e6ed a93e 74df ab3e 5eaf 0c3e 061e 07bf
00000050: bb97 06bd 48ab 0e3d 3309 723d 62fb 9b3e
00000060: f3b2 b4bd 9aee 69be 174b 963e 6365 073e
00000070: fea9 a53e 35ed 163d 1945 53be e5d1 23be
00000080: 91fe dcbe be8d 4abd 46a0 963e 3d40 69be
00000090: 2726 023f 0d2c ef3c cafd 853e f895 533d
000000a0: 8277 82bc 0905 77be 3fa5 8a3e 913f b7bd
000000b0: 16df 9bbd 6e41 463e 23c6 48bf 08e0 ae3e
000000c0: 0c40 193d 721c d2bd e67b f9be 3395 f1be
000000d0: fa16 f53d 7417 a2bb d753 553e 9239 9e3e
000000e0: bf8c 053e 64fb e8bd 28a2 30ba 34a3 213e
000000f0: 0c51 3b3d 8cde a23e 6cfb 2ebc 8c9c ddbd
00000100: d9f9 a33d 1dc0 783e 26b3 07bd d205 9a3d
00000110: 136d d5bd f216 d5bd 2f5f fbbd 7879 a1bd
00000120: ea41 5a3e ac37 8fbe 30cd 48be b200 243e
00000130: 4dd5 033e 9ba6 b4be ebef 3dbc 9a05 e1bd
00000140: 9e60 b73d df97 043f 9901 8bbc daa6 b0be
00000150: 6fac ad3d df7c 56bd 2c4e 30be b637 653e
00000160: 0b09 583e 5cc2 0bbe 22d2 4a3e 31fe d23d
00000170: 5e14 b43d 311c edbd b754 22be be13 2fbe
00000180: e28e dc3e eea4 b73e 6afe 1d3e df75 8fbd
00000190: fe25 993d eed5 36be dec3 c4be 9294 963d
000001a0: a86d 3e3e 34da b13c 8a05 fabd ac9f 343e
000001b0: a6e4 1ebe d718 d0be 279d 9d3d 4456 e93a
000001c0: 128b 313e e036 ab3e 861c 293e f786 63bf
000001d0: 815f 363e 0e2a f63c 1ecc 0f3e f355 e9bd
000001e0: 7a61 6abe a80d 76be 6a53 e4bd ff5c 563d
000001f0: 06cb 8f3e ffc0 abbd 11d1 28be 3f08 fc3c
00000200: 19dd 503d f6b0 86bd 1418 b63d 2f30 9fbd
00000210: 3518 163f 04d5 483e 4b91 333e 6eb4 13be
00000220: f148 61bd bd51 58bf 9224 9a3e f867 1b3e
00000230: 5570 c8be c715 db3e 1415 b4be dc37 0b3f
00000240: ae51 51bd 7ae3 2b3e 1fe3 1cbf 9a06 1cbe
00000250: cafd 253d 28f2 1bbe 84ad c33d 2866 01be
00000260: 04b3 883e 52cf b03d 1305 4dbd 09c8 18bc
00000270: e625 603d e3e8 873d 1a2a 1dbc fa2c 823d
00000280: eca6 403f 45b6 c83d be27 273e dfba fdbe
00000290: ae35 dc3d 5235 04be b3fe cebe 6ab0 183d
000002a0: 3674 853e de25 483e c589 6a3e 67d2 633e
000002b0: 0652 d2bd 9fb0 2cbd 6a76 ad3d 798f 0dbd
000002c0: 8103 e3bd ec94 793d 169d f13e 78fa 63be
000002d0: 61e2 0d3e 2a0c 8fbd 6c8a 0d3e 3813 903e
000002e0: 3b51 08be 47f0 2bbd 90c3 3a3e a1b4 b0bd
000002f0: 8097 633e 9c7d 2b3e c37a 33be cb8e 16be
00000300: 2f28 26bf f50a 74be cd65 87bd df8f 0ebe
00000310: 8ff7 e63e ea05 dd3d 11b0 e73d c5a4 203e
00000320: c9be a8be fce3 37be b902 4fbd aea8 51bd
00000330: c823 d93c 56f9 94bc be64 ac3e 1adc e83e
00000340: cde5 b8bd 7016 533e d6b1 bdbe 9c14 ddbd
00000350: 413c cc3c e00f bcbd d038 083d b05a 263e
00000360: 6a96 20bd 5c23 77bd d130 fbbd d86b d43d
00000370: d1e6 5b3e b48b 8a3e c2af 463b 61b8 01be
00000380: ebeb bfbe 7e18 e53b f447 523d 336e 603d
00000390: e4a6 053f ddf5 7d3e cf50 173f 0957 673e
000003a0: 4fd0 a73e 47ea 153e b24d 6c3e ac59 503c
000003b0: 78aa a03d d671 603e 9e95 13bf 6313 783e
000003c0: 47bf 91bc 2161 dbbe 8a14 6bbe e1b4 c1be
000003d0: 3e5c c73d b8ba c53c 8a45 523e f136 1dbc
000003e0: 492d ac3d 37fc a03c cbaa 18bd 1d09 b03d
000003f0: ee79 353e 4b97 923e f4bd 2cbe 8028 573c
0.18108526 0.12690149 -0.110798486 0.2091045 -0.16807364 0.15690479 -0.2683787 -0.26330087
0.19176808 -0.46898448 -0.22980364 -0.069466226 0.18560697 -0.17283718 0.057804488 0.108625025
0.33189315 0.3356892 0.13738772 -0.5278019 -0.032859545 0.034831315 0.059090804 0.30465227
-0.08823194 -0.22844926 0.29354164 0.1322227 0.32356256 0.036847312 -0.20631827 -0.15998037
-0.4316297 -0.049451582 0.29419154 -0.22778411 0.50839466 0.02919581 0.26170188 0.051656693
-0.015926126 -0.24123015 0.27079198 -0.08947671 -0.0761091 0.19360897 -0.7842733 0.34155297
0.037414595 -0.10259332 -0.4872734 -0.47184142 0.11967273 -0.0049466435 0.20832764 0.30903298
0.13041972 -0.11376074 -0.00067380304 0.15784913 0.04573159 0.31810415 -0.010680061 -0.108208746
0.08006639 0.24292035 -0.033129834 0.075206414 -0.10421195 -0.10404767 -0.12274014 -0.078844965
0.21314207 -0.27972162 -0.19609523 0.1601589 0.12874337 -0.3528336 -0.011592845 -0.109873965
0.08953975 0.51794237 -0.016968535 -0.34502298 0.08480155 -0.05236518 -0.1721732 0.22384533
0.210972 -0.13648361 0.19806722 0.103023894 0.08792947 -0.11577643 -0.15852629 -0.17097375
0.4307776 0.3586802 0.15429083 -0.07004904 0.074779496 -0.17855045 -0.38430685 0.07352556
0.18596518 0.021710493 -0.12208088 0.17639035 -0.1551691 -0.4064395 0.0769599 0.0017802198
0.17338207 0.33440304 0.16514787 -0.88877815 0.1780987 0.03004935 0.14042708 -0.11393347
-0.22888747 -0.24028647 -0.111487225 0.05233478 0.28084582 -0.083864205 -0.16486003 0.03076565
0.050992105 -0.06576721 0.08891311 -0.07772862 0.58630687 0.19612509 0.17535894 -0.14424297
-0.055001203 -0.8449972 0.30106026 0.1517638 -0.39148203 0.42790052 -0.3517233 0.5438211
-0.051103286 0.16785994 -0.6128406 -0.15236893 0.040525235 -0.15229094 0.0955458 -0.12636626
0.26699078 0.08633293 -0.050053667 -0.009325036 0.054723643 0.066362165 -0.009592557 0.06356235
0.752547 0.0980039 0.16323754 -0.49556634 0.10752426 -0.12910965 -0.40428695 0.037277617
0.26065224 0.19545695 0.22904117 0.22248231 -0.10269551 -0.042160627 0.08469851 -0.034560654
-0.11084653 0.06093304 0.4719016 -0.22263515 0.13855888 -0.06984742 0.13822335 0.28139663
-0.13312237 -0.041977193 0.18238664 -0.08628202 0.22225761 0.16747135 -0.17527299 -0.14702909
-0.64905065 -0.23832305 -0.06611214 -0.1392207 0.45110747 0.10792144 0.11312879 0.15687855
-0.32958058 -0.17958063 -0.050539706 -0.051186256 0.02650632 -0.018185299 0.3367061 0.45480424
-0.09028206 0.20614028 -0.3704974 -0.107949466 0.024931075 -0.091827154 0.033257306 0.16245532
-0.039205946 -0.060336456 -0.1226517 0.10372132 0.21474768 0.2705971 0.0030317162 -0.12667991
-0.3748468 0.006991445 0.05133815 0.054792594 0.5220778 0.2480082 0.5910768 0.22591795
0.32776114 0.14640151 0.23076513 0.012716692 0.07845014 0.21918425 -0.5765017 0.24226145
-0.017791403 -0.4284754 -0.22957054 -0.37833312 0.09734391 0.024136886 0.2053434 -0.009595619
0.08407075 0.019651515 -0.037272256 0.08595488 0.17722294 0.28631052 -0.16869336 0.013132215

fc1.bias f4 [32]
00000000: be79 21bc 328f 00bf 4da5 d7bc 365b ba3d
00000010: 656e a5be 55fd 32be 804e 04bf c0b5 f7be
00000020: 0727 5ebf b0e9 493d 57ab fbbe 08ee 35be
00000030: c137 e2be 94bb 2bbf 72c8 c7bd e01f 1fbf
00000040: 32fe b4be c069 8bbe 5fcb a4be c49f 18be
00000050: c848 72be 97f8 16be b1c5 60bc 6460 a1be
00000060: 4538 f3be 9ba9 afbe dca1 c1be 6da1 9cbe
00000070: 9965 43be 35df 94be 55b2 c6bd eaf3 3ebe
-0.009855686 -0.502185 -0.026323939 0.09099428 -0.32310787 -0.17479451 -0.5168228 -0.48380852
-0.867783 0.049295127 -0.4915416 -0.17766583 -0.44183162 -0.67083097 -0.09755029 -0.6215801
-0.35350186 -0.27229118 -0.3218641 -0.14904696 -0.23660576 -0.14743267 -0.013719008 -0.31518853
-0.47503868 -0.34309086 -0.378188 -0.30591908 -0.19081725 -0.29076543 -0.09701983 -0.18647733

fc2.weight f4 [16, 32]
00000000: 5150 df3d ea3a b6bd 3720 363e 168c 363e
00000010: e932 99bd a9a2 7b3e 3771 13be 9bd8 5abe
00000020: e04a cbbe 957d a2bd 8f5f 2fbe d80e 213e
00000030: bb46 90be 729c 45bf 64c6 8f3d 2fba 76bc
00000040: 5483 df3e 1860 25be 81c4 abbd bdfd 9cbe
00000050: 2914 86be cbba d4be 2a39 57bd d3e5 2abe
00000060: d475 38bf 7863 3a3e 9fcf 5d3e 70e3 7d3d
00000070: 5573 303e fd13 003f 0e0c 543e 996c 8f3e
00000080: a251 343c 1d9d af3e 5a7c 94bd 8525 9dbd
00000090: 295a b43e b3d8 95be 79c3 3f3e 5261 be3e
000000a0: 1b6e 07be 96e0 81be c7c0 89be 2037 06be
000000b0: 4659 793e c691 1d3e 97de bbbe 5aab 463e
000000c0: 1002 9dbe 0d39 9b3d f433 68be aa5b 093e
000000d0: ac74 203e 7074 903d 8ee2 223e cea4 493e
000000e0: e89f 593e ec51 773d 7151 84be 2118 9abe
000000f0: 6c0a 5e3d 37e2 17be 05f7 12bf 664c 8abe
00000100: ad32 233c 21c7 1bbe e68d d03e 4ae0 d93e
00000110: 96dc 68bc 24a4 2d3e 242b 27be e968 58be
00000120: 99b3 96be 15c2 a2bd fab0 d2bc 3b84 613e
00000130: 3e64 32be c68d 15bf 84a6 e93d ec23 91bc
00000140: f423 d23e 850d 5abd b0af d3bd ffbe 94be
00000150: b0e3 fbbd 76a8 79be b851 3abc a8fc 5ebe
00000160: 09e0 2bbd 3ad6 56bc 3a8a 3c3e 201f 543d
00000170: 7a52 743c b064 903e 75d6 0a3e 0455 db3e
00000180: 87e7 45bd 4221 d4bb 0c79 33bd cba8 253e
00000190: a688 2d3e 72ea cb3d e5cd dfbd 334c 393d
000001a0: 5f32 98bd b132 e53d 1f7b f4bd 9305 533e
000001b0: c305 323e bdf4 cfbe 9ecd 2b3a 36fe 173c
000001c0: f91d ec3e 8113 f9bb e746 80ba 8272 55be
000001d0: 5a82 54bd 8a8b 623c c522 c33d 95ed 6d3c
000001e0: 6a22 a2be 44e2 8c3e 7763 48be 92d5 f4bd
000001f0: e616 b0bc 1412 283e 4530 923d 4092 bc3e
00000200: a805 803e f871 083f f5cf a4bc 39db c23d
00000210: 98ef 3d3e 7654 0ebd 66ab d63e 0a6a 313e
00000220: f0cd 0a3e 6a5d 263e 22bc 80be f537 2bbe
00000230: a33b 5abc ca23 823e 17ab 2f3d 2815 c93e
00000240: 733f 40be 00ea b6bb bb4e 1dbe bda9 8cbc
00000250: 1205 01bd 24e6 cc3d 1721 19be 1476 30be
00000260: ddb6 543e c5f2 023c 5fe2 83bd d01b 30bd
00000270: ae1b b4be 4eb4 0fbc 2334 95be 815c 1ebe
00000280: 1e3c a2be b56f 9a3e 3684 96bd cf8f ad3d
00000290: 2280 c43e 9d46 e4be c93b 3a3e f1f3 debb
000002a0: 02c4 153f 777e 84be ccea 9ebd ad64 92be
000002b0: b291 ba3e 8c18 9e3e f161 a6be d0bc 923d
000002c0: fe62 d8bd 23c7 cb3b e2f5 ddbe 089c f13e
000002d0: a54d 003e c636 393e 5e82 b83c b6a5 6d3e
000002e0: 5d2c 90bd d120 15be 7247 15bf c6e2 afbe
000002f0: fc66 10bf 864a ebbe af85 c33d 2748 9cbe
00000300: e5c0 cd3d 5d79 b1be 58a9 0ebe 9c6e 8b3e
00000310: 9bf8 8abe f5df 403e bc04 a2be 544e b5be
00000320: 5f62 87be 9ea2 213d fe10 2a3d 8954 233d
00000330: 06ab a93d 65ab 44bd c39f d73c fc60 623e
00000340: 1d6e 743e a039 0b3d b697 3a3e dcb7 d1be
00000350: 46a5 053e 6085 b93d ae95 4d3d 1a54 e0bd
00000360: 70ab 47bb d76c 883d 232e 8dbe 0d4e ddbd
00000370: 2b5e e53d 917d 483e b5f0 053e b981 7dbe
00000380: 19d4 51be 289a cf3e eacf 04be 47cf 4abd
00000390: 50c5 043e afd0 fcbe 85b6 6b3e ef08 773e
000003a0: d20c 853e 815c cbbe 493f d2be 8411 9cbe
000003b0: 9a95 1d3e 1dd6 8e3e b480 c53d df37 c03e
000003c0: d0e3 a1be f5fc a53e 02f4 f9be af84 b73e
000003d0: 1e22 853e 5f92 203d 7154 8b3e c1db a73e
000003e0: 27dd 8d3e 7d0a 9e3d d9af f1be 26d8 b3be
000003f0: e988 01bf 4cbf d0be f616 bcbe 17fa 6ebe
0.10903991 -0.08897956 0.17785726 0.17826876 -0.074804135 0.24573769 -0.14398657 -0.21371691
-0.39705563 -0.07934109 -0.17126296 0.15728319 -0.28178963 -0.7719184 0.07020262 -0.015059038
0.43654883 -0.16149938 -0.083870895 -0.30662337 -0.26187256 -0.41548762 -0.05254475 -0.16689233
-0.7205479 0.18202007 0.21661232 0.06198448 0.17231496 0.500305 0.20707723 0.2801254
0.011005791 0.34299555 -0.07250281 -0.07673172 0.35225037 -0.2926689 0.1872691 0.37183625
-0.13225596 -0.25366658 -0.2690489 -0.13106966 0.24350461 0.1538764 -0.3669326 0.19401303
-0.30665636 0.07579241 -0.22676069 0.13413873 0.15669507 0.07053459 0.15906736 0.19691774
0.21252406 0.06038086 -0.25843385 -0.30096534 0.054209158 -0.14832388 -0.5740817 -0.27011412
0.0099608125 -0.1521268 0.4073326 0.4255393 -0.014212748 0.16957146 -0.1632505 -0.2113377
-0.29433897 -0.079471745 -0.025719155 0.22023098 -0.17421052 -0.58419454 0.114087135 -0.017717324
0.41043055 -0.05323555 -0.10336244 -0.29051968 -0.12299287 -0.24380669 -0.011372022 -0.21776068
-0.041961703 -0.013112599 0.18412104 0.051787496 0.014912242 0.28201818 0.13558371 0.428383
-0.048316505 -0.006473691 -0.04381661 0.1617767 0.16946658 0.09956826 -0.10927943 0.045238685
-0.074314825 0.11191309 -0.11937546 0.20607595 0.1738501 -0.40616408 0.00065537717 0.009276917
0.46116617 -0.007601202 -0.0009786756 -0.20844463 -0.051882125 0.013827214 0.09528116 0.014521976
-0.3166688 0.27516377 -0.19569193 -0.11954798 -0.021495294 0.16413146 0.07138113 0.3683033
0.25004315 0.532989 -0.020118693 0.0951447 0.18548429 -0.034748517 0.41927642 0.17325607
0.13555121 0.16246572 -0.25143534 -0.16720565 -0.013319883 0.2541793 0.042887773 0.39273953
-0.18774204 -0.005582094 -0.15362065 -0.017170781 -0.031498976 0.10004833 -0.14954029 -0.17232543
0.20772882 0.007992451 -0.06439661 -0.042995274 -0.35177368 -0.008771015 -0.2914134 -0.15464975
-0.3168649 0.3016335 -0.07349436 0.08474695 0.38379008 -0.44585124 0.18186869 -0.0068039824
0.5850221 -0.25877735 -0.07759628 -0.28592435 0.36439282 0.30878103 -0.32496598 0.071649194
-0.10565756 0.0062188073 -0.43351656 0.47189355 0.12529619 0.180873 0.022523101 0.23207745
-0.070397116 -0.145633 -0.5831214 -0.34352702 -0.5640714 -0.45955294 0.095469825 -0.30523798
0.10046557 -0.34662905 -0.13931787 0.27232826 -0.27142796 0.18835433 -0.31644237 -0.35411322
-0.2644224 0.039461724 0.04152011 0.03987554 0.08284573 -0.048015017 0.026321298 0.22107309
0.2387013 0.033990502 0.18221936 -0.40960586 0.13051328 0.090586424 0.050191574 -0.10953541
-0.0030467175 0.066613846 -0.27574262 -0.10805903 0.11199602 0.1957915 0.13080104 -0.24756517
-0.20491065 0.405473 -0.12969938 -0.04951408 0.12965894 -0.49377963 0.23018844 0.24124502
0.25986344 -0.39719012 -0.41063908 -0.30482113 0.153891 0.2789773 0.09643689 0.37542626
-0.3161912 0.32419553 -0.48818976 0.35843417 0.26002592 0.03920209 0.2721286 0.32784846
0.27707788 0.07716844 -0.47204474 -0.35125846 -0.50599533 -0.40770948 -0.36736268 -0.23337589

fc2.bias f4 [16]
00000000: 8714 483e e8e0 9e3c 122f 0e3e 0e29 93be
00000010: 66b0 6b3d ae0f 773e ddf2 e4be d0cf 0c3e
00000020: 4d72 c73c 2ba3 403e 7efa 6dbe ddc6 27be
00000030: 8943 493e db9c 88be 4528 0f3e 17a6 8a3d
0.1953908 0.019394353 0.13885143 -0.2874226 0.057541274 0.24127075 -0.4471654 0.13751149
0.024346495 0.18812244 -0.23240086 -0.16384454 0.19654669 -0.2668217 0.13980205 0.067699604

fc3.weight f4 [8, 16]
00000000: aafb 8dbd daea 363e a589 ad3d 344d 2abb
00000010: 0d2c ba3e 5f49 923e e676 0e3e be04 823d
00000020: fd74 373d 834e 963e c58b 633e 4bf8 233e
00000030: aace 4bbd 435a ccbc 9ecb 613e 11be 303e
00000040: 4b80 053e 6399 4dbf 032e 69be 1f54 24be
00000050: 9030 fbbd 618d 16bf 0c64 9a3d 38dc c1be
00000060: b738 c5bc 880d 1ebf 8ab9 b2bc d7fd 2fbf
00000070: 3761 473d 6598 48be ef96 8e3e bb68 02bf
00000080: 7029 9fbe 291a 813e 3c86 b4be 16fa 1dbe
00000090: ae74 223e e1a2 373e cb53 63bc 7718 9d3e
000000a0: 869f 12be 94ef 9a3e 712b e93d f22c 383e
000000b0: 43ea fc3c 84ba 5a3e ecea dabe 9515 2c3e
000000c0: d7c0 7ebe e8e2 ccbc 5043 c0be 6db7 f9be
000000d0: 4a18 93be 67fc 2a3c 45fd 83bd 7d98 cfbe
000000e0: 00b7 76bd 74e9 50be 2252 ae3e 8a36 b13d
000000f0: 6513 aebd b744 243e 179d 8dbe 2a21 c63e
00000100: b568 bdbc 07fb 253d 7145 36be 7e29 203e
00000110: 5144 77be fa90 d4bd 5b63 1e3e 4a5e 03be
00000120: c6bc 703e 4591 bfbd 6298 f7bd 608b 5fbe
00000130: 8de9 483d 1eed 52bd b136 64be 60c8 61be
00000140: baf6 2d3e fb32 eabe f45c 983e 176c e43d
00000150: 5339 343d 1885 9abe eff2 4a3d 905a bcbe
00000160: a618 153e cb20 83be cdbb 5bbe b3bd c6be
00000170: 28b6 843e b379 70bd c282 293e 25c2 87be
00000180: 2b91 87be ed21 933e 79a9 b9be a30e 8fbe
00000190: 0666 c93d f044 9c3d f018 9f3a 6225 543e
000001a0: 95aa 28be de81 243e 8d3f 06be 191f 4a3e
000001b0: 3e71 9bbd 3c8e 7f3d 2bf1 d1be b372 2a3e
000001c0: b2c9 25be 5c82 a63e 31c4 d3be accb 0fbe
000001d0: 4b8f f23d 64ad a63e 6390 12bd be39 02bf
000001e0: 0785 bcbc a6c8 74be ef7b a53e 9b1b cdbe
000001f0: 4d3f 84bd 0077 5c3e cfe9 babe eda4 503e
-0.06932767 0.17863026 0.08473519 -0.0025985958 0.36361733 0.28571603 0.13912544 0.06348561
0.044789303 0.29356775 0.22221287 0.16012685 -0.049757637 -0.024945384 0.2205033 0.17260005
0.13037221 -0.80312175 -0.22771458 -0.16047715 -0.12265122 -0.5880948 0.07538614 -0.37863326
-0.024074895 -0.617394 -0.021816988 -0.68746704 0.048676696 -0.19589384 0.27849528 -0.50941056
-0.31086302 0.2521527 -0.35258663 -0.15427431 0.15864822 0.17933227 -0.013874958 0.30682728
-0.14318666 0.3026091 0.11385239 0.17985895 0.030873423 0.21360213 -0.42757356 0.16805108
-0.2487825 -0.025010541 -0.37551355 -0.48772755 -0.2872947 0.010436154 -0.06444792 -0.40546027
-0.060233116 -0.20401555 0.34047037 0.086529806 -0.08499793 0.16041838 -0.27658913 0.38697177
-0.023121217 0.0405226 -0.17799927 0.15640828 -0.24147154 -0.103792146 0.15467589 -0.12828937
0.23509511 -0.0935388 -0.120896116 -0.21830511 0.049050856 -0.051495664 -0.22286488 -0.22049093
0.1698865 -0.4574202 0.29758418 0.11153429 0.04399998 -0.30179667 0.049548086 -0.36787844
0.14560184 -0.25610957 -0.21458359 -0.38816604 0.25920224 -0.05870981 0.16553786 -0.26515308
-0.26477942 0.2873682 -0.3626211 -0.27940854 0.098339126 0.07630336 0.0012138169 0.20717385
-0.16471322 0.16065165 -0.1311018 0.19738425 -0.075899586 0.062391505 -0.4100431 0.16645317
-0.16190222 0.3252133 -0.4136062 -0.14042538 0.11843737 0.32554162 -0.03578223 -0.5086936
-0.023012651 -0.23904666 0.32321116 -0.40060124 -0.06457386 0.2152977 -0.36506507 0.20375414

fc3.bias f4 [8]
00000000: 6443 93bc 065d ed3e a9bb 803e d742 c03d
00000010: a010 99bd 6dd6 123f c466 853e 5ddb 843d
-0.01797647 0.46360034 0.25143173 0.09387749 -0.07473874 0.5735844 0.26054966 0.06487153

fc4.weight f4 [2, 8]
00000000: 32f3 ec3d 3da5 85bc d137 d03e f4cc 753e
00000010: 320f 8a3d 78ef cdbe b6c1 703e 49e9 d73e
00000020: 9786 35bd 6d34 133f ce43 71be c29a b2bd
00000030: b97c ff3d 7efb 0d3f eb02 a7be ec83 6b3d
0.11569823 -0.016314143 0.40667585 0.24003965 0.067411795 -0.40221763 0.23511395 0.4217017
-0.044317808 0.5750187 -0.23561022 -0.08720924 0.12474961 0.5546187 -0.32619414 0.057498857

fc4.bias f4 [2]
00000000: 92f8 01bc 79fd c23e
-0.007932799 0.3808401
