ligand_model/DNN_FC0002_ModelP16-PaDEL2D-PCC_SFSforward32_batchsize-16_optim-adam_lr-0.005/train2.model (torch, 9295 bytes, 8 tensors)

fc1.weight f4 [32, 32]
0	0xbe2d0e20	-0.1689992
1	0xbe9ce7bf	-0.30645558
2	0x3d34b884	0.04412128
3	0xbe96327a	-0.29335386
4	0x3dc364fc	0.095407456
5	0x3e547fb2	0.20751837
6	0x3e5f7de8	0.21825373
7	0xbc45e511	-0.0120785395
8	0xbe5914ba	-0.21199313
9	0x3dec055c	0.1152446
10	0x3ddd8b55	0.10817591
11	0xbe134c04	-0.14384466
12	0xbe9f6a00	-0.3113556
13	0xbd2a7873	-0.041618776
14	0x3e44788d	0.19186611
15	0xbe418b81	-0.18900873
16	0xbe3643a8	-0.17799246
17	0x3bed1e93	0.0072363107
18	0xbedbe972	-0.42951542
19	0x3eaac76b	0.3335527
20	0x3d600494	0.054691866
21	0xbe9378f8	-0.2880323
22	0xbdf0ef3d	-0.11764381
23	0xbdb762c7	-0.08954387
24	0xbe138b9f	-0.1440873
25	0xbe0c4e25	-0.13701685
26	0x3d97c8e9	0.074113674
27	0xbcc66dcc	-0.024222277
28	0xbd72f18e	-0.059312396
29	0xbe94bb9d	-0.29049388
30	0xbd712442	-0.05887247
31	0x3d67f9da	0.05663476
32	0x3f3059d3	0.6888706
33	0x3e2474ac	0.16060132
34	0x3d502789	0.050818954
35	0xbee71a5a	-0.45137292
36	0x3dc2e497	0.09516256
37	0xbe0f8dd1	-0.14018942
38	0xbe3fb6ca	-0.18722072
39	0x3e238464	0.15968472
40	0x3e9c6163	0.3054305
41	0x3e801c86	0.25021762
42	0xbca2452b	-0.019808372
43	0x3ddd12b5	0.10794584
44	0x3dd8d973	0.1058835
45	0xbc88fb55	-0.016721407
46	0xbdceca94	-0.100972325
47	0xbd460265	-0.048342127
48	0x3e205b26	0.1565977
49	0x3ea69766	0.32537383
50	0xbd21be46	-0.0394881
51	0xbc596ebc	-0.01327103
52	0x3cdd2fc6	0.02700032
53	0xbcf01dc2	-0.029311065
54	0x3e7425e4	0.23842579
55	0x3e85d65a	0.261401
56	0xbd63fee1	-0.055662993
57	0xbd7ab3a1	-0.061206464
58	0x3e088a5c	0.1333403
59	0xba6edd13	-0.0009111922
60	0xbc6d88f3	-0.014497983
61	0xbe0ad20e	-0.13556692
62	0xbd34c503	-0.044133198
63	0xbe9b7647	-0.30363676
64	0x3ef0631c	0.46950614
65	0x3e9ceb05	0.30648056
66	0x3e0f0533	0.13966827
67	0xbedededd	-0.43529406
68	0xbda3e842	-0.08003284
69	0xbe508a5d	-0.20365281
70	0xbd501aeb	-0.05080692
71	0x3c46a388	0.01212395
72	0x3e36721e	0.1781697
73	0x3e80b495	0.25137773
74	0xbec9432d	-0.39309064
75	0x3d258e3e	0.040418856
76	0xbe77a0a1	-0.24182369
77	0xbcd53fe6	-0.026031446
78	0xbd9a3dd6	-0.075313255
79	0xbd3bd9bf	-0.045861956
80	0x3d9b55a5	0.07584695
81	0xbd57800b	-0.052612346
82	0x3d87d7db	0.06632968
83	0x3eb774bb	0.35831246
84	0xbe779d03	-0.24180989
85	0xbd358e68	-0.044325262
86	0xbdb5659c	-0.08857271
87	0xbddf99ee	-0.10918032
88	0xbdbdf162	-0.09274556
89	0x3d196817	0.037452783
90	0x3e88a5a5	0.26688877
91	0x3e38d524	0.18050057
92	0x3e3bfd32	0.18358305
93	0xbd1a1ce5	-0.037625212
94	0xbe3e5482	-0.18586925
95	0xbe437c88	-0.19090474
96	0xbe9cfff4	-0.30664027
97	0xbe92d9b6	-0.28681725
98	0x3e847a02	0.25874335
99	0xbea4db85	-0.3219873
100	0x3e3e69ff	0.18595122
101	0x3e441a69	0.191507
102	0x3d8f52da	0.069982246
103	0x3e5bdfb5	0.21472056
104	0xbe201b34	-0.15635377
105	0x3ebc4c66	0.36777037
106	0x3c07b4aa	0.00828282
107	0x3b3b0d8e	0.0028542015
108	0x3e0d2c89	0.1378652
109	0xbd3e105b	-0.046402317
110	0xbeab528d	-0.3346142
111	0xbdd258a2	-0.102708116
112	0x3d82c532	0.06385268
113	0xbdc70909	-0.0971852
114	0xbe8bed7d	-0.27329627
115	0x3d177ff1	0.03698725
116	0x3e0efb90	0.13963151
117	0x3cd49a23	0.025952404
118	0xbe5b5352	-0.21418503
119	0x3dabd06e	0.08389364
120	0x3e10525d	0.14093919
121	0xbdc24d22	-0.09487368
122	0x3c8249a7	0.01590426
123	0xbe75f6d3	-0.24019937
124	0x3c7dc9a2	0.015489968
125	0xbd16f626	-0.03685584
126	0x3d23b7d3	0.03997023
127	0x3e905c63	0.28195485
128	0xbf4e1094	-0.80494046
129	0xbe5aec9e	-0.21379325
130	0x3e4d1be0	0.20030165
131	0xbe4b678c	-0.19863719
132	0x3ec99e16	0.39378422
133	0x3c811707	0.01575805
134	0x3e0b137b	0.1358165
135	0x3dc4c5c3	0.096080326
136	0xbd221544	-0.03957106
137	0xbe782c2b	-0.24235599
138	0x3ddb5b20	0.1071074
139	0x3d8d8803	0.06910708
140	0xbd95f1f4	-0.073215395
141	0x3ebef2a7	0.37294504
142	0x3e2ec5b6	0.17067608
143	0x3ee24700	0.44194794
144	0xbe2c5907	-0.16830836
145	0xbeae2272	-0.34010655
146	0xbeb6033c	-0.35549343
147	0xbd250a0a	-0.040292777
148	0x3d6fef3b	0.058577757
149	0xbd440d56	-0.04786428
150	0xbd7767c5	-0.060401697
151	0x3d2cde41	0.042204145
152	0x3d13c0c1	0.036072496
153	0xbd96ffcd	-0.07373009
154	0xbd67abbd	-0.056560267
155	0x3e7cbe67	0.24682008
156	0xbd50e82b	-0.051002663
157	0x3dabcdea	0.08388884
158	0x3c9d44aa	0.01919778
159	0x3daa6626	0.083202645
160	0x3f28b476	0.6590036
161	0x3eb22dbe	0.34800524
162	0x3e5cda6f	0.21567701
163	0xbf0cbe40	-0.549778
164	0x3d721aa0	0.059107423
165	0x3de989df	0.1140325
166	0xbe031aa9	-0.12803139
167	0x3c51acdd	0.0127975615
168	0x3eb470ad	0.35242215
169	0x3e427d2c	0.18993062
170	0x3d39a543	0.04532362
171	0x3e80e2f7	0.2517316
172	0xbda7479f	-0.081679575
173	0xbdc4a1e6	-0.09601192
174	0xbdb05cd2	-0.08611454
175	0xbd8b360d	-0.06797419
176	0xbe4cdcd0	-0.20006108
177	0x3ad0bb53	0.0015924968
178	0x3e35d6ff	0.17757796
179	0xbd772177	-0.06033465
180	0xbd2ce25c	-0.04220806
181	0xbdd2eff1	-0.102996714
182	0x3df7a37b	0.12091728
183	0xbd2cc4e2	-0.04217995
184	0xbdc66710	-0.09687626
185	0x3deaceb2	0.11465205
186	0x3e4b0252	0.19825104
187	0xbc18d1e3	-0.009327385
188	0x3de4f8c5	0.111802615
189	0x3da33ef9	0.079709955
190	0xbd0110f1	-0.031510297
191	0xbdccf147	-0.100069575
192	0xbebf489c	-0.37360084
193	0xbee108bf	-0.43951985
194	0x3f029b83	0.5101854
195	0xbdeeb168	-0.11654931
196	0x3e68ce2d	0.227349
197	0x3e169a74	0.14707357
198	0x3e8677f8	0.26263404
199	0xbbde923e	-0.006792336
200	0xbd3f9885	-0.046776313
201	0x3ea5287a	0.32257444
202	0x3e6f1bbe	0.23350427
203	0xbd1d6b88	-0.038432628
204	0xbd1c6265	-0.038179774
205	0xbddf3c06	-0.109001204
206	0x3de60e0b	0.11233147
207	0x3ea15ca9	0.31516007
208	0xbd1287a4	-0.03577389
209	0x3d6e2c5b	0.05814777
210	0xbe9a88c3	-0.30182466
211	0xbe18aa2d	-0.14908667
212	0x3e4cc99c	0.19998783
213	0xbc7e61e1	-0.015526266
214	0x3d83f2ff	0.06442832
215	0x3e23a84d	0.1598217
216	0xbced4825	-0.028965065
217	0x3dd6e494	0.104928166
218	0xbdd3a604	-0.10334399
219	0x3e04324d	0.12909813
220	0x3da49035	0.08035318
221	0x3d6d24a9	0.05789629
222	0x3c7949a0	0.0152153075
223	0xbd5e0c5f	-0.054211017
224	0xbef13287	-0.47108862
225	0xbe791594	-0.24324638
226	0x3e9a76a9	0.30168656
227	0xbe44459c	-0.19167179
228	0x3eb81375	0.35952345
229	0x3e1963c8	0.1497947
230	0x3e659985	0.22421844
231	0x3dbb0d4a	0.09133394
232	0x3cf5ba3b	0.029996028
233	0x3dd23297	0.102635555
234	0xbd6520c8	-0.055939466
235	0x3e199f7f	0.15002249
236	0x3daf7731	0.08567656
237	0x3ea3c2c4	0.31984532
238	0x3d4cadfd	0.049970616
239	0x3e9caa22	0.3059855
240	0xbe447acf	-0.19187473
241	0xbd1b14b9	-0.03786156
242	0xbec3fb80	-0.38277817
243	0xbbb6936f	-0.0055717747
244	0x3e3c0844	0.18362528
245	0xbe40d00d	-0.18829365
246	0x3dad2e27	0.084560685
247	0x3ed00f09	0.4063647
248	0x3b1b7f96	0.002372717
249	0x3bc4df65	0.006008076
250	0xbdeb7209	-0.1149636
251	0xbd0180d4	-0.031617
252	0x3daaeb9a	0.08345719
253	0x3d50177c	0.050803646
254	0xbc902dbb	-0.017599931
255	0x3dbc3244	0.09189275

fc1.bias f4 [32]
0	0xbdf72386	-0.120673224
1	0xbde34340	-0.11096811
2	0xbe096101	-0.1341591
3	0xbe3b29c8	-0.18277657
4	0xbe499a2e	-0.19687721
5	0xbe48f80e	-0.19625875
6	0xbe96b86e	-0.29437584
7	0xbe7a6ed1	-0.24456336
8	0x3dade2dd	0.08490536
9	0xbe9d0d53	-0.30674228
10	0xbe53f7ee	-0.20700046
11	0xbe483ab3	-0.19553642
12	0xbe168dd9	-0.14702548
13	0xbeb10c68	-0.34579778
14	0xbcf932c3	-0.030419713
15	0x3e04ec20	0.129807
16	0xbedbb3c6	-0.42910594
17	0xbdfc747a	-0.12326904
18	0xbc0693cf	-0.008213951
19	0xbdd54168	-0.10412866
20	0xbecafe6c	-0.39647233
21	0xbe52b535	-0.20576937
22	0xbe3b45bb	-0.18288319
23	0xbe1e697b	-0.15469925
24	0xbe9432ed	-0.28945103
25	0xbd680d7f	-0.056653496
26	0xbecf59f3	-0.40498313
27	0xba879904	-0.0010345285
28	0xbe8da750	-0.27666712
29	0xbd57bd8e	-0.052671008
30	0xbefd2f16	-0.49449986
31	0xbebe92f9	-0.37221506

fc2.weight f4 [16, 32]
0	0xbab11db0	-0.0013512876
1	0xbeb157ba	-0.34637243
2	0xbe65c521	-0.2243848
3	0x3e4e6546	0.2015582
4	0x3ec8813e	0.39161104
5	0xbe9638aa	-0.29340106
6	0x3ebb10e8	0.36536336
7	0x3db78f28	0.08962852
8	0xbd7d9a73	-0.061914872
9	0x3d5bffbb	0.05371068
10	0xbe8676d9	-0.2626255
11	0x3e722c8b	0.23649804
12	0xbe8fd051	-0.2808862
13	0x3e023577	0.12715708
14	0xbe0d91c1	-0.13825132
15	0xbe300eb4	-0.17193109
16	0x3e8e8a5e	0.2783994
17	0xbe39f49f	-0.18159722
18	0xbd389eb4	-0.045073226
19	0xbde3ba24	-0.11119488
20	0xbe185b88	-0.14878666
21	0x3ea622e5	0.32448497
22	0x3e2749bb	0.1633672
23	0xbe1e1a96	-0.15439829
24	0x3d93cbfd	0.07216642
25	0xbe8ca4c2	-0.2746945
26	0xbe0b3dd8	-0.1359781
27	0xbc9caf8a	-0.019126672
28	0xbe55cc7f	-0.2087879
29	0x3cfe0440	0.031007886
30	0xbcb35293	-0.02188996
31	0x3e28f396	0.1649917
32	0x3e5b5e0c	0.21422595
33	0xbd80c6fe	-0.06287955
34	0xbebe5fe9	-0.3718255
35	0x3e11d1d7	0.14240204
36	0x3e1f74db	0.1557192
37	0xbe6df2d9	-0.2323717
38	0x3e7a16ac	0.24422711
39	0x3e59280c	0.21206683
40	0xbe9a73ec	-0.30166566
41	0x3e9493ad	0.29018918
42	0xbeb73bd5	-0.35787836
43	0x3ece2cfb	0.40268692
44	0xbe8f3e69	-0.27977303
45	0x3de84341	0.11340953
46	0xbe80ae67	-0.25133058
47	0xbe8e991e	-0.27851194
48	0x3e38af33	0.18035583
49	0x3cf60b56	0.030034702
50	0x3db0d976	0.086352274
51	0xbea7e175	-0.32789198
52	0x3d0caf53	0.03434689
53	0x3e42d739	0.19027413
54	0xbe3b5f9a	-0.18298188
55	0xbeabb5d6	-0.33537167
56	0x3e3be4ee	0.18349048
57	0xbe729c29	-0.23692383
58	0xbd144451	-0.036197964
59	0xbda6a75b	-0.08137389
60	0xbc6b1f4d	-0.014350724
61	0x3e08b356	0.13349661
62	0x3e8b8265	0.2724792
63	0x3d8e052b	0.069345795
64	0xbe4d2e5b	-0.20037214
65	0x3d39f040	0.045395136
66	0xbdae331d	-0.08505843
67	0xbeba1b22	-0.36348826
68	0xbe722b53	-0.2364934
69	0x3e67acdd	0.22624536
70	0xbeda380d	-0.42620888
71	0xbebaa626	-0.36454886
72	0x3e75f3bc	0.24018759
73	0xbe06b632	-0.1315544
74	0xbe74f58d	-0.23921795
75	0x3cad62f7	0.021165354
76	0x3eb13b79	0.34615687
77	0xbe5078bc	-0.20358557
78	0x3bba6d66	0.005689311
79	0x3d2b40d7	0.041809883
80	0xba886faf	-0.0010409261
81	0x3e1eb3ce	0.15498278
82	0xbc36be05	-0.011153703
83	0x3e6fd502	0.234211
84	0xbda2f31b	-0.07956525
85	0xbde632de	-0.11240171
86	0xbeef7ea7	-0.46776316
87	0xbd89f57f	-0.06736278
88	0x3cc77b29	0.02435072
89	0xbcb75952	-0.022381458
90	0x3e362604	0.1778794
91	0x3d747858	0.05968508
92	0x3e9d2834	0.30694735
93	0xbe74ef69	-0.23919453
94	0xbe35dbfa	-0.17759696
95	0xbd9aeeb6	-0.07565062
96	0xbd76ecd7	-0.06028446
97	0x3dd78397	0.10523146
98	0xbe8b1d44	-0.27170765
99	0x3e12a4ff	0.14320754
100	0x3ddc4675	0.10755626
101	0xbda914a2	-0.082558885
102	0x3e561da3	0.20909743
103	0x3ddf5c2c	0.10906252
104	0x3b03406b	0.002002741
105	0x3e4bd167	0.199041
106	0xbed0d628	-0.40788388
107	0x3e9d1659	0.30681112
108	0xbee3fbd2	-0.4452806
109	0x3e45b86e	0.19308636
110	0xbe99853c	-0.29984462
111	0xbedda040	-0.43286324
112	0x3e400728	0.1875273
113	0x3b8b313e	0.0042478135
114	0xbeebe162	-0.4607039
115	0xbe1738af	-0.14767717
116	0x3d52cdfe	0.05146598
117	0x3de28ec7	0.11062389
118	0xbe2ed1aa	-0.17072168
119	0xbec2d8e9	-0.38056114
120	0x3e6faab3	0.2340496
121	0xbe9879a8	-0.29780316
122	0xbe2e06b8	-0.1699475
123	0xbe958989	-0.29206493
124	0x3dce17fe	0.1006317
125	0xbc67178b	-0.014104734
126	0x3d807a54	0.06273332
127	0x3ea2151f	0.3165674
128	0x3e544c55	0.20732243
129	0xbbd1ce3b	-0.0064027584
130	0xbe649eda	-0.22326222
131	0x3d8915e1	0.06693626
132	0x3e93e43b	0.28885064
133	0xbebddbce	-0.3708176
134	0x3e624d26	0.22099742
135	0x3ea168a8	0.3152516
136	0xbd958acd	-0.07301865
137	0x3e454136	0.19263157
138	0xbeddfc36	-0.43356484
139	0xbca621e2	-0.020279828
140	0x3da0b183	0.07846358
141	0x3e305e16	0.17223391
142	0xbe6e58c3	-0.23276047
143	0xbf16e633	-0.58945006
144	0x3f086629	0.53280884
145	0x3d07dd8c	0.033170268
146	0x3cd85c46	0.026411187
147	0xbe33f879	-0.17575254
148	0x3e4665b4	0.19374734
149	0x3e853dc2	0.2602368
150	0x3dcc0e1f	0.09963631
151	0xbda82dc6	-0.082118556
152	0x3e9142f8	0.28371406
153	0x3d033bf3	0.032039594
154	0xbdc18a82	-0.094502464
155	0xbe56f12e	-0.2099044
156	0xbe68d598	-0.2273773
157	0x3e60209a	0.21887437
158	0x3e7f4942	0.2493029
159	0x3d02847c	0.03186463
160	0xbecbf61a	-0.39836198
161	0xbb2f807d	-0.0026779466
162	0x3e38bbde	0.18040416
163	0xbea2cb8c	-0.3179592
164	0xbe2ed742	-0.17074302
165	0x3eba1c9a	0.36349946
166	0xbe6d19d2	-0.23154381
167	0xbea4a4b2	-0.32156903
168	0x3dc0f252	0.09421219
169	0xbe45a487	-0.19301043
170	0xbe11cd09	-0.14238371
171	0x3bec441c	0.0072102677
172	0x3e35e550	0.17763257
173	0xbeb9cb8d	-0.3628811
174	0x3e682f5f	0.2267432
175	0x3c8a9277	0.016915543
176	0xbe5cad49	-0.21550478
177	0x3d94599b	0.072436534
178	0xbd1e8905	-0.03870489
179	0x3e673275	0.22577842
180	0xbe8b3bf8	-0.2719419
181	0xbdf2f7dd	-0.118636824
182	0xbd6e1241	-0.058122877
183	0xbdd7cc15	-0.105369724
184	0x3e0cf13f	0.13763903
185	0x3e07f0ed	0.132755
186	0x3c84a8ce	0.016193774
187	0x3dc2c4e7	0.095102124
188	0x3dda5827	0.10661345
189	0xbe0728ae	-0.13199112
190	0xbe090bfd	-0.1338348
191	0xbe3a468b	-0.18190973
192	0xbea27f89	-0.31737927
193	0x3e872e4e	0.26402515
194	0x3ea4a260	0.32155132
195	0x3c0ae1d8	0.008476697
196	0x3d56b0b1	0.0524146
197	0x3e23c658	0.15993631
198	0xbe2183b8	-0.15772903
199	0xbe5874a4	-0.21138245
200	0x3d5d13f8	0.05397412
201	0x3d42677c	0.04746197
202	0x3c260c16	0.010134717
203	0x3d621b0b	0.05520157
204	0x3dc70811	0.097183354
205	0xbde92054	-0.11383119
206	0x3e4b9b35	0.19883426
207	0xbdf25933	-0.1183342
208	0xbe1dbb4f	-0.15403484
209	0x3e7639cd	0.24045487
210	0x3bdd732e	0.0067581153
211	0x3ed7aea6	0.42125434
212	0xbe3702c7	-0.17872153
213	0x3d55c5ba	0.05219052
214	0xbebe0ed7	-0.37120697
215	0xbd8043a4	-0.062629014
216	0xbdd97700	-0.106184006
217	0x3d2cc75b	0.042182308
218	0x3ea46e85	0.3211557
219	0x3e52d2a1	0.20588161
220	0x3ea319a9	0.31855515
221	0x3cd2958d	0.025706077
222	0xbe5fa05a	-0.21838513
223	0xbd42aa8b	-0.047525924
224	0x3d565264	0.052324668
225	0xbea2fa24	-0.31831467
226	0xbeb8e0b7	-0.36108944
227	0x3e0f1954	0.13974506
228	0x3d889a35	0.06670038
229	0xbe227c0b	-0.15867631
230	0x3e9bd8b0	0.30438757
231	0x3ea8c62a	0.32963687
232	0xbcb07796	-0.021541398
233	0x3e730b3f	0.23734759
234	0x3da02016	0.0781862
235	0x3deb694f	0.114946954
236	0xbe4fd68a	-0.20296684
237	0xbdbb2a0f	-0.091388814
238	0xbebe3828	-0.3715222
239	0xbe46a970	-0.19400573
240	0x3d990195	0.07471005
241	0xbdb20c70	-0.086937785
242	0xbc674900	-0.014116526
243	0x3de2c94b	0.1107355
244	0x3dcf148f	0.10111343
245	0x3d2e1d83	0.042508613
246	0xbcd8f483	-0.02648378
247	0xbcff85aa	-0.031191666
248	0x3e98b4ea	0.29825526
249	0xbdf28895	-0.11842457
250	0xbde1f867	-0.11033707
251	0xbd02f042	-0.03196741
252	0xbde82382	-0.113348976
253	0xbc0aa2ff	-0.008461713
254	0x3d576c88	0.052593738
255	0xbd2a22ad	-0.041536976

fc2.bias f4 [16]
0	0xbd8a3a79	-0.06749434
1	0xbd113c0c	-0.035457656
2	0x3c9aaaec	0.01888033
3	0x3d8b2a5d	0.067951895
4	0x3a501662	0.00079379056
5	0x3e66c4d3	0.2253602
6	0xbd07f6ba	-0.03319428
7	0xbcfcfd5c	-0.03088253
8	0x3e768dc8	0.24077523
9	0x3da11d4f	0.07866918
10	0x3cc8120c	0.024422668
11	0xbdcefda2	-0.1010697
12	0x3d750226	0.059816502
13	0xbbab5a94	-0.0052293036
14	0xbc9b17c0	-0.018932223
15	0x3e7fb354	0.24970752

fc3.weight f4 [8, 16]
0	0xbe3d6aec	-0.18497819
1	0xbe7fd5f3	-0.24983959
2	0x3e4452c5	0.19172199
3	0xbc6800d1	-0.014160351
4	0xbea80200	-0.32814026
5	0x3e4b8080	0.19873238
6	0x3e9807f0	0.29693556
7	0xbe86fbf3	-0.26364097
8	0x3e883306	0.26601428
9	0x3d72af75	0.05924936
10	0xbe458eac	-0.19292706
11	0xbbe22d96	-0.006902407
12	0x3d10e4a7	0.03537431
13	0x3e566b0b	0.20939271
14	0xbe760849	-0.24026598
15	0x3e896757	0.26836655
16	0xbdee165b	-0.11625358
17	0xbee55e53	-0.44798526
18	0x3e6bd6b6	0.23031124
19	0xbdd615dd	-0.10453389
20	0xbd344a4d	-0.04401617
21	0x3dacd585	0.08439163
22	0x3dafbca8	0.08580905
23	0xbe2c8913	-0.16849165
24	0xbee87280	-0.45399857
25	0xbef18e55	-0.47178903
26	0xbe386252	-0.18006256
27	0xbe55a430	-0.20863414
28	0x3d233601	0.039846424
29	0x3d25038d	0.04028659
30	0xbddba67c	-0.10725114
31	0xbe3ad8d3	-0.18246774
32	0xbe4a4f1a	-0.19756737
33	0xbcb7b505	-0.022425184
34	0xbc0885fe	-0.0083327275
35	0xbde50db8	-0.11184257
36	0xbe5c2880	-0.21499825
37	0x3e29d880	0.16586494
38	0x3d6141b8	0.054994315
39	0xbdcf0577	-0.10108464
40	0x3d179531	0.037007514
41	0x3e481f4d	0.1954319
42	0xbe09b87a	-0.13449278
43	0xbe39be10	-0.1813891
44	0x3e819274	0.25307047
45	0xbedbaa33	-0.4290329
46	0x3e2ed7a9	0.17074455
47	0x3e8c002e	0.27343887
48	0x3e82a775	0.25518385
49	0x3ecac767	0.39605257
50	0xbe9b299a	-0.30305177
51	0x3ebe2054	0.3713404
52	0x3e8ac72a	0.27105075
53	0xbef7a48f	-0.48367736
54	0x3cb7150d	0.022348905
55	0x3e449ceb	0.19200484
56	0xbea5253d	-0.32254973
57	0x3d4a444e	0.049381547
58	0x3ea4c231	0.32179406
59	0x3ea1018f	0.31446502
60	0xbe2de5fb	-0.16982262
61	0xbee3b3f9	-0.44473246
62	0x3dd372d4	0.10324636
63	0xbe9ec66c	-0.3101076
64	0xbded94ff	-0.116006844
65	0x3cb902b4	0.022584297
66	0xbc55c008	-0.013046272
67	0x3e7ea528	0.2486769
68	0xbe5941c0	-0.21216488
69	0xbdf64105	-0.1202412
70	0xbd3c1e91	-0.045927588
71	0xbd66d6c1	-0.05635715
72	0xbe7f8c93	-0.24955969
73	0x3e3d40e6	0.18481788
74	0xbe595014	-0.21221954
75	0x3e9215d3	0.28532276
76	0xbd85fff3	-0.06542959
77	0xbeef20b7	-0.46704647
78	0x3e23d07e	0.15997502
79	0xbe55684c	-0.20840567
80	0x3e0254be	0.12727639
81	0xbe935867	-0.28778383
82	0xbea0f779	-0.31438807
83	0x3ded2ff4	0.11581412
84	0xbeb6a89b	-0.3567551
85	0xbe71fb46	-0.2363101
86	0x3d422d70	0.047406614
87	0x3e293c97	0.1652702
88	0xbd023f31	-0.031798545
89	0x3d8bbfe5	0.0682371
90	0x3e1bf53c	0.15230268
91	0x3d848bd2	0.06471981
92	0x3e0d9257	0.13825355
93	0x3db330f9	0.08749575
94	0xbe5fc1dd	-0.21851297
95	0xbcbe280a	-0.023212451
96	0xbe44b369	-0.19209065
97	0xbe45db3d	-0.19321914
98	0x3c32d75f	0.010915606
99	0x3e30bb0d	0.17258854
100	0xbd8930cc	-0.066987604
101	0x3ced78f4	0.028988339
102	0x3d5f4882	0.05451251
103	0x3ae22806	0.001725436
104	0xbe1a26c3	-0.15053849
105	0x3d9e5965	0.077318944
106	0x3ea9e69d	0.33183756
107	0x3e91ad67	0.28452608
108	0xbd80b495	-0.06284443
109	0xbd7deb5c	-0.061992034
110	0xbed57580	-0.41691208
111	0xbce80500	-0.028322697
112	0xbe8d0375	-0.275417
113	0xbe61a2a1	-0.22034694
114	0x3eb2279a	0.3479584
115	0xbd766535	-0.060155112
116	0x3dac98db	0.08427592
117	0xbe48438b	-0.19557016
118	0x3e8d84b7	0.27640316
119	0x3d06d339	0.03291628
120	0xbe181d7b	-0.14854996
121	0xbe572131	-0.21008755
122	0x3c8c2cb2	0.017111156
123	0xbe58c0ab	-0.21167247
124	0xbe2060a0	-0.1566186
125	0xbe0030d3	-0.12518625
126	0x3cd43680	0.025904894
127	0xbe6f6c75	-0.23381217

fc3.bias f4 [8]
0	0x3e891a3b	0.26777825
1	0x3c408fd8	0.011753045
2	0x3db1109f	0.08645748
3	0x3e29332a	0.16523424
4	0xbd843fc5	-0.064574756
5	0xbf0eed34	-0.55830693
6	0xbea2b8bf	-0.31781575
7	0xbea88a22	-0.32917887

fc4.weight f4 [2, 8]
0	0xbe676427	-0.22596799
1	0xbc6b3316	-0.014355442
2	0xbe49f6de	-0.19723079
3	0x3edb2596	0.42802113
4	0x3e936eb4	0.28795397
5	0xbe6355e3	-0.22200732
6	0x3e293b06	0.16526422
7	0xbdd42bcd	-0.10359917
8	0x3eb68f29	0.35656098
9	0x3ec14a4c	0.37751997
10	0x3e4a7634	0.19771653
11	0xbebe3695	-0.37151018
12	0xbd318339	-0.043338034
13	0xbe8e1761	-0.27752212
14	0xbccf1dfd	-0.025282854
15	0x3e9a08b1	0.30084756

fc4.bias f4 [2]
0	0xbe95770e	-0.29192394
1	0x3ca763a8	0.020433262
